<?xml version="1.0"?>
<net name="torch_jit" version="11">
	<layers>
		<layer id="1" name="emb" type="Parameter" version="opset1">
			<data shape="1,3002,512" element_type="f32" />
			<rt_info>
				<attribute name="fused_names" version="0" value="emb" />
			</rt_info>
			<output>
				<port id="0" precision="FP32" names="emb">
					<dim>1</dim>
					<dim>3002</dim>
					<dim>512</dim>
				</port>
			</output>
		</layer>
		<layer id="0" name="c0" type="Parameter" version="opset1">
			<data shape="1,64,3002,96" element_type="f32" />
			<rt_info>
				<attribute name="fused_names" version="0" value="c0" />
			</rt_info>
			<output>
				<port id="0" precision="FP32" names="c0">
					<dim>1</dim>
					<dim>64</dim>
					<dim>3002</dim>
					<dim>96</dim>
				</port>
			</output>
		</layer>
		<layer id="2" name="df_fc_a.0.bias" type="Const" version="opset1">
			<data element_type="f32" shape="1" offset="0" size="4" />
			<rt_info>
				<attribute name="fused_names" version="0" value="df_fc_a.0.bias" />
			</rt_info>
			<output>
				<port id="0" precision="FP32" names="df_fc_a.0.bias">
					<dim>1</dim>
				</port>
			</output>
		</layer>
		<layer id="3" name="/Shape" type="ShapeOf" version="opset3">
			<data output_type="i64" />
			<rt_info>
				<attribute name="fused_names" version="0" value="/Shape" />
			</rt_info>
			<input>
				<port id="0" precision="FP32">
					<dim>1</dim>
					<dim>3002</dim>
					<dim>512</dim>
				</port>
			</input>
			<output>
				<port id="1" precision="I64" names="/Shape_output_0">
					<dim>3</dim>
				</port>
			</output>
		</layer>
		<layer id="4" name="/Constant" type="Const" version="opset1">
			<data element_type="i64" shape="" offset="4" size="8" />
			<rt_info>
				<attribute name="fused_names" version="0" value="/Constant" />
			</rt_info>
			<output>
				<port id="0" precision="I64" names="/Constant_output_0" />
			</output>
		</layer>
		<layer id="5" name="Constant_12152" type="Const" version="opset1">
			<data element_type="i64" shape="" offset="4" size="8" />
			<rt_info>
				<attribute name="fused_names" version="0" value="Constant_12152" />
			</rt_info>
			<output>
				<port id="0" precision="I64" />
			</output>
		</layer>
		<layer id="6" name="/Gather" type="Gather" version="opset8">
			<data batch_dims="0" />
			<rt_info>
				<attribute name="fused_names" version="0" value="/Constant, /Gather, Constant_12152" />
			</rt_info>
			<input>
				<port id="0" precision="I64">
					<dim>3</dim>
				</port>
				<port id="1" precision="I64" />
				<port id="2" precision="I64" />
			</input>
			<output>
				<port id="3" precision="I64" names="/Gather_output_0" />
			</output>
		</layer>
		<layer id="7" name="Constant_12158" type="Const" version="opset1">
			<data element_type="i64" shape="1" offset="4" size="8" />
			<rt_info>
				<attribute name="fused_names" version="0" value="Constant_12158" />
			</rt_info>
			<output>
				<port id="0" precision="I64">
					<dim>1</dim>
				</port>
			</output>
		</layer>
		<layer id="8" name="/df_gru/linear_in/linear_in.0/Unsqueeze" type="Unsqueeze" version="opset1">
			<rt_info>
				<attribute name="fused_names" version="0" value="/df_gru/linear_in/linear_in.0/Unsqueeze, Constant_12158" />
			</rt_info>
			<input>
				<port id="0" precision="I64" />
				<port id="1" precision="I64">
					<dim>1</dim>
				</port>
			</input>
			<output>
				<port id="2" precision="I64" names="/df_gru/linear_in/linear_in.0/Unsqueeze_output_0">
					<dim>1</dim>
				</port>
			</output>
		</layer>
		<layer id="9" name="/Shape_1" type="ShapeOf" version="opset3">
			<data output_type="i64" />
			<rt_info>
				<attribute name="fused_names" version="0" value="/Shape_1" />
			</rt_info>
			<input>
				<port id="0" precision="FP32">
					<dim>1</dim>
					<dim>3002</dim>
					<dim>512</dim>
				</port>
			</input>
			<output>
				<port id="1" precision="I64" names="/Shape_1_output_0">
					<dim>3</dim>
				</port>
			</output>
		</layer>
		<layer id="10" name="/Constant_1" type="Const" version="opset1">
			<data element_type="i64" shape="" offset="12" size="8" />
			<rt_info>
				<attribute name="fused_names" version="0" value="/Constant_1" />
			</rt_info>
			<output>
				<port id="0" precision="I64" names="/Constant_1_output_0" />
			</output>
		</layer>
		<layer id="11" name="Constant_12156" type="Const" version="opset1">
			<data element_type="i64" shape="" offset="4" size="8" />
			<rt_info>
				<attribute name="fused_names" version="0" value="Constant_12156" />
			</rt_info>
			<output>
				<port id="0" precision="I64" />
			</output>
		</layer>
		<layer id="12" name="/Gather_1" type="Gather" version="opset8">
			<data batch_dims="0" />
			<rt_info>
				<attribute name="fused_names" version="0" value="/Constant_1, /Gather_1, Constant_12156" />
			</rt_info>
			<input>
				<port id="0" precision="I64">
					<dim>3</dim>
				</port>
				<port id="1" precision="I64" />
				<port id="2" precision="I64" />
			</input>
			<output>
				<port id="3" precision="I64" names="/Gather_1_output_0" />
			</output>
		</layer>
		<layer id="13" name="Constant_12160" type="Const" version="opset1">
			<data element_type="i64" shape="1" offset="4" size="8" />
			<rt_info>
				<attribute name="fused_names" version="0" value="Constant_12160" />
			</rt_info>
			<output>
				<port id="0" precision="I64">
					<dim>1</dim>
				</port>
			</output>
		</layer>
		<layer id="14" name="/df_gru/linear_in/linear_in.0/Unsqueeze_1" type="Unsqueeze" version="opset1">
			<rt_info>
				<attribute name="fused_names" version="0" value="/df_gru/linear_in/linear_in.0/Unsqueeze_1, Constant_12160" />
			</rt_info>
			<input>
				<port id="0" precision="I64" />
				<port id="1" precision="I64">
					<dim>1</dim>
				</port>
			</input>
			<output>
				<port id="2" precision="I64" names="/df_gru/linear_in/linear_in.0/Unsqueeze_1_output_0">
					<dim>1</dim>
				</port>
			</output>
		</layer>
		<layer id="15" name="/df_gru/linear_in/linear_in.0/Constant" type="Const" version="opset1">
			<data element_type="i64" shape="1" offset="20" size="8" />
			<rt_info>
				<attribute name="fused_names" version="0" value="/df_gru/linear_in/linear_in.0/Constant" />
			</rt_info>
			<output>
				<port id="0" precision="I64" names="/df_gru/linear_in/linear_in.0/Constant_output_0">
					<dim>1</dim>
				</port>
			</output>
		</layer>
		<layer id="16" name="/df_gru/linear_in/linear_in.0/Constant_1" type="Const" version="opset1">
			<data element_type="i64" shape="1" offset="28" size="8" />
			<rt_info>
				<attribute name="fused_names" version="0" value="/df_gru/linear_in/linear_in.0/Constant_1" />
			</rt_info>
			<output>
				<port id="0" precision="I64" names="/df_gru/linear_in/linear_in.0/Constant_1_output_0">
					<dim>1</dim>
				</port>
			</output>
		</layer>
		<layer id="17" name="/df_gru/linear_in/linear_in.0/Concat" type="Concat" version="opset1">
			<data axis="0" />
			<rt_info>
				<attribute name="fused_names" version="0" value="/df_gru/linear_in/linear_in.0/Concat, /df_gru/linear_in/linear_in.0/Constant, /df_gru/linear_in/linear_in.0/Constant_1" />
			</rt_info>
			<input>
				<port id="0" precision="I64">
					<dim>1</dim>
				</port>
				<port id="1" precision="I64">
					<dim>1</dim>
				</port>
				<port id="2" precision="I64">
					<dim>1</dim>
				</port>
				<port id="3" precision="I64">
					<dim>1</dim>
				</port>
			</input>
			<output>
				<port id="4" precision="I64" names="/df_gru/linear_in/linear_in.0/Concat_output_0">
					<dim>4</dim>
				</port>
			</output>
		</layer>
		<layer id="18" name="/df_gru/linear_in/linear_in.0/Reshape" type="Reshape" version="opset1">
			<data special_zero="true" />
			<rt_info>
				<attribute name="fused_names" version="0" value="/df_gru/linear_in/linear_in.0/Reshape" />
			</rt_info>
			<input>
				<port id="0" precision="FP32">
					<dim>1</dim>
					<dim>3002</dim>
					<dim>512</dim>
				</port>
				<port id="1" precision="I64">
					<dim>4</dim>
				</port>
			</input>
			<output>
				<port id="2" precision="FP32" names="/df_gru/linear_in/linear_in.0/Reshape_output_0">
					<dim>1</dim>
					<dim>3002</dim>
					<dim>8</dim>
					<dim>64</dim>
				</port>
			</output>
		</layer>
		<layer id="19" name="df_gru.linear_in.0.weight" type="Const" version="opset1">
			<data element_type="f32" shape="8, 64, 32" offset="36" size="65536" />
			<rt_info>
				<attribute name="fused_names" version="0" value="df_gru.linear_in.0.weight" />
			</rt_info>
			<output>
				<port id="0" precision="FP32" names="df_gru.linear_in.0.weight">
					<dim>8</dim>
					<dim>64</dim>
					<dim>32</dim>
				</port>
			</output>
		</layer>
		<layer id="20" name="/df_gru/linear_in/linear_in.0/Einsum" type="Einsum" version="opset7">
			<data equation="btgi,gih->btgh" />
			<rt_info>
				<attribute name="fused_names" version="0" value="/df_gru/linear_in/linear_in.0/Einsum" />
			</rt_info>
			<input>
				<port id="0" precision="FP32">
					<dim>1</dim>
					<dim>3002</dim>
					<dim>8</dim>
					<dim>64</dim>
				</port>
				<port id="1" precision="FP32">
					<dim>8</dim>
					<dim>64</dim>
					<dim>32</dim>
				</port>
			</input>
			<output>
				<port id="2" precision="FP32" names="/df_gru/linear_in/linear_in.0/Einsum_output_0">
					<dim>1</dim>
					<dim>3002</dim>
					<dim>8</dim>
					<dim>32</dim>
				</port>
			</output>
		</layer>
		<layer id="21" name="/df_gru/linear_in/linear_in.0/Shape" type="ShapeOf" version="opset3">
			<data output_type="i64" />
			<rt_info>
				<attribute name="fused_names" version="0" value="/df_gru/linear_in/linear_in.0/Shape" />
			</rt_info>
			<input>
				<port id="0" precision="FP32">
					<dim>1</dim>
					<dim>3002</dim>
					<dim>8</dim>
					<dim>32</dim>
				</port>
			</input>
			<output>
				<port id="1" precision="I64" names="/df_gru/linear_in/linear_in.0/Shape_output_0">
					<dim>4</dim>
				</port>
			</output>
		</layer>
		<layer id="22" name="/df_gru/linear_in/linear_in.0/Constant_3" type="Const" version="opset1">
			<data element_type="i64" shape="1" offset="4" size="8" />
			<rt_info>
				<attribute name="fused_names" version="0" value="/df_gru/linear_in/linear_in.0/Constant_3" />
			</rt_info>
			<output>
				<port id="0" precision="I64" names="/df_gru/linear_in/linear_in.0/Constant_3_output_0">
					<dim>1</dim>
				</port>
			</output>
		</layer>
		<layer id="23" name="/df_gru/linear_in/linear_in.0/Constant_4" type="Const" version="opset1">
			<data element_type="i64" shape="1" offset="65572" size="8" />
			<rt_info>
				<attribute name="fused_names" version="0" value="/df_gru/linear_in/linear_in.0/Constant_4" />
			</rt_info>
			<output>
				<port id="0" precision="I64" names="/df_gru/linear_in/linear_in.0/Constant_4_output_0">
					<dim>1</dim>
				</port>
			</output>
		</layer>
		<layer id="24" name="Constant_12173" type="Const" version="opset1">
			<data element_type="i64" shape="1" offset="12" size="8" />
			<rt_info>
				<attribute name="fused_names" version="0" value="Constant_12173" />
			</rt_info>
			<output>
				<port id="0" precision="I64">
					<dim>1</dim>
				</port>
			</output>
		</layer>
		<layer id="25" name="ShapeOf_12174" type="Const" version="opset1">
			<data element_type="i64" shape="1" offset="12" size="8" />
			<rt_info>
				<attribute name="fused_names" version="0" value="/df_gru/linear_in/linear_in.0/Constant_3, ShapeOf_12174" />
			</rt_info>
			<output>
				<port id="0" precision="I64">
					<dim>1</dim>
				</port>
			</output>
		</layer>
		<layer id="26" name="Broadcast_12175" type="Broadcast" version="opset3">
			<data mode="numpy" />
			<rt_info>
				<attribute name="fused_names" version="0" value="/df_gru/linear_in/linear_in.0/Constant_3, Broadcast_12175, Constant_12173, ShapeOf_12174" />
			</rt_info>
			<input>
				<port id="0" precision="I64">
					<dim>1</dim>
				</port>
				<port id="1" precision="I64">
					<dim>1</dim>
				</port>
			</input>
			<output>
				<port id="2" precision="I64">
					<dim>1</dim>
				</port>
			</output>
		</layer>
		<layer id="27" name="/df_gru/linear_in/linear_in.0/Constant_2" type="Const" version="opset1">
			<data element_type="i64" shape="1" offset="4" size="8" />
			<rt_info>
				<attribute name="fused_names" version="0" value="/df_gru/linear_in/linear_in.0/Constant_2" />
			</rt_info>
			<output>
				<port id="0" precision="I64" names="/df_gru/linear_in/linear_in.0/Constant_2_output_0">
					<dim>1</dim>
				</port>
			</output>
		</layer>
		<layer id="28" name="/df_gru/linear_in/linear_in.0/Slice" type="Slice" version="opset8">
			<rt_info>
				<attribute name="fused_names" version="0" value="/df_gru/linear_in/linear_in.0/Constant_2, /df_gru/linear_in/linear_in.0/Constant_3, /df_gru/linear_in/linear_in.0/Constant_4, /df_gru/linear_in/linear_in.0/Slice" />
			</rt_info>
			<input>
				<port id="0" precision="I64">
					<dim>4</dim>
				</port>
				<port id="1" precision="I64">
					<dim>1</dim>
				</port>
				<port id="2" precision="I64">
					<dim>1</dim>
				</port>
				<port id="3" precision="I64">
					<dim>1</dim>
				</port>
				<port id="4" precision="I64">
					<dim>1</dim>
				</port>
			</input>
			<output>
				<port id="5" precision="I64" names="/df_gru/linear_in/linear_in.0/Slice_output_0">
					<dim>2</dim>
				</port>
			</output>
		</layer>
		<layer id="29" name="/df_gru/linear_in/linear_in.0/Constant_5" type="Const" version="opset1">
			<data element_type="i64" shape="1" offset="65580" size="8" />
			<rt_info>
				<attribute name="fused_names" version="0" value="/df_gru/linear_in/linear_in.0/Constant_5" />
			</rt_info>
			<output>
				<port id="0" precision="I64" names="/df_gru/linear_in/linear_in.0/Constant_5_output_0">
					<dim>1</dim>
				</port>
			</output>
		</layer>
		<layer id="30" name="/df_gru/linear_in/linear_in.0/Concat_1" type="Concat" version="opset1">
			<data axis="0" />
			<rt_info>
				<attribute name="fused_names" version="0" value="/df_gru/linear_in/linear_in.0/Concat_1, /df_gru/linear_in/linear_in.0/Constant_5" />
			</rt_info>
			<input>
				<port id="0" precision="I64">
					<dim>2</dim>
				</port>
				<port id="1" precision="I64">
					<dim>1</dim>
				</port>
			</input>
			<output>
				<port id="2" precision="I64" names="/df_gru/linear_in/linear_in.0/Concat_1_output_0">
					<dim>3</dim>
				</port>
			</output>
		</layer>
		<layer id="31" name="/df_gru/linear_in/linear_in.0/Reshape_1" type="Reshape" version="opset1">
			<data special_zero="true" />
			<rt_info>
				<attribute name="fused_names" version="0" value="/df_gru/linear_in/linear_in.0/Reshape_1" />
			</rt_info>
			<input>
				<port id="0" precision="FP32">
					<dim>1</dim>
					<dim>3002</dim>
					<dim>8</dim>
					<dim>32</dim>
				</port>
				<port id="1" precision="I64">
					<dim>3</dim>
				</port>
			</input>
			<output>
				<port id="2" precision="FP32" names="/df_gru/linear_in/linear_in.0/Reshape_1_output_0">
					<dim>1</dim>
					<dim>3002</dim>
					<dim>256</dim>
				</port>
			</output>
		</layer>
		<layer id="32" name="/df_gru/linear_in/linear_in.1/Relu" type="ReLU" version="opset1">
			<rt_info>
				<attribute name="fused_names" version="0" value="/df_gru/linear_in/linear_in.1/Relu" />
			</rt_info>
			<input>
				<port id="0" precision="FP32">
					<dim>1</dim>
					<dim>3002</dim>
					<dim>256</dim>
				</port>
			</input>
			<output>
				<port id="1" precision="FP32" names="/df_gru/linear_in/linear_in.1/Relu_output_0">
					<dim>1</dim>
					<dim>3002</dim>
					<dim>256</dim>
				</port>
			</output>
		</layer>
		<layer id="33" name="Constant_12203" type="Const" version="opset1">
			<data element_type="i64" shape="3" offset="65588" size="24" />
			<rt_info>
				<attribute name="fused_names" version="0" value="Constant_12203" />
			</rt_info>
			<output>
				<port id="0" precision="I64">
					<dim>3</dim>
				</port>
			</output>
		</layer>
		<layer id="34" name="/df_gru/gru/Transpose" type="Transpose" version="opset1">
			<rt_info>
				<attribute name="fused_names" version="0" value="/df_gru/gru/Transpose" />
			</rt_info>
			<input>
				<port id="0" precision="FP32">
					<dim>1</dim>
					<dim>3002</dim>
					<dim>256</dim>
				</port>
				<port id="1" precision="I64">
					<dim>3</dim>
				</port>
			</input>
			<output>
				<port id="2" precision="FP32" names="/df_gru/gru/Transpose_output_0">
					<dim>3002</dim>
					<dim>1</dim>
					<dim>256</dim>
				</port>
			</output>
		</layer>
		<layer id="35" name="Constant_12218" type="Const" version="opset1">
			<data element_type="i64" shape="3" offset="65588" size="24" />
			<rt_info>
				<attribute name="fused_names" version="0" value="Constant_12218" />
			</rt_info>
			<output>
				<port id="0" precision="I64">
					<dim>3</dim>
				</port>
			</output>
		</layer>
		<layer id="36" name="Transpose_12219" type="Transpose" version="opset1">
			<rt_info>
				<attribute name="fused_names" version="0" value="Transpose_12219" />
			</rt_info>
			<input>
				<port id="0" precision="FP32">
					<dim>3002</dim>
					<dim>1</dim>
					<dim>256</dim>
				</port>
				<port id="1" precision="I64">
					<dim>3</dim>
				</port>
			</input>
			<output>
				<port id="2" precision="FP32">
					<dim>1</dim>
					<dim>3002</dim>
					<dim>256</dim>
				</port>
			</output>
		</layer>
		<layer id="37" name="Constant_12198" type="Const" version="opset1">
			<data element_type="f32" shape="" offset="65612" size="4" />
			<rt_info>
				<attribute name="fused_names" version="0" value="Constant_12198" />
			</rt_info>
			<output>
				<port id="0" precision="FP32" />
			</output>
		</layer>
		<layer id="38" name="/df_gru/gru/Constant_1" type="Const" version="opset1">
			<data element_type="i64" shape="1" offset="65572" size="8" />
			<rt_info>
				<attribute name="fused_names" version="0" value="/df_gru/gru/Constant_1" />
			</rt_info>
			<output>
				<port id="0" precision="I64" names="/df_gru/gru/Constant_1_output_0">
					<dim>1</dim>
				</port>
			</output>
		</layer>
		<layer id="39" name="/df_gru/gru/Shape" type="ShapeOf" version="opset3">
			<data output_type="i64" />
			<rt_info>
				<attribute name="fused_names" version="0" value="/df_gru/gru/Shape" />
			</rt_info>
			<input>
				<port id="0" precision="FP32">
					<dim>1</dim>
					<dim>3002</dim>
					<dim>256</dim>
				</port>
			</input>
			<output>
				<port id="1" precision="I64" names="/df_gru/gru/Shape_output_0">
					<dim>3</dim>
				</port>
			</output>
		</layer>
		<layer id="40" name="/df_gru/gru/Constant" type="Const" version="opset1">
			<data element_type="i64" shape="" offset="4" size="8" />
			<rt_info>
				<attribute name="fused_names" version="0" value="/df_gru/gru/Constant" />
			</rt_info>
			<output>
				<port id="0" precision="I64" names="/df_gru/gru/Constant_output_0" />
			</output>
		</layer>
		<layer id="41" name="Constant_12190" type="Const" version="opset1">
			<data element_type="i64" shape="" offset="4" size="8" />
			<rt_info>
				<attribute name="fused_names" version="0" value="Constant_12190" />
			</rt_info>
			<output>
				<port id="0" precision="I64" />
			</output>
		</layer>
		<layer id="42" name="/df_gru/gru/Gather" type="Gather" version="opset8">
			<data batch_dims="0" />
			<rt_info>
				<attribute name="fused_names" version="0" value="/df_gru/gru/Constant, /df_gru/gru/Gather, Constant_12190" />
			</rt_info>
			<input>
				<port id="0" precision="I64">
					<dim>3</dim>
				</port>
				<port id="1" precision="I64" />
				<port id="2" precision="I64" />
			</input>
			<output>
				<port id="3" precision="I64" names="/df_gru/gru/Gather_output_0" />
			</output>
		</layer>
		<layer id="43" name="Constant_12193" type="Const" version="opset1">
			<data element_type="i64" shape="1" offset="4" size="8" />
			<rt_info>
				<attribute name="fused_names" version="0" value="Constant_12193" />
			</rt_info>
			<output>
				<port id="0" precision="I64">
					<dim>1</dim>
				</port>
			</output>
		</layer>
		<layer id="44" name="/df_gru/gru/Unsqueeze" type="Unsqueeze" version="opset1">
			<rt_info>
				<attribute name="fused_names" version="0" value="/df_gru/gru/Unsqueeze, Constant_12193" />
			</rt_info>
			<input>
				<port id="0" precision="I64" />
				<port id="1" precision="I64">
					<dim>1</dim>
				</port>
			</input>
			<output>
				<port id="2" precision="I64" names="/df_gru/gru/Unsqueeze_output_0">
					<dim>1</dim>
				</port>
			</output>
		</layer>
		<layer id="45" name="/df_gru/gru/Constant_2" type="Const" version="opset1">
			<data element_type="i64" shape="1" offset="65616" size="8" />
			<rt_info>
				<attribute name="fused_names" version="0" value="/df_gru/gru/Constant_2" />
			</rt_info>
			<output>
				<port id="0" precision="I64" names="/df_gru/gru/Constant_2_output_0">
					<dim>1</dim>
				</port>
			</output>
		</layer>
		<layer id="46" name="/df_gru/gru/Concat" type="Concat" version="opset1">
			<data axis="0" />
			<rt_info>
				<attribute name="fused_names" version="0" value="/df_gru/gru/Concat, /df_gru/gru/Constant_1, /df_gru/gru/Constant_2" />
			</rt_info>
			<input>
				<port id="0" precision="I64">
					<dim>1</dim>
				</port>
				<port id="1" precision="I64">
					<dim>1</dim>
				</port>
				<port id="2" precision="I64">
					<dim>1</dim>
				</port>
			</input>
			<output>
				<port id="3" precision="I64" names="/df_gru/gru/Concat_output_0">
					<dim>3</dim>
				</port>
			</output>
		</layer>
		<layer id="47" name="/df_gru/gru/ConstantOfShape" type="Broadcast" version="opset3">
			<data mode="numpy" />
			<rt_info>
				<attribute name="fused_names" version="0" value="/df_gru/gru/ConstantOfShape" />
			</rt_info>
			<input>
				<port id="0" precision="FP32" />
				<port id="1" precision="I64">
					<dim>3</dim>
				</port>
			</input>
			<output>
				<port id="2" precision="FP32" names="/df_gru/gru/ConstantOfShape_output_0">
					<dim>2</dim>
					<dim>1</dim>
					<dim>256</dim>
				</port>
			</output>
		</layer>
		<layer id="48" name="/df_gru/gru/Constant_4" type="Const" version="opset1">
			<data element_type="i64" shape="1" offset="4" size="8" />
			<rt_info>
				<attribute name="fused_names" version="0" value="/df_gru/gru/Constant_4" />
			</rt_info>
			<output>
				<port id="0" precision="I64" names="/df_gru/gru/Constant_4_output_0">
					<dim>1</dim>
				</port>
			</output>
		</layer>
		<layer id="49" name="/df_gru/gru/Constant_5" type="Const" version="opset1">
			<data element_type="i64" shape="1" offset="12" size="8" />
			<rt_info>
				<attribute name="fused_names" version="0" value="/df_gru/gru/Constant_5" />
			</rt_info>
			<output>
				<port id="0" precision="I64" names="/df_gru/gru/Constant_5_output_0">
					<dim>1</dim>
				</port>
			</output>
		</layer>
		<layer id="50" name="Constant_12208" type="Const" version="opset1">
			<data element_type="i64" shape="1" offset="12" size="8" />
			<rt_info>
				<attribute name="fused_names" version="0" value="Constant_12208" />
			</rt_info>
			<output>
				<port id="0" precision="I64">
					<dim>1</dim>
				</port>
			</output>
		</layer>
		<layer id="51" name="ShapeOf_12209" type="Const" version="opset1">
			<data element_type="i64" shape="1" offset="12" size="8" />
			<rt_info>
				<attribute name="fused_names" version="0" value="ShapeOf_12209" />
			</rt_info>
			<output>
				<port id="0" precision="I64">
					<dim>1</dim>
				</port>
			</output>
		</layer>
		<layer id="52" name="Broadcast_12210" type="Broadcast" version="opset3">
			<data mode="numpy" />
			<rt_info>
				<attribute name="fused_names" version="0" value="Broadcast_12210, Constant_12208, ShapeOf_12209" />
			</rt_info>
			<input>
				<port id="0" precision="I64">
					<dim>1</dim>
				</port>
				<port id="1" precision="I64">
					<dim>1</dim>
				</port>
			</input>
			<output>
				<port id="2" precision="I64">
					<dim>1</dim>
				</port>
			</output>
		</layer>
		<layer id="53" name="/df_gru/gru/Constant_3" type="Const" version="opset1">
			<data element_type="i64" shape="1" offset="4" size="8" />
			<rt_info>
				<attribute name="fused_names" version="0" value="/df_gru/gru/Constant_3" />
			</rt_info>
			<output>
				<port id="0" precision="I64" names="/df_gru/gru/Constant_3_output_0">
					<dim>1</dim>
				</port>
			</output>
		</layer>
		<layer id="54" name="/df_gru/gru/Slice" type="Slice" version="opset8">
			<rt_info>
				<attribute name="fused_names" version="0" value="/df_gru/gru/Slice" />
			</rt_info>
			<input>
				<port id="0" precision="FP32">
					<dim>2</dim>
					<dim>1</dim>
					<dim>256</dim>
				</port>
				<port id="1" precision="I64">
					<dim>1</dim>
				</port>
				<port id="2" precision="I64">
					<dim>1</dim>
				</port>
				<port id="3" precision="I64">
					<dim>1</dim>
				</port>
				<port id="4" precision="I64">
					<dim>1</dim>
				</port>
			</input>
			<output>
				<port id="5" precision="FP32" names="/df_gru/gru/Slice_output_0">
					<dim>1</dim>
					<dim>1</dim>
					<dim>256</dim>
				</port>
			</output>
		</layer>
		<layer id="55" name="Constant_12238" type="Const" version="opset1">
			<data element_type="i64" shape="3" offset="65588" size="24" />
			<rt_info>
				<attribute name="fused_names" version="0" value="Constant_12238" />
			</rt_info>
			<output>
				<port id="0" precision="I64">
					<dim>3</dim>
				</port>
			</output>
		</layer>
		<layer id="56" name="Transpose_12239" type="Transpose" version="opset1">
			<rt_info>
				<attribute name="fused_names" version="0" value="Transpose_12239" />
			</rt_info>
			<input>
				<port id="0" precision="FP32">
					<dim>1</dim>
					<dim>1</dim>
					<dim>256</dim>
				</port>
				<port id="1" precision="I64">
					<dim>3</dim>
				</port>
			</input>
			<output>
				<port id="2" precision="FP32">
					<dim>1</dim>
					<dim>1</dim>
					<dim>256</dim>
				</port>
			</output>
		</layer>
		<layer id="57" name="ShapeOf_12220" type="ShapeOf" version="opset3">
			<data output_type="i64" />
			<rt_info>
				<attribute name="fused_names" version="0" value="ShapeOf_12220" />
			</rt_info>
			<input>
				<port id="0" precision="FP32">
					<dim>1</dim>
					<dim>3002</dim>
					<dim>256</dim>
				</port>
			</input>
			<output>
				<port id="1" precision="I64">
					<dim>3</dim>
				</port>
			</output>
		</layer>
		<layer id="58" name="Constant_12224" type="Const" version="opset1">
			<data element_type="i32" shape="1" offset="65624" size="4" />
			<rt_info>
				<attribute name="fused_names" version="0" value="Constant_12224" />
			</rt_info>
			<output>
				<port id="0" precision="I32">
					<dim>1</dim>
				</port>
			</output>
		</layer>
		<layer id="59" name="Constant_12221" type="Const" version="opset1">
			<data element_type="i32" shape="1" offset="65612" size="4" />
			<rt_info>
				<attribute name="fused_names" version="0" value="Constant_12221" />
			</rt_info>
			<output>
				<port id="0" precision="I32">
					<dim>1</dim>
				</port>
			</output>
		</layer>
		<layer id="60" name="Gather_12225" type="Gather" version="opset8">
			<data batch_dims="0" />
			<rt_info>
				<attribute name="fused_names" version="0" value="Constant_12221, Gather_12225" />
			</rt_info>
			<input>
				<port id="0" precision="I64">
					<dim>3</dim>
				</port>
				<port id="1" precision="I32">
					<dim>1</dim>
				</port>
				<port id="2" precision="I32">
					<dim>1</dim>
				</port>
			</input>
			<output>
				<port id="3" precision="I64">
					<dim>1</dim>
				</port>
			</output>
		</layer>
		<layer id="61" name="Constant_12222" type="Const" version="opset1">
			<data element_type="i32" shape="1" offset="65612" size="4" />
			<rt_info>
				<attribute name="fused_names" version="0" value="Constant_12222" />
			</rt_info>
			<output>
				<port id="0" precision="I32">
					<dim>1</dim>
				</port>
			</output>
		</layer>
		<layer id="62" name="Gather_12223" type="Gather" version="opset8">
			<data batch_dims="0" />
			<rt_info>
				<attribute name="fused_names" version="0" value="Constant_12221, Constant_12222, Gather_12223" />
			</rt_info>
			<input>
				<port id="0" precision="I64">
					<dim>3</dim>
				</port>
				<port id="1" precision="I32">
					<dim>1</dim>
				</port>
				<port id="2" precision="I32">
					<dim>1</dim>
				</port>
			</input>
			<output>
				<port id="3" precision="I64">
					<dim>1</dim>
				</port>
			</output>
		</layer>
		<layer id="63" name="Broadcast_12234" type="Broadcast" version="opset3">
			<data mode="numpy" />
			<rt_info>
				<attribute name="fused_names" version="0" value="Broadcast_12234" />
			</rt_info>
			<input>
				<port id="0" precision="I64">
					<dim>1</dim>
				</port>
				<port id="1" precision="I64">
					<dim>1</dim>
				</port>
			</input>
			<output>
				<port id="2" precision="I64">
					<dim>1</dim>
				</port>
			</output>
		</layer>
		<layer id="64" name="onnx::GRU_291" type="Const" version="opset1">
			<data element_type="f32" shape="1, 768, 256" offset="65628" size="786432" />
			<rt_info>
				<attribute name="fused_names" version="0" value="onnx::GRU_291" />
			</rt_info>
			<output>
				<port id="0" precision="FP32" names="onnx::GRU_291">
					<dim>1</dim>
					<dim>768</dim>
					<dim>256</dim>
				</port>
			</output>
		</layer>
		<layer id="65" name="onnx::GRU_292" type="Const" version="opset1">
			<data element_type="f32" shape="1, 768, 256" offset="852060" size="786432" />
			<rt_info>
				<attribute name="fused_names" version="0" value="onnx::GRU_292" />
			</rt_info>
			<output>
				<port id="0" precision="FP32" names="onnx::GRU_292">
					<dim>1</dim>
					<dim>768</dim>
					<dim>256</dim>
				</port>
			</output>
		</layer>
		<layer id="66" name="onnx::GRU_293" type="Const" version="opset1">
			<data element_type="f32" shape="1, 1536" offset="1638492" size="6144" />
			<rt_info>
				<attribute name="fused_names" version="0" value="onnx::GRU_293" />
			</rt_info>
			<output>
				<port id="0" precision="FP32" names="onnx::GRU_293">
					<dim>1</dim>
					<dim>1536</dim>
				</port>
			</output>
		</layer>
		<layer id="67" name="Constant_12241" type="Const" version="opset1">
			<data element_type="i64" shape="" offset="12" size="8" />
			<rt_info>
				<attribute name="fused_names" version="0" value="Constant_12241" />
			</rt_info>
			<output>
				<port id="0" precision="I64" />
			</output>
		</layer>
		<layer id="68" name="Split_12242" type="Split" version="opset1">
			<data num_splits="6" />
			<rt_info>
				<attribute name="fused_names" version="0" value="Split_12242" />
			</rt_info>
			<input>
				<port id="0" precision="FP32">
					<dim>1</dim>
					<dim>1536</dim>
				</port>
				<port id="1" precision="I64" />
			</input>
			<output>
				<port id="2" precision="FP32">
					<dim>1</dim>
					<dim>256</dim>
				</port>
				<port id="3" precision="FP32">
					<dim>1</dim>
					<dim>256</dim>
				</port>
				<port id="4" precision="FP32">
					<dim>1</dim>
					<dim>256</dim>
				</port>
				<port id="5" precision="FP32">
					<dim>1</dim>
					<dim>256</dim>
				</port>
				<port id="6" precision="FP32">
					<dim>1</dim>
					<dim>256</dim>
				</port>
				<port id="7" precision="FP32">
					<dim>1</dim>
					<dim>256</dim>
				</port>
			</output>
		</layer>
		<layer id="69" name="Add_12243" type="Add" version="opset1">
			<data auto_broadcast="numpy" />
			<rt_info>
				<attribute name="fused_names" version="0" value="Add_12243" />
			</rt_info>
			<input>
				<port id="0" precision="FP32">
					<dim>1</dim>
					<dim>256</dim>
				</port>
				<port id="1" precision="FP32">
					<dim>1</dim>
					<dim>256</dim>
				</port>
			</input>
			<output>
				<port id="2" precision="FP32">
					<dim>1</dim>
					<dim>256</dim>
				</port>
			</output>
		</layer>
		<layer id="70" name="Add_12244" type="Add" version="opset1">
			<data auto_broadcast="numpy" />
			<rt_info>
				<attribute name="fused_names" version="0" value="Add_12244" />
			</rt_info>
			<input>
				<port id="0" precision="FP32">
					<dim>1</dim>
					<dim>256</dim>
				</port>
				<port id="1" precision="FP32">
					<dim>1</dim>
					<dim>256</dim>
				</port>
			</input>
			<output>
				<port id="2" precision="FP32">
					<dim>1</dim>
					<dim>256</dim>
				</port>
			</output>
		</layer>
		<layer id="71" name="Concat_12245" type="Concat" version="opset1">
			<data axis="1" />
			<rt_info>
				<attribute name="fused_names" version="0" value="Concat_12245" />
			</rt_info>
			<input>
				<port id="0" precision="FP32">
					<dim>1</dim>
					<dim>256</dim>
				</port>
				<port id="1" precision="FP32">
					<dim>1</dim>
					<dim>256</dim>
				</port>
				<port id="2" precision="FP32">
					<dim>1</dim>
					<dim>256</dim>
				</port>
				<port id="3" precision="FP32">
					<dim>1</dim>
					<dim>256</dim>
				</port>
			</input>
			<output>
				<port id="4" precision="FP32">
					<dim>1</dim>
					<dim>1024</dim>
				</port>
			</output>
		</layer>
		<layer id="72" name="GRUSequence_12246" type="GRUSequence" version="opset5">
			<data direction="forward" linear_before_reset="true" hidden_size="256" activations="sigmoid, tanh" activations_alpha="" activations_beta="" clip="0" />
			<rt_info>
				<attribute name="fused_names" version="0" value="GRUSequence_12246" />
			</rt_info>
			<input>
				<port id="0" precision="FP32">
					<dim>1</dim>
					<dim>3002</dim>
					<dim>256</dim>
				</port>
				<port id="1" precision="FP32">
					<dim>1</dim>
					<dim>1</dim>
					<dim>256</dim>
				</port>
				<port id="2" precision="I64">
					<dim>1</dim>
				</port>
				<port id="3" precision="FP32">
					<dim>1</dim>
					<dim>768</dim>
					<dim>256</dim>
				</port>
				<port id="4" precision="FP32">
					<dim>1</dim>
					<dim>768</dim>
					<dim>256</dim>
				</port>
				<port id="5" precision="FP32">
					<dim>1</dim>
					<dim>1024</dim>
				</port>
			</input>
			<output>
				<port id="6" precision="FP32">
					<dim>1</dim>
					<dim>1</dim>
					<dim>3002</dim>
					<dim>256</dim>
				</port>
				<port id="7" precision="FP32">
					<dim>1</dim>
					<dim>1</dim>
					<dim>256</dim>
				</port>
			</output>
		</layer>
		<layer id="73" name="Constant_12247" type="Const" version="opset1">
			<data element_type="i64" shape="4" offset="1644636" size="32" />
			<rt_info>
				<attribute name="fused_names" version="0" value="Constant_12247" />
			</rt_info>
			<output>
				<port id="0" precision="I64">
					<dim>4</dim>
				</port>
			</output>
		</layer>
		<layer id="74" name="/df_gru/gru/GRU_/df_gru/gru/GRU_output_0" type="Transpose" version="opset1">
			<rt_info>
				<attribute name="fused_names" version="0" value="/df_gru/gru/GRU_/df_gru/gru/GRU_output_0" />
			</rt_info>
			<input>
				<port id="0" precision="FP32">
					<dim>1</dim>
					<dim>1</dim>
					<dim>3002</dim>
					<dim>256</dim>
				</port>
				<port id="1" precision="I64">
					<dim>4</dim>
				</port>
			</input>
			<output>
				<port id="2" precision="FP32" names="/df_gru/gru/GRU_output_0">
					<dim>3002</dim>
					<dim>1</dim>
					<dim>1</dim>
					<dim>256</dim>
				</port>
			</output>
		</layer>
		<layer id="75" name="Constant_12251" type="Const" version="opset1">
			<data element_type="i64" shape="1" offset="12" size="8" />
			<rt_info>
				<attribute name="fused_names" version="0" value="Constant_12251" />
			</rt_info>
			<output>
				<port id="0" precision="I64">
					<dim>1</dim>
				</port>
			</output>
		</layer>
		<layer id="76" name="/df_gru/gru/Squeeze" type="Squeeze" version="opset1">
			<rt_info>
				<attribute name="fused_names" version="0" value="/df_gru/gru/Squeeze" />
			</rt_info>
			<input>
				<port id="0" precision="FP32">
					<dim>3002</dim>
					<dim>1</dim>
					<dim>1</dim>
					<dim>256</dim>
				</port>
				<port id="1" precision="I64">
					<dim>1</dim>
				</port>
			</input>
			<output>
				<port id="2" precision="FP32" names="/df_gru/gru/Squeeze_output_0">
					<dim>3002</dim>
					<dim>1</dim>
					<dim>256</dim>
				</port>
			</output>
		</layer>
		<layer id="77" name="Constant_12266" type="Const" version="opset1">
			<data element_type="i64" shape="3" offset="65588" size="24" />
			<rt_info>
				<attribute name="fused_names" version="0" value="Constant_12266" />
			</rt_info>
			<output>
				<port id="0" precision="I64">
					<dim>3</dim>
				</port>
			</output>
		</layer>
		<layer id="78" name="Transpose_12267" type="Transpose" version="opset1">
			<rt_info>
				<attribute name="fused_names" version="0" value="Transpose_12267" />
			</rt_info>
			<input>
				<port id="0" precision="FP32">
					<dim>3002</dim>
					<dim>1</dim>
					<dim>256</dim>
				</port>
				<port id="1" precision="I64">
					<dim>3</dim>
				</port>
			</input>
			<output>
				<port id="2" precision="FP32">
					<dim>1</dim>
					<dim>3002</dim>
					<dim>256</dim>
				</port>
			</output>
		</layer>
		<layer id="79" name="/df_gru/gru/Constant_7" type="Const" version="opset1">
			<data element_type="i64" shape="1" offset="12" size="8" />
			<rt_info>
				<attribute name="fused_names" version="0" value="/df_gru/gru/Constant_7" />
			</rt_info>
			<output>
				<port id="0" precision="I64" names="/df_gru/gru/Constant_7_output_0">
					<dim>1</dim>
				</port>
			</output>
		</layer>
		<layer id="80" name="/df_gru/gru/Constant_8" type="Const" version="opset1">
			<data element_type="i64" shape="1" offset="65572" size="8" />
			<rt_info>
				<attribute name="fused_names" version="0" value="/df_gru/gru/Constant_8" />
			</rt_info>
			<output>
				<port id="0" precision="I64" names="/df_gru/gru/Constant_8_output_0">
					<dim>1</dim>
				</port>
			</output>
		</layer>
		<layer id="81" name="Constant_12256" type="Const" version="opset1">
			<data element_type="i64" shape="1" offset="12" size="8" />
			<rt_info>
				<attribute name="fused_names" version="0" value="Constant_12256" />
			</rt_info>
			<output>
				<port id="0" precision="I64">
					<dim>1</dim>
				</port>
			</output>
		</layer>
		<layer id="82" name="ShapeOf_12257" type="Const" version="opset1">
			<data element_type="i64" shape="1" offset="12" size="8" />
			<rt_info>
				<attribute name="fused_names" version="0" value="ShapeOf_12257" />
			</rt_info>
			<output>
				<port id="0" precision="I64">
					<dim>1</dim>
				</port>
			</output>
		</layer>
		<layer id="83" name="Broadcast_12258" type="Broadcast" version="opset3">
			<data mode="numpy" />
			<rt_info>
				<attribute name="fused_names" version="0" value="Broadcast_12258, Constant_12256, ShapeOf_12257" />
			</rt_info>
			<input>
				<port id="0" precision="I64">
					<dim>1</dim>
				</port>
				<port id="1" precision="I64">
					<dim>1</dim>
				</port>
			</input>
			<output>
				<port id="2" precision="I64">
					<dim>1</dim>
				</port>
			</output>
		</layer>
		<layer id="84" name="/df_gru/gru/Constant_6" type="Const" version="opset1">
			<data element_type="i64" shape="1" offset="4" size="8" />
			<rt_info>
				<attribute name="fused_names" version="0" value="/df_gru/gru/Constant_6" />
			</rt_info>
			<output>
				<port id="0" precision="I64" names="/df_gru/gru/Constant_6_output_0">
					<dim>1</dim>
				</port>
			</output>
		</layer>
		<layer id="85" name="/df_gru/gru/Slice_1" type="Slice" version="opset8">
			<rt_info>
				<attribute name="fused_names" version="0" value="/df_gru/gru/Slice_1" />
			</rt_info>
			<input>
				<port id="0" precision="FP32">
					<dim>2</dim>
					<dim>1</dim>
					<dim>256</dim>
				</port>
				<port id="1" precision="I64">
					<dim>1</dim>
				</port>
				<port id="2" precision="I64">
					<dim>1</dim>
				</port>
				<port id="3" precision="I64">
					<dim>1</dim>
				</port>
				<port id="4" precision="I64">
					<dim>1</dim>
				</port>
			</input>
			<output>
				<port id="5" precision="FP32" names="/df_gru/gru/Slice_1_output_0">
					<dim>1</dim>
					<dim>1</dim>
					<dim>256</dim>
				</port>
			</output>
		</layer>
		<layer id="86" name="Constant_12286" type="Const" version="opset1">
			<data element_type="i64" shape="3" offset="65588" size="24" />
			<rt_info>
				<attribute name="fused_names" version="0" value="Constant_12286" />
			</rt_info>
			<output>
				<port id="0" precision="I64">
					<dim>3</dim>
				</port>
			</output>
		</layer>
		<layer id="87" name="Transpose_12287" type="Transpose" version="opset1">
			<rt_info>
				<attribute name="fused_names" version="0" value="Transpose_12287" />
			</rt_info>
			<input>
				<port id="0" precision="FP32">
					<dim>1</dim>
					<dim>1</dim>
					<dim>256</dim>
				</port>
				<port id="1" precision="I64">
					<dim>3</dim>
				</port>
			</input>
			<output>
				<port id="2" precision="FP32">
					<dim>1</dim>
					<dim>1</dim>
					<dim>256</dim>
				</port>
			</output>
		</layer>
		<layer id="88" name="ShapeOf_12268" type="ShapeOf" version="opset3">
			<data output_type="i64" />
			<rt_info>
				<attribute name="fused_names" version="0" value="ShapeOf_12268" />
			</rt_info>
			<input>
				<port id="0" precision="FP32">
					<dim>1</dim>
					<dim>3002</dim>
					<dim>256</dim>
				</port>
			</input>
			<output>
				<port id="1" precision="I64">
					<dim>3</dim>
				</port>
			</output>
		</layer>
		<layer id="89" name="Constant_12272" type="Const" version="opset1">
			<data element_type="i32" shape="1" offset="65624" size="4" />
			<rt_info>
				<attribute name="fused_names" version="0" value="Constant_12272" />
			</rt_info>
			<output>
				<port id="0" precision="I32">
					<dim>1</dim>
				</port>
			</output>
		</layer>
		<layer id="90" name="Constant_12269" type="Const" version="opset1">
			<data element_type="i32" shape="1" offset="65612" size="4" />
			<rt_info>
				<attribute name="fused_names" version="0" value="Constant_12269" />
			</rt_info>
			<output>
				<port id="0" precision="I32">
					<dim>1</dim>
				</port>
			</output>
		</layer>
		<layer id="91" name="Gather_12273" type="Gather" version="opset8">
			<data batch_dims="0" />
			<rt_info>
				<attribute name="fused_names" version="0" value="Constant_12269, Gather_12273" />
			</rt_info>
			<input>
				<port id="0" precision="I64">
					<dim>3</dim>
				</port>
				<port id="1" precision="I32">
					<dim>1</dim>
				</port>
				<port id="2" precision="I32">
					<dim>1</dim>
				</port>
			</input>
			<output>
				<port id="3" precision="I64">
					<dim>1</dim>
				</port>
			</output>
		</layer>
		<layer id="92" name="Constant_12270" type="Const" version="opset1">
			<data element_type="i32" shape="1" offset="65612" size="4" />
			<rt_info>
				<attribute name="fused_names" version="0" value="Constant_12270" />
			</rt_info>
			<output>
				<port id="0" precision="I32">
					<dim>1</dim>
				</port>
			</output>
		</layer>
		<layer id="93" name="Gather_12271" type="Gather" version="opset8">
			<data batch_dims="0" />
			<rt_info>
				<attribute name="fused_names" version="0" value="Constant_12269, Constant_12270, Gather_12271" />
			</rt_info>
			<input>
				<port id="0" precision="I64">
					<dim>3</dim>
				</port>
				<port id="1" precision="I32">
					<dim>1</dim>
				</port>
				<port id="2" precision="I32">
					<dim>1</dim>
				</port>
			</input>
			<output>
				<port id="3" precision="I64">
					<dim>1</dim>
				</port>
			</output>
		</layer>
		<layer id="94" name="Broadcast_12282" type="Broadcast" version="opset3">
			<data mode="numpy" />
			<rt_info>
				<attribute name="fused_names" version="0" value="Broadcast_12282" />
			</rt_info>
			<input>
				<port id="0" precision="I64">
					<dim>1</dim>
				</port>
				<port id="1" precision="I64">
					<dim>1</dim>
				</port>
			</input>
			<output>
				<port id="2" precision="I64">
					<dim>1</dim>
				</port>
			</output>
		</layer>
		<layer id="95" name="onnx::GRU_311" type="Const" version="opset1">
			<data element_type="f32" shape="1, 768, 256" offset="1644668" size="786432" />
			<rt_info>
				<attribute name="fused_names" version="0" value="onnx::GRU_311" />
			</rt_info>
			<output>
				<port id="0" precision="FP32" names="onnx::GRU_311">
					<dim>1</dim>
					<dim>768</dim>
					<dim>256</dim>
				</port>
			</output>
		</layer>
		<layer id="96" name="onnx::GRU_312" type="Const" version="opset1">
			<data element_type="f32" shape="1, 768, 256" offset="2431100" size="786432" />
			<rt_info>
				<attribute name="fused_names" version="0" value="onnx::GRU_312" />
			</rt_info>
			<output>
				<port id="0" precision="FP32" names="onnx::GRU_312">
					<dim>1</dim>
					<dim>768</dim>
					<dim>256</dim>
				</port>
			</output>
		</layer>
		<layer id="97" name="onnx::GRU_313" type="Const" version="opset1">
			<data element_type="f32" shape="1, 1536" offset="3217532" size="6144" />
			<rt_info>
				<attribute name="fused_names" version="0" value="onnx::GRU_313" />
			</rt_info>
			<output>
				<port id="0" precision="FP32" names="onnx::GRU_313">
					<dim>1</dim>
					<dim>1536</dim>
				</port>
			</output>
		</layer>
		<layer id="98" name="Constant_12289" type="Const" version="opset1">
			<data element_type="i64" shape="" offset="12" size="8" />
			<rt_info>
				<attribute name="fused_names" version="0" value="Constant_12289" />
			</rt_info>
			<output>
				<port id="0" precision="I64" />
			</output>
		</layer>
		<layer id="99" name="Split_12290" type="Split" version="opset1">
			<data num_splits="6" />
			<rt_info>
				<attribute name="fused_names" version="0" value="Split_12290" />
			</rt_info>
			<input>
				<port id="0" precision="FP32">
					<dim>1</dim>
					<dim>1536</dim>
				</port>
				<port id="1" precision="I64" />
			</input>
			<output>
				<port id="2" precision="FP32">
					<dim>1</dim>
					<dim>256</dim>
				</port>
				<port id="3" precision="FP32">
					<dim>1</dim>
					<dim>256</dim>
				</port>
				<port id="4" precision="FP32">
					<dim>1</dim>
					<dim>256</dim>
				</port>
				<port id="5" precision="FP32">
					<dim>1</dim>
					<dim>256</dim>
				</port>
				<port id="6" precision="FP32">
					<dim>1</dim>
					<dim>256</dim>
				</port>
				<port id="7" precision="FP32">
					<dim>1</dim>
					<dim>256</dim>
				</port>
			</output>
		</layer>
		<layer id="100" name="Add_12291" type="Add" version="opset1">
			<data auto_broadcast="numpy" />
			<rt_info>
				<attribute name="fused_names" version="0" value="Add_12291" />
			</rt_info>
			<input>
				<port id="0" precision="FP32">
					<dim>1</dim>
					<dim>256</dim>
				</port>
				<port id="1" precision="FP32">
					<dim>1</dim>
					<dim>256</dim>
				</port>
			</input>
			<output>
				<port id="2" precision="FP32">
					<dim>1</dim>
					<dim>256</dim>
				</port>
			</output>
		</layer>
		<layer id="101" name="Add_12292" type="Add" version="opset1">
			<data auto_broadcast="numpy" />
			<rt_info>
				<attribute name="fused_names" version="0" value="Add_12292" />
			</rt_info>
			<input>
				<port id="0" precision="FP32">
					<dim>1</dim>
					<dim>256</dim>
				</port>
				<port id="1" precision="FP32">
					<dim>1</dim>
					<dim>256</dim>
				</port>
			</input>
			<output>
				<port id="2" precision="FP32">
					<dim>1</dim>
					<dim>256</dim>
				</port>
			</output>
		</layer>
		<layer id="102" name="Concat_12293" type="Concat" version="opset1">
			<data axis="1" />
			<rt_info>
				<attribute name="fused_names" version="0" value="Concat_12293" />
			</rt_info>
			<input>
				<port id="0" precision="FP32">
					<dim>1</dim>
					<dim>256</dim>
				</port>
				<port id="1" precision="FP32">
					<dim>1</dim>
					<dim>256</dim>
				</port>
				<port id="2" precision="FP32">
					<dim>1</dim>
					<dim>256</dim>
				</port>
				<port id="3" precision="FP32">
					<dim>1</dim>
					<dim>256</dim>
				</port>
			</input>
			<output>
				<port id="4" precision="FP32">
					<dim>1</dim>
					<dim>1024</dim>
				</port>
			</output>
		</layer>
		<layer id="103" name="GRUSequence_12294" type="GRUSequence" version="opset5">
			<data direction="forward" linear_before_reset="true" hidden_size="256" activations="sigmoid, tanh" activations_alpha="" activations_beta="" clip="0" />
			<rt_info>
				<attribute name="fused_names" version="0" value="GRUSequence_12294" />
			</rt_info>
			<input>
				<port id="0" precision="FP32">
					<dim>1</dim>
					<dim>3002</dim>
					<dim>256</dim>
				</port>
				<port id="1" precision="FP32">
					<dim>1</dim>
					<dim>1</dim>
					<dim>256</dim>
				</port>
				<port id="2" precision="I64">
					<dim>1</dim>
				</port>
				<port id="3" precision="FP32">
					<dim>1</dim>
					<dim>768</dim>
					<dim>256</dim>
				</port>
				<port id="4" precision="FP32">
					<dim>1</dim>
					<dim>768</dim>
					<dim>256</dim>
				</port>
				<port id="5" precision="FP32">
					<dim>1</dim>
					<dim>1024</dim>
				</port>
			</input>
			<output>
				<port id="6" precision="FP32">
					<dim>1</dim>
					<dim>1</dim>
					<dim>3002</dim>
					<dim>256</dim>
				</port>
				<port id="7" precision="FP32">
					<dim>1</dim>
					<dim>1</dim>
					<dim>256</dim>
				</port>
			</output>
		</layer>
		<layer id="104" name="Constant_12295" type="Const" version="opset1">
			<data element_type="i64" shape="4" offset="1644636" size="32" />
			<rt_info>
				<attribute name="fused_names" version="0" value="Constant_12295" />
			</rt_info>
			<output>
				<port id="0" precision="I64">
					<dim>4</dim>
				</port>
			</output>
		</layer>
		<layer id="105" name="/df_gru/gru/GRU_1_/df_gru/gru/GRU_1_output_0" type="Transpose" version="opset1">
			<rt_info>
				<attribute name="fused_names" version="0" value="/df_gru/gru/GRU_1_/df_gru/gru/GRU_1_output_0" />
			</rt_info>
			<input>
				<port id="0" precision="FP32">
					<dim>1</dim>
					<dim>1</dim>
					<dim>3002</dim>
					<dim>256</dim>
				</port>
				<port id="1" precision="I64">
					<dim>4</dim>
				</port>
			</input>
			<output>
				<port id="2" precision="FP32" names="/df_gru/gru/GRU_1_output_0">
					<dim>3002</dim>
					<dim>1</dim>
					<dim>1</dim>
					<dim>256</dim>
				</port>
			</output>
		</layer>
		<layer id="106" name="Constant_12299" type="Const" version="opset1">
			<data element_type="i64" shape="1" offset="12" size="8" />
			<rt_info>
				<attribute name="fused_names" version="0" value="Constant_12299" />
			</rt_info>
			<output>
				<port id="0" precision="I64">
					<dim>1</dim>
				</port>
			</output>
		</layer>
		<layer id="107" name="/df_gru/gru/Squeeze_1" type="Squeeze" version="opset1">
			<rt_info>
				<attribute name="fused_names" version="0" value="/df_gru/gru/Squeeze_1" />
			</rt_info>
			<input>
				<port id="0" precision="FP32">
					<dim>3002</dim>
					<dim>1</dim>
					<dim>1</dim>
					<dim>256</dim>
				</port>
				<port id="1" precision="I64">
					<dim>1</dim>
				</port>
			</input>
			<output>
				<port id="2" precision="FP32" names="/df_gru/gru/Squeeze_1_output_0">
					<dim>3002</dim>
					<dim>1</dim>
					<dim>256</dim>
				</port>
			</output>
		</layer>
		<layer id="108" name="Constant_12301" type="Const" version="opset1">
			<data element_type="i64" shape="3" offset="65588" size="24" />
			<rt_info>
				<attribute name="fused_names" version="0" value="Constant_12301" />
			</rt_info>
			<output>
				<port id="0" precision="I64">
					<dim>3</dim>
				</port>
			</output>
		</layer>
		<layer id="109" name="/df_gru/gru/Transpose_1" type="Transpose" version="opset1">
			<rt_info>
				<attribute name="fused_names" version="0" value="/df_gru/gru/Transpose_1" />
			</rt_info>
			<input>
				<port id="0" precision="FP32">
					<dim>3002</dim>
					<dim>1</dim>
					<dim>256</dim>
				</port>
				<port id="1" precision="I64">
					<dim>3</dim>
				</port>
			</input>
			<output>
				<port id="2" precision="FP32" names="/df_gru/gru/Transpose_1_output_0">
					<dim>1</dim>
					<dim>3002</dim>
					<dim>256</dim>
				</port>
			</output>
		</layer>
		<layer id="110" name="Constant_12303" type="Const" version="opset1">
			<data element_type="i64" shape="1" offset="4" size="8" />
			<rt_info>
				<attribute name="fused_names" version="0" value="Constant_12303" />
			</rt_info>
			<output>
				<port id="0" precision="I64">
					<dim>1</dim>
				</port>
			</output>
		</layer>
		<layer id="111" name="/df_skip/Unsqueeze" type="Unsqueeze" version="opset1">
			<rt_info>
				<attribute name="fused_names" version="0" value="/df_skip/Unsqueeze, Constant_12303" />
			</rt_info>
			<input>
				<port id="0" precision="I64" />
				<port id="1" precision="I64">
					<dim>1</dim>
				</port>
			</input>
			<output>
				<port id="2" precision="I64" names="/df_skip/Unsqueeze_output_0">
					<dim>1</dim>
				</port>
			</output>
		</layer>
		<layer id="112" name="Constant_12305" type="Const" version="opset1">
			<data element_type="i64" shape="1" offset="4" size="8" />
			<rt_info>
				<attribute name="fused_names" version="0" value="Constant_12305" />
			</rt_info>
			<output>
				<port id="0" precision="I64">
					<dim>1</dim>
				</port>
			</output>
		</layer>
		<layer id="113" name="/df_skip/Unsqueeze_1" type="Unsqueeze" version="opset1">
			<rt_info>
				<attribute name="fused_names" version="0" value="/df_skip/Unsqueeze_1, Constant_12305" />
			</rt_info>
			<input>
				<port id="0" precision="I64" />
				<port id="1" precision="I64">
					<dim>1</dim>
				</port>
			</input>
			<output>
				<port id="2" precision="I64" names="/df_skip/Unsqueeze_1_output_0">
					<dim>1</dim>
				</port>
			</output>
		</layer>
		<layer id="114" name="/df_skip/Constant" type="Const" version="opset1">
			<data element_type="i64" shape="1" offset="3223676" size="8" />
			<rt_info>
				<attribute name="fused_names" version="0" value="/df_skip/Constant" />
			</rt_info>
			<output>
				<port id="0" precision="I64" names="/df_skip/Constant_output_0">
					<dim>1</dim>
				</port>
			</output>
		</layer>
		<layer id="115" name="/df_skip/Constant_1" type="Const" version="opset1">
			<data element_type="i64" shape="1" offset="3223684" size="8" />
			<rt_info>
				<attribute name="fused_names" version="0" value="/df_skip/Constant_1" />
			</rt_info>
			<output>
				<port id="0" precision="I64" names="/df_skip/Constant_1_output_0">
					<dim>1</dim>
				</port>
			</output>
		</layer>
		<layer id="116" name="/df_skip/Concat" type="Concat" version="opset1">
			<data axis="0" />
			<rt_info>
				<attribute name="fused_names" version="0" value="/df_skip/Concat, /df_skip/Constant, /df_skip/Constant_1" />
			</rt_info>
			<input>
				<port id="0" precision="I64">
					<dim>1</dim>
				</port>
				<port id="1" precision="I64">
					<dim>1</dim>
				</port>
				<port id="2" precision="I64">
					<dim>1</dim>
				</port>
				<port id="3" precision="I64">
					<dim>1</dim>
				</port>
			</input>
			<output>
				<port id="4" precision="I64" names="/df_skip/Concat_output_0">
					<dim>4</dim>
				</port>
			</output>
		</layer>
		<layer id="117" name="/df_skip/Reshape" type="Reshape" version="opset1">
			<data special_zero="true" />
			<rt_info>
				<attribute name="fused_names" version="0" value="/df_skip/Reshape" />
			</rt_info>
			<input>
				<port id="0" precision="FP32">
					<dim>1</dim>
					<dim>3002</dim>
					<dim>512</dim>
				</port>
				<port id="1" precision="I64">
					<dim>4</dim>
				</port>
			</input>
			<output>
				<port id="2" precision="FP32" names="/df_skip/Reshape_output_0">
					<dim>1</dim>
					<dim>3002</dim>
					<dim>16</dim>
					<dim>32</dim>
				</port>
			</output>
		</layer>
		<layer id="118" name="df_skip.weight" type="Const" version="opset1">
			<data element_type="f32" shape="16, 32, 16" offset="3223692" size="32768" />
			<rt_info>
				<attribute name="fused_names" version="0" value="df_skip.weight" />
			</rt_info>
			<output>
				<port id="0" precision="FP32" names="df_skip.weight">
					<dim>16</dim>
					<dim>32</dim>
					<dim>16</dim>
				</port>
			</output>
		</layer>
		<layer id="119" name="/df_skip/Einsum" type="Einsum" version="opset7">
			<data equation="btgi,gih->btgh" />
			<rt_info>
				<attribute name="fused_names" version="0" value="/df_skip/Einsum" />
			</rt_info>
			<input>
				<port id="0" precision="FP32">
					<dim>1</dim>
					<dim>3002</dim>
					<dim>16</dim>
					<dim>32</dim>
				</port>
				<port id="1" precision="FP32">
					<dim>16</dim>
					<dim>32</dim>
					<dim>16</dim>
				</port>
			</input>
			<output>
				<port id="2" precision="FP32" names="/df_skip/Einsum_output_0">
					<dim>1</dim>
					<dim>3002</dim>
					<dim>16</dim>
					<dim>16</dim>
				</port>
			</output>
		</layer>
		<layer id="120" name="/df_skip/Shape" type="ShapeOf" version="opset3">
			<data output_type="i64" />
			<rt_info>
				<attribute name="fused_names" version="0" value="/df_skip/Shape" />
			</rt_info>
			<input>
				<port id="0" precision="FP32">
					<dim>1</dim>
					<dim>3002</dim>
					<dim>16</dim>
					<dim>16</dim>
				</port>
			</input>
			<output>
				<port id="1" precision="I64" names="/df_skip/Shape_output_0">
					<dim>4</dim>
				</port>
			</output>
		</layer>
		<layer id="121" name="/df_skip/Constant_3" type="Const" version="opset1">
			<data element_type="i64" shape="1" offset="4" size="8" />
			<rt_info>
				<attribute name="fused_names" version="0" value="/df_skip/Constant_3" />
			</rt_info>
			<output>
				<port id="0" precision="I64" names="/df_skip/Constant_3_output_0">
					<dim>1</dim>
				</port>
			</output>
		</layer>
		<layer id="122" name="/df_skip/Constant_4" type="Const" version="opset1">
			<data element_type="i64" shape="1" offset="65572" size="8" />
			<rt_info>
				<attribute name="fused_names" version="0" value="/df_skip/Constant_4" />
			</rt_info>
			<output>
				<port id="0" precision="I64" names="/df_skip/Constant_4_output_0">
					<dim>1</dim>
				</port>
			</output>
		</layer>
		<layer id="123" name="Constant_12318" type="Const" version="opset1">
			<data element_type="i64" shape="1" offset="12" size="8" />
			<rt_info>
				<attribute name="fused_names" version="0" value="Constant_12318" />
			</rt_info>
			<output>
				<port id="0" precision="I64">
					<dim>1</dim>
				</port>
			</output>
		</layer>
		<layer id="124" name="ShapeOf_12319" type="Const" version="opset1">
			<data element_type="i64" shape="1" offset="12" size="8" />
			<rt_info>
				<attribute name="fused_names" version="0" value="/df_skip/Constant_3, ShapeOf_12319" />
			</rt_info>
			<output>
				<port id="0" precision="I64">
					<dim>1</dim>
				</port>
			</output>
		</layer>
		<layer id="125" name="Broadcast_12320" type="Broadcast" version="opset3">
			<data mode="numpy" />
			<rt_info>
				<attribute name="fused_names" version="0" value="/df_skip/Constant_3, Broadcast_12320, Constant_12318, ShapeOf_12319" />
			</rt_info>
			<input>
				<port id="0" precision="I64">
					<dim>1</dim>
				</port>
				<port id="1" precision="I64">
					<dim>1</dim>
				</port>
			</input>
			<output>
				<port id="2" precision="I64">
					<dim>1</dim>
				</port>
			</output>
		</layer>
		<layer id="126" name="/df_skip/Constant_2" type="Const" version="opset1">
			<data element_type="i64" shape="1" offset="4" size="8" />
			<rt_info>
				<attribute name="fused_names" version="0" value="/df_skip/Constant_2" />
			</rt_info>
			<output>
				<port id="0" precision="I64" names="/df_skip/Constant_2_output_0">
					<dim>1</dim>
				</port>
			</output>
		</layer>
		<layer id="127" name="/df_skip/Slice" type="Slice" version="opset8">
			<rt_info>
				<attribute name="fused_names" version="0" value="/df_skip/Constant_2, /df_skip/Constant_3, /df_skip/Constant_4, /df_skip/Slice" />
			</rt_info>
			<input>
				<port id="0" precision="I64">
					<dim>4</dim>
				</port>
				<port id="1" precision="I64">
					<dim>1</dim>
				</port>
				<port id="2" precision="I64">
					<dim>1</dim>
				</port>
				<port id="3" precision="I64">
					<dim>1</dim>
				</port>
				<port id="4" precision="I64">
					<dim>1</dim>
				</port>
			</input>
			<output>
				<port id="5" precision="I64" names="/df_skip/Slice_output_0">
					<dim>2</dim>
				</port>
			</output>
		</layer>
		<layer id="128" name="/df_skip/Constant_5" type="Const" version="opset1">
			<data element_type="i64" shape="1" offset="65580" size="8" />
			<rt_info>
				<attribute name="fused_names" version="0" value="/df_skip/Constant_5" />
			</rt_info>
			<output>
				<port id="0" precision="I64" names="/df_skip/Constant_5_output_0">
					<dim>1</dim>
				</port>
			</output>
		</layer>
		<layer id="129" name="/df_skip/Concat_1" type="Concat" version="opset1">
			<data axis="0" />
			<rt_info>
				<attribute name="fused_names" version="0" value="/df_skip/Concat_1, /df_skip/Constant_5" />
			</rt_info>
			<input>
				<port id="0" precision="I64">
					<dim>2</dim>
				</port>
				<port id="1" precision="I64">
					<dim>1</dim>
				</port>
			</input>
			<output>
				<port id="2" precision="I64" names="/df_skip/Concat_1_output_0">
					<dim>3</dim>
				</port>
			</output>
		</layer>
		<layer id="130" name="/df_skip/Reshape_1" type="Reshape" version="opset1">
			<data special_zero="true" />
			<rt_info>
				<attribute name="fused_names" version="0" value="/df_skip/Reshape_1" />
			</rt_info>
			<input>
				<port id="0" precision="FP32">
					<dim>1</dim>
					<dim>3002</dim>
					<dim>16</dim>
					<dim>16</dim>
				</port>
				<port id="1" precision="I64">
					<dim>3</dim>
				</port>
			</input>
			<output>
				<port id="2" precision="FP32" names="/df_skip/Reshape_1_output_0">
					<dim>1</dim>
					<dim>3002</dim>
					<dim>256</dim>
				</port>
			</output>
		</layer>
		<layer id="131" name="/Add" type="Add" version="opset1">
			<data auto_broadcast="numpy" />
			<rt_info>
				<attribute name="fused_names" version="0" value="/Add" />
			</rt_info>
			<input>
				<port id="0" precision="FP32">
					<dim>1</dim>
					<dim>3002</dim>
					<dim>256</dim>
				</port>
				<port id="1" precision="FP32">
					<dim>1</dim>
					<dim>3002</dim>
					<dim>256</dim>
				</port>
			</input>
			<output>
				<port id="2" precision="FP32" names="/Add_output_0">
					<dim>1</dim>
					<dim>3002</dim>
					<dim>256</dim>
				</port>
			</output>
		</layer>
		<layer id="132" name="onnx::MatMul_321" type="Const" version="opset1">
			<data element_type="f32" shape="256, 1" offset="3256460" size="1024" />
			<rt_info>
				<attribute name="fused_names" version="0" value="onnx::MatMul_321" />
			</rt_info>
			<output>
				<port id="0" precision="FP32" names="onnx::MatMul_321">
					<dim>256</dim>
					<dim>1</dim>
				</port>
			</output>
		</layer>
		<layer id="133" name="/df_fc_a/df_fc_a.0/MatMul" type="MatMul" version="opset1">
			<data transpose_a="false" transpose_b="false" />
			<rt_info>
				<attribute name="fused_names" version="0" value="/df_fc_a/df_fc_a.0/MatMul" />
			</rt_info>
			<input>
				<port id="0" precision="FP32">
					<dim>1</dim>
					<dim>3002</dim>
					<dim>256</dim>
				</port>
				<port id="1" precision="FP32">
					<dim>256</dim>
					<dim>1</dim>
				</port>
			</input>
			<output>
				<port id="2" precision="FP32" names="/df_fc_a/df_fc_a.0/MatMul_output_0">
					<dim>1</dim>
					<dim>3002</dim>
					<dim>1</dim>
				</port>
			</output>
		</layer>
		<layer id="134" name="/df_fc_a/df_fc_a.0/Add" type="Add" version="opset1">
			<data auto_broadcast="numpy" />
			<rt_info>
				<attribute name="fused_names" version="0" value="/df_fc_a/df_fc_a.0/Add" />
			</rt_info>
			<input>
				<port id="0" precision="FP32">
					<dim>1</dim>
				</port>
				<port id="1" precision="FP32">
					<dim>1</dim>
					<dim>3002</dim>
					<dim>1</dim>
				</port>
			</input>
			<output>
				<port id="2" precision="FP32" names="/df_fc_a/df_fc_a.0/Add_output_0">
					<dim>1</dim>
					<dim>3002</dim>
					<dim>1</dim>
				</port>
			</output>
		</layer>
		<layer id="135" name="235" type="Sigmoid" version="opset1">
			<rt_info>
				<attribute name="fused_names" version="0" value="235" />
			</rt_info>
			<input>
				<port id="0" precision="FP32">
					<dim>1</dim>
					<dim>3002</dim>
					<dim>1</dim>
				</port>
			</input>
			<output>
				<port id="1" precision="FP32" names="235">
					<dim>1</dim>
					<dim>3002</dim>
					<dim>1</dim>
				</port>
			</output>
		</layer>
		<layer id="137" name="/df_out/df_out.0/Shape" type="ShapeOf" version="opset3">
			<data output_type="i64" />
			<rt_info>
				<attribute name="fused_names" version="0" value="/df_out/df_out.0/Shape" />
			</rt_info>
			<input>
				<port id="0" precision="FP32">
					<dim>1</dim>
					<dim>3002</dim>
					<dim>256</dim>
				</port>
			</input>
			<output>
				<port id="1" precision="I64" names="/df_out/df_out.0/Shape_output_0">
					<dim>3</dim>
				</port>
			</output>
		</layer>
		<layer id="138" name="/df_out/df_out.0/Constant" type="Const" version="opset1">
			<data element_type="i64" shape="" offset="4" size="8" />
			<rt_info>
				<attribute name="fused_names" version="0" value="/df_out/df_out.0/Constant" />
			</rt_info>
			<output>
				<port id="0" precision="I64" names="/df_out/df_out.0/Constant_output_0" />
			</output>
		</layer>
		<layer id="139" name="Constant_12432" type="Const" version="opset1">
			<data element_type="i64" shape="" offset="4" size="8" />
			<rt_info>
				<attribute name="fused_names" version="0" value="Constant_12432" />
			</rt_info>
			<output>
				<port id="0" precision="I64" />
			</output>
		</layer>
		<layer id="140" name="/df_out/df_out.0/Gather" type="Gather" version="opset8">
			<data batch_dims="0" />
			<rt_info>
				<attribute name="fused_names" version="0" value="/df_out/df_out.0/Constant, /df_out/df_out.0/Gather, Constant_12432" />
			</rt_info>
			<input>
				<port id="0" precision="I64">
					<dim>3</dim>
				</port>
				<port id="1" precision="I64" />
				<port id="2" precision="I64" />
			</input>
			<output>
				<port id="3" precision="I64" names="/df_out/df_out.0/Gather_output_0" />
			</output>
		</layer>
		<layer id="141" name="Constant_12438" type="Const" version="opset1">
			<data element_type="i64" shape="1" offset="4" size="8" />
			<rt_info>
				<attribute name="fused_names" version="0" value="Constant_12438" />
			</rt_info>
			<output>
				<port id="0" precision="I64">
					<dim>1</dim>
				</port>
			</output>
		</layer>
		<layer id="142" name="/df_out/df_out.0/Unsqueeze" type="Unsqueeze" version="opset1">
			<rt_info>
				<attribute name="fused_names" version="0" value="/df_out/df_out.0/Unsqueeze, Constant_12438" />
			</rt_info>
			<input>
				<port id="0" precision="I64" />
				<port id="1" precision="I64">
					<dim>1</dim>
				</port>
			</input>
			<output>
				<port id="2" precision="I64" names="/df_out/df_out.0/Unsqueeze_output_0">
					<dim>1</dim>
				</port>
			</output>
		</layer>
		<layer id="143" name="/df_out/df_out.0/Shape_1" type="ShapeOf" version="opset3">
			<data output_type="i64" />
			<rt_info>
				<attribute name="fused_names" version="0" value="/df_out/df_out.0/Shape_1" />
			</rt_info>
			<input>
				<port id="0" precision="FP32">
					<dim>1</dim>
					<dim>3002</dim>
					<dim>256</dim>
				</port>
			</input>
			<output>
				<port id="1" precision="I64" names="/df_out/df_out.0/Shape_1_output_0">
					<dim>3</dim>
				</port>
			</output>
		</layer>
		<layer id="144" name="/df_out/df_out.0/Constant_1" type="Const" version="opset1">
			<data element_type="i64" shape="" offset="12" size="8" />
			<rt_info>
				<attribute name="fused_names" version="0" value="/df_out/df_out.0/Constant_1" />
			</rt_info>
			<output>
				<port id="0" precision="I64" names="/df_out/df_out.0/Constant_1_output_0" />
			</output>
		</layer>
		<layer id="145" name="Constant_12436" type="Const" version="opset1">
			<data element_type="i64" shape="" offset="4" size="8" />
			<rt_info>
				<attribute name="fused_names" version="0" value="Constant_12436" />
			</rt_info>
			<output>
				<port id="0" precision="I64" />
			</output>
		</layer>
		<layer id="146" name="/df_out/df_out.0/Gather_1" type="Gather" version="opset8">
			<data batch_dims="0" />
			<rt_info>
				<attribute name="fused_names" version="0" value="/df_out/df_out.0/Constant_1, /df_out/df_out.0/Gather_1, Constant_12436" />
			</rt_info>
			<input>
				<port id="0" precision="I64">
					<dim>3</dim>
				</port>
				<port id="1" precision="I64" />
				<port id="2" precision="I64" />
			</input>
			<output>
				<port id="3" precision="I64" names="/df_out/df_out.0/Gather_1_output_0" />
			</output>
		</layer>
		<layer id="147" name="Constant_12440" type="Const" version="opset1">
			<data element_type="i64" shape="1" offset="4" size="8" />
			<rt_info>
				<attribute name="fused_names" version="0" value="Constant_12440" />
			</rt_info>
			<output>
				<port id="0" precision="I64">
					<dim>1</dim>
				</port>
			</output>
		</layer>
		<layer id="148" name="/df_out/df_out.0/Unsqueeze_1" type="Unsqueeze" version="opset1">
			<rt_info>
				<attribute name="fused_names" version="0" value="/df_out/df_out.0/Unsqueeze_1, Constant_12440" />
			</rt_info>
			<input>
				<port id="0" precision="I64" />
				<port id="1" precision="I64">
					<dim>1</dim>
				</port>
			</input>
			<output>
				<port id="2" precision="I64" names="/df_out/df_out.0/Unsqueeze_1_output_0">
					<dim>1</dim>
				</port>
			</output>
		</layer>
		<layer id="149" name="/df_out/df_out.0/Constant_2" type="Const" version="opset1">
			<data element_type="i64" shape="1" offset="3223676" size="8" />
			<rt_info>
				<attribute name="fused_names" version="0" value="/df_out/df_out.0/Constant_2" />
			</rt_info>
			<output>
				<port id="0" precision="I64" names="/df_out/df_out.0/Constant_2_output_0">
					<dim>1</dim>
				</port>
			</output>
		</layer>
		<layer id="150" name="/df_out/df_out.0/Constant_3" type="Const" version="opset1">
			<data element_type="i64" shape="1" offset="3223676" size="8" />
			<rt_info>
				<attribute name="fused_names" version="0" value="/df_out/df_out.0/Constant_3" />
			</rt_info>
			<output>
				<port id="0" precision="I64" names="/df_out/df_out.0/Constant_3_output_0">
					<dim>1</dim>
				</port>
			</output>
		</layer>
		<layer id="151" name="/df_out/df_out.0/Concat" type="Concat" version="opset1">
			<data axis="0" />
			<rt_info>
				<attribute name="fused_names" version="0" value="/df_out/df_out.0/Concat, /df_out/df_out.0/Constant_2, /df_out/df_out.0/Constant_3" />
			</rt_info>
			<input>
				<port id="0" precision="I64">
					<dim>1</dim>
				</port>
				<port id="1" precision="I64">
					<dim>1</dim>
				</port>
				<port id="2" precision="I64">
					<dim>1</dim>
				</port>
				<port id="3" precision="I64">
					<dim>1</dim>
				</port>
			</input>
			<output>
				<port id="4" precision="I64" names="/df_out/df_out.0/Concat_output_0">
					<dim>4</dim>
				</port>
			</output>
		</layer>
		<layer id="152" name="/df_out/df_out.0/Reshape" type="Reshape" version="opset1">
			<data special_zero="true" />
			<rt_info>
				<attribute name="fused_names" version="0" value="/df_out/df_out.0/Reshape" />
			</rt_info>
			<input>
				<port id="0" precision="FP32">
					<dim>1</dim>
					<dim>3002</dim>
					<dim>256</dim>
				</port>
				<port id="1" precision="I64">
					<dim>4</dim>
				</port>
			</input>
			<output>
				<port id="2" precision="FP32" names="/df_out/df_out.0/Reshape_output_0">
					<dim>1</dim>
					<dim>3002</dim>
					<dim>16</dim>
					<dim>16</dim>
				</port>
			</output>
		</layer>
		<layer id="153" name="df_out.0.weight" type="Const" version="opset1">
			<data element_type="f32" shape="16, 16, 60" offset="3257484" size="61440" />
			<rt_info>
				<attribute name="fused_names" version="0" value="df_out.0.weight" />
			</rt_info>
			<output>
				<port id="0" precision="FP32" names="df_out.0.weight">
					<dim>16</dim>
					<dim>16</dim>
					<dim>60</dim>
				</port>
			</output>
		</layer>
		<layer id="154" name="/df_out/df_out.0/Einsum" type="Einsum" version="opset7">
			<data equation="btgi,gih->btgh" />
			<rt_info>
				<attribute name="fused_names" version="0" value="/df_out/df_out.0/Einsum" />
			</rt_info>
			<input>
				<port id="0" precision="FP32">
					<dim>1</dim>
					<dim>3002</dim>
					<dim>16</dim>
					<dim>16</dim>
				</port>
				<port id="1" precision="FP32">
					<dim>16</dim>
					<dim>16</dim>
					<dim>60</dim>
				</port>
			</input>
			<output>
				<port id="2" precision="FP32" names="/df_out/df_out.0/Einsum_output_0">
					<dim>1</dim>
					<dim>3002</dim>
					<dim>16</dim>
					<dim>60</dim>
				</port>
			</output>
		</layer>
		<layer id="155" name="/df_out/df_out.0/Shape_2" type="ShapeOf" version="opset3">
			<data output_type="i64" />
			<rt_info>
				<attribute name="fused_names" version="0" value="/df_out/df_out.0/Shape_2" />
			</rt_info>
			<input>
				<port id="0" precision="FP32">
					<dim>1</dim>
					<dim>3002</dim>
					<dim>16</dim>
					<dim>60</dim>
				</port>
			</input>
			<output>
				<port id="1" precision="I64" names="/df_out/df_out.0/Shape_2_output_0">
					<dim>4</dim>
				</port>
			</output>
		</layer>
		<layer id="156" name="/df_out/df_out.0/Constant_5" type="Const" version="opset1">
			<data element_type="i64" shape="1" offset="4" size="8" />
			<rt_info>
				<attribute name="fused_names" version="0" value="/df_out/df_out.0/Constant_5" />
			</rt_info>
			<output>
				<port id="0" precision="I64" names="/df_out/df_out.0/Constant_5_output_0">
					<dim>1</dim>
				</port>
			</output>
		</layer>
		<layer id="157" name="/df_out/df_out.0/Constant_6" type="Const" version="opset1">
			<data element_type="i64" shape="1" offset="65572" size="8" />
			<rt_info>
				<attribute name="fused_names" version="0" value="/df_out/df_out.0/Constant_6" />
			</rt_info>
			<output>
				<port id="0" precision="I64" names="/df_out/df_out.0/Constant_6_output_0">
					<dim>1</dim>
				</port>
			</output>
		</layer>
		<layer id="158" name="Constant_12453" type="Const" version="opset1">
			<data element_type="i64" shape="1" offset="12" size="8" />
			<rt_info>
				<attribute name="fused_names" version="0" value="Constant_12453" />
			</rt_info>
			<output>
				<port id="0" precision="I64">
					<dim>1</dim>
				</port>
			</output>
		</layer>
		<layer id="159" name="ShapeOf_12454" type="Const" version="opset1">
			<data element_type="i64" shape="1" offset="12" size="8" />
			<rt_info>
				<attribute name="fused_names" version="0" value="/df_out/df_out.0/Constant_5, ShapeOf_12454" />
			</rt_info>
			<output>
				<port id="0" precision="I64">
					<dim>1</dim>
				</port>
			</output>
		</layer>
		<layer id="160" name="Broadcast_12455" type="Broadcast" version="opset3">
			<data mode="numpy" />
			<rt_info>
				<attribute name="fused_names" version="0" value="/df_out/df_out.0/Constant_5, Broadcast_12455, Constant_12453, ShapeOf_12454" />
			</rt_info>
			<input>
				<port id="0" precision="I64">
					<dim>1</dim>
				</port>
				<port id="1" precision="I64">
					<dim>1</dim>
				</port>
			</input>
			<output>
				<port id="2" precision="I64">
					<dim>1</dim>
				</port>
			</output>
		</layer>
		<layer id="161" name="/df_out/df_out.0/Constant_4" type="Const" version="opset1">
			<data element_type="i64" shape="1" offset="4" size="8" />
			<rt_info>
				<attribute name="fused_names" version="0" value="/df_out/df_out.0/Constant_4" />
			</rt_info>
			<output>
				<port id="0" precision="I64" names="/df_out/df_out.0/Constant_4_output_0">
					<dim>1</dim>
				</port>
			</output>
		</layer>
		<layer id="162" name="/df_out/df_out.0/Slice" type="Slice" version="opset8">
			<rt_info>
				<attribute name="fused_names" version="0" value="/df_out/df_out.0/Constant_4, /df_out/df_out.0/Constant_5, /df_out/df_out.0/Constant_6, /df_out/df_out.0/Slice" />
			</rt_info>
			<input>
				<port id="0" precision="I64">
					<dim>4</dim>
				</port>
				<port id="1" precision="I64">
					<dim>1</dim>
				</port>
				<port id="2" precision="I64">
					<dim>1</dim>
				</port>
				<port id="3" precision="I64">
					<dim>1</dim>
				</port>
				<port id="4" precision="I64">
					<dim>1</dim>
				</port>
			</input>
			<output>
				<port id="5" precision="I64" names="/df_out/df_out.0/Slice_output_0">
					<dim>2</dim>
				</port>
			</output>
		</layer>
		<layer id="163" name="/df_out/df_out.0/Constant_7" type="Const" version="opset1">
			<data element_type="i64" shape="1" offset="65580" size="8" />
			<rt_info>
				<attribute name="fused_names" version="0" value="/df_out/df_out.0/Constant_7" />
			</rt_info>
			<output>
				<port id="0" precision="I64" names="/df_out/df_out.0/Constant_7_output_0">
					<dim>1</dim>
				</port>
			</output>
		</layer>
		<layer id="164" name="/df_out/df_out.0/Concat_1" type="Concat" version="opset1">
			<data axis="0" />
			<rt_info>
				<attribute name="fused_names" version="0" value="/df_out/df_out.0/Concat_1, /df_out/df_out.0/Constant_7" />
			</rt_info>
			<input>
				<port id="0" precision="I64">
					<dim>2</dim>
				</port>
				<port id="1" precision="I64">
					<dim>1</dim>
				</port>
			</input>
			<output>
				<port id="2" precision="I64" names="/df_out/df_out.0/Concat_1_output_0">
					<dim>3</dim>
				</port>
			</output>
		</layer>
		<layer id="165" name="/df_out/df_out.0/Reshape_1" type="Reshape" version="opset1">
			<data special_zero="true" />
			<rt_info>
				<attribute name="fused_names" version="0" value="/df_out/df_out.0/Reshape_1" />
			</rt_info>
			<input>
				<port id="0" precision="FP32">
					<dim>1</dim>
					<dim>3002</dim>
					<dim>16</dim>
					<dim>60</dim>
				</port>
				<port id="1" precision="I64">
					<dim>3</dim>
				</port>
			</input>
			<output>
				<port id="2" precision="FP32" names="/df_out/df_out.0/Reshape_1_output_0">
					<dim>1</dim>
					<dim>3002</dim>
					<dim>960</dim>
				</port>
			</output>
		</layer>
		<layer id="166" name="/df_out/df_out.1/Tanh" type="Tanh" version="opset1">
			<rt_info>
				<attribute name="fused_names" version="0" value="/df_out/df_out.1/Tanh" />
			</rt_info>
			<input>
				<port id="0" precision="FP32">
					<dim>1</dim>
					<dim>3002</dim>
					<dim>960</dim>
				</port>
			</input>
			<output>
				<port id="1" precision="FP32" names="/df_out/df_out.1/Tanh_output_0">
					<dim>1</dim>
					<dim>3002</dim>
					<dim>960</dim>
				</port>
			</output>
		</layer>
		<layer id="167" name="Constant_12468" type="Const" version="opset1">
			<data element_type="i64" shape="1" offset="4" size="8" />
			<rt_info>
				<attribute name="fused_names" version="0" value="Constant_12468" />
			</rt_info>
			<output>
				<port id="0" precision="I64">
					<dim>1</dim>
				</port>
			</output>
		</layer>
		<layer id="168" name="/Unsqueeze" type="Unsqueeze" version="opset1">
			<rt_info>
				<attribute name="fused_names" version="0" value="/Unsqueeze, Constant_12468" />
			</rt_info>
			<input>
				<port id="0" precision="I64" />
				<port id="1" precision="I64">
					<dim>1</dim>
				</port>
			</input>
			<output>
				<port id="2" precision="I64" names="/Unsqueeze_output_0">
					<dim>1</dim>
				</port>
			</output>
		</layer>
		<layer id="169" name="Constant_12470" type="Const" version="opset1">
			<data element_type="i64" shape="1" offset="4" size="8" />
			<rt_info>
				<attribute name="fused_names" version="0" value="Constant_12470" />
			</rt_info>
			<output>
				<port id="0" precision="I64">
					<dim>1</dim>
				</port>
			</output>
		</layer>
		<layer id="170" name="/Unsqueeze_1" type="Unsqueeze" version="opset1">
			<rt_info>
				<attribute name="fused_names" version="0" value="/Unsqueeze_1, Constant_12470" />
			</rt_info>
			<input>
				<port id="0" precision="I64" />
				<port id="1" precision="I64">
					<dim>1</dim>
				</port>
			</input>
			<output>
				<port id="2" precision="I64" names="/Unsqueeze_1_output_0">
					<dim>1</dim>
				</port>
			</output>
		</layer>
		<layer id="171" name="/Constant_2" type="Const" version="opset1">
			<data element_type="i64" shape="1" offset="3318924" size="8" />
			<rt_info>
				<attribute name="fused_names" version="0" value="/Constant_2" />
			</rt_info>
			<output>
				<port id="0" precision="I64" names="/Constant_2_output_0">
					<dim>1</dim>
				</port>
			</output>
		</layer>
		<layer id="172" name="/Constant_3" type="Const" version="opset1">
			<data element_type="i64" shape="1" offset="3318932" size="8" />
			<rt_info>
				<attribute name="fused_names" version="0" value="/Constant_3" />
			</rt_info>
			<output>
				<port id="0" precision="I64" names="/Constant_3_output_0">
					<dim>1</dim>
				</port>
			</output>
		</layer>
		<layer id="173" name="/Concat" type="Concat" version="opset1">
			<data axis="0" />
			<rt_info>
				<attribute name="fused_names" version="0" value="/Concat, /Constant_2, /Constant_3" />
			</rt_info>
			<input>
				<port id="0" precision="I64">
					<dim>1</dim>
				</port>
				<port id="1" precision="I64">
					<dim>1</dim>
				</port>
				<port id="2" precision="I64">
					<dim>1</dim>
				</port>
				<port id="3" precision="I64">
					<dim>1</dim>
				</port>
			</input>
			<output>
				<port id="4" precision="I64" names="/Concat_output_0">
					<dim>4</dim>
				</port>
			</output>
		</layer>
		<layer id="174" name="/Reshape" type="Reshape" version="opset1">
			<data special_zero="true" />
			<rt_info>
				<attribute name="fused_names" version="0" value="/Reshape" />
			</rt_info>
			<input>
				<port id="0" precision="FP32">
					<dim>1</dim>
					<dim>3002</dim>
					<dim>960</dim>
				</port>
				<port id="1" precision="I64">
					<dim>4</dim>
				</port>
			</input>
			<output>
				<port id="2" precision="FP32" names="/Reshape_output_0">
					<dim>1</dim>
					<dim>3002</dim>
					<dim>96</dim>
					<dim>10</dim>
				</port>
			</output>
		</layer>
		<layer id="175" name="/df_convp/df_convp.0/Constant_1" type="Const" version="opset1">
			<data element_type="i64" shape="4" offset="3318940" size="32" />
			<rt_info>
				<attribute name="fused_names" version="0" value="/df_convp/df_convp.0/Constant_1" />
			</rt_info>
			<output>
				<port id="0" precision="I64" names="/df_convp/df_convp.0/Constant_1_output_0">
					<dim>4</dim>
				</port>
			</output>
		</layer>
		<layer id="176" name="Constant_12336" type="Const" version="opset1">
			<data element_type="i64" shape="" offset="4" size="8" />
			<rt_info>
				<attribute name="fused_names" version="0" value="Constant_12336" />
			</rt_info>
			<output>
				<port id="0" precision="I64" />
			</output>
		</layer>
		<layer id="177" name="/df_convp/df_convp.0/Constant" type="Const" version="opset1">
			<data element_type="i64" shape="1" offset="3318972" size="8" />
			<rt_info>
				<attribute name="fused_names" version="0" value="/df_convp/df_convp.0/Constant" />
			</rt_info>
			<output>
				<port id="0" precision="I64" names="/df_convp/df_convp.0/Constant_output_0">
					<dim>1</dim>
				</port>
			</output>
		</layer>
		<layer id="178" name="/df_convp/df_convp.0/ConstantOfShape" type="Broadcast" version="opset3">
			<data mode="numpy" />
			<rt_info>
				<attribute name="fused_names" version="0" value="/df_convp/df_convp.0/Constant, /df_convp/df_convp.0/ConstantOfShape, Constant_12336" />
			</rt_info>
			<input>
				<port id="0" precision="I64" />
				<port id="1" precision="I64">
					<dim>1</dim>
				</port>
			</input>
			<output>
				<port id="2" precision="I64" names="/df_convp/df_convp.0/ConstantOfShape_output_0">
					<dim>4</dim>
				</port>
			</output>
		</layer>
		<layer id="179" name="/df_convp/df_convp.0/Concat" type="Concat" version="opset1">
			<data axis="0" />
			<rt_info>
				<attribute name="fused_names" version="0" value="/df_convp/df_convp.0/Concat, /df_convp/df_convp.0/Constant_1" />
			</rt_info>
			<input>
				<port id="0" precision="I64">
					<dim>4</dim>
				</port>
				<port id="1" precision="I64">
					<dim>4</dim>
				</port>
			</input>
			<output>
				<port id="2" precision="I64" names="/df_convp/df_convp.0/Concat_output_0">
					<dim>8</dim>
				</port>
			</output>
		</layer>
		<layer id="180" name="/df_convp/df_convp.0/Constant_2" type="Const" version="opset1">
			<data element_type="i64" shape="2" offset="3318980" size="16" />
			<rt_info>
				<attribute name="fused_names" version="0" value="/df_convp/df_convp.0/Constant_2" />
			</rt_info>
			<output>
				<port id="0" precision="I64" names="/df_convp/df_convp.0/Constant_2_output_0">
					<dim>2</dim>
				</port>
			</output>
		</layer>
		<layer id="181" name="/df_convp/df_convp.0/Reshape" type="Reshape" version="opset1">
			<data special_zero="true" />
			<rt_info>
				<attribute name="fused_names" version="0" value="/df_convp/df_convp.0/Constant_2, /df_convp/df_convp.0/Reshape" />
			</rt_info>
			<input>
				<port id="0" precision="I64">
					<dim>8</dim>
				</port>
				<port id="1" precision="I64">
					<dim>2</dim>
				</port>
			</input>
			<output>
				<port id="2" precision="I64" names="/df_convp/df_convp.0/Reshape_output_0">
					<dim>4</dim>
					<dim>2</dim>
				</port>
			</output>
		</layer>
		<layer id="182" name="/df_convp/df_convp.0/Constant_4" type="Const" version="opset1">
			<data element_type="i64" shape="1" offset="65580" size="8" />
			<rt_info>
				<attribute name="fused_names" version="0" value="/df_convp/df_convp.0/Constant_4" />
			</rt_info>
			<output>
				<port id="0" precision="I64" names="/df_convp/df_convp.0/Constant_4_output_0">
					<dim>1</dim>
				</port>
			</output>
		</layer>
		<layer id="183" name="/df_convp/df_convp.0/Constant_5" type="Const" version="opset1">
			<data element_type="i64" shape="1" offset="3318996" size="8" />
			<rt_info>
				<attribute name="fused_names" version="0" value="/df_convp/df_convp.0/Constant_5" />
			</rt_info>
			<output>
				<port id="0" precision="I64" names="/df_convp/df_convp.0/Constant_5_output_0">
					<dim>1</dim>
				</port>
			</output>
		</layer>
		<layer id="184" name="/df_convp/df_convp.0/Constant_6" type="Const" version="opset1">
			<data element_type="i64" shape="1" offset="65580" size="8" />
			<rt_info>
				<attribute name="fused_names" version="0" value="/df_convp/df_convp.0/Constant_6" />
			</rt_info>
			<output>
				<port id="0" precision="I64" names="/df_convp/df_convp.0/Constant_6_output_0">
					<dim>1</dim>
				</port>
			</output>
		</layer>
		<layer id="185" name="/df_convp/df_convp.0/Constant_3" type="Const" version="opset1">
			<data element_type="i64" shape="1" offset="4" size="8" />
			<rt_info>
				<attribute name="fused_names" version="0" value="/df_convp/df_convp.0/Constant_3" />
			</rt_info>
			<output>
				<port id="0" precision="I64" names="/df_convp/df_convp.0/Constant_3_output_0">
					<dim>1</dim>
				</port>
			</output>
		</layer>
		<layer id="186" name="/df_convp/df_convp.0/Slice" type="Slice" version="opset8">
			<rt_info>
				<attribute name="fused_names" version="0" value="/df_convp/df_convp.0/Constant_3, /df_convp/df_convp.0/Constant_4, /df_convp/df_convp.0/Constant_5, /df_convp/df_convp.0/Constant_6, /df_convp/df_convp.0/Slice" />
			</rt_info>
			<input>
				<port id="0" precision="I64">
					<dim>4</dim>
					<dim>2</dim>
				</port>
				<port id="1" precision="I64">
					<dim>1</dim>
				</port>
				<port id="2" precision="I64">
					<dim>1</dim>
				</port>
				<port id="3" precision="I64">
					<dim>1</dim>
				</port>
				<port id="4" precision="I64">
					<dim>1</dim>
				</port>
			</input>
			<output>
				<port id="5" precision="I64" names="/df_convp/df_convp.0/Slice_output_0">
					<dim>4</dim>
					<dim>2</dim>
				</port>
			</output>
		</layer>
		<layer id="187" name="Constant_12346" type="Const" version="opset1">
			<data element_type="i64" shape="2" offset="3319004" size="16" />
			<rt_info>
				<attribute name="fused_names" version="0" value="Constant_12346" />
			</rt_info>
			<output>
				<port id="0" precision="I64">
					<dim>2</dim>
				</port>
			</output>
		</layer>
		<layer id="188" name="/df_convp/df_convp.0/Transpose" type="Transpose" version="opset1">
			<rt_info>
				<attribute name="fused_names" version="0" value="/df_convp/df_convp.0/Transpose, Constant_12346" />
			</rt_info>
			<input>
				<port id="0" precision="I64">
					<dim>4</dim>
					<dim>2</dim>
				</port>
				<port id="1" precision="I64">
					<dim>2</dim>
				</port>
			</input>
			<output>
				<port id="2" precision="I64" names="/df_convp/df_convp.0/Transpose_output_0">
					<dim>2</dim>
					<dim>4</dim>
				</port>
			</output>
		</layer>
		<layer id="189" name="Constant_12636" type="Const" version="opset1">
			<data element_type="i64" shape="1" offset="65580" size="8" />
			<rt_info>
				<attribute name="fused_names" version="0" value="/df_convp/df_convp.0/Reshape_1" />
			</rt_info>
			<output>
				<port id="0" precision="I64">
					<dim>1</dim>
				</port>
			</output>
		</layer>
		<layer id="190" name="/df_convp/df_convp.0/Reshape_1" type="Reshape" version="opset1">
			<data special_zero="true" />
			<rt_info>
				<attribute name="fused_names" version="0" value="/df_convp/df_convp.0/Reshape_1" />
			</rt_info>
			<input>
				<port id="0" precision="I64">
					<dim>2</dim>
					<dim>4</dim>
				</port>
				<port id="1" precision="I64">
					<dim>1</dim>
				</port>
			</input>
			<output>
				<port id="2" precision="I64" names="/df_convp/df_convp.0/Reshape_1_output_0">
					<dim>8</dim>
				</port>
			</output>
		</layer>
		<layer id="191" name="/df_convp/df_convp.0/Cast" type="Convert" version="opset1">
			<data destination_type="i64" />
			<rt_info>
				<attribute name="fused_names" version="0" value="/df_convp/df_convp.0/Cast" />
			</rt_info>
			<input>
				<port id="0" precision="I64">
					<dim>8</dim>
				</port>
			</input>
			<output>
				<port id="1" precision="I64" names="/df_convp/df_convp.0/Cast_output_0">
					<dim>8</dim>
				</port>
			</output>
		</layer>
		<layer id="192" name="Constant_12352" type="Const" version="opset1">
			<data element_type="i64" shape="" offset="4" size="8" />
			<rt_info>
				<attribute name="fused_names" version="0" value="Constant_12352" />
			</rt_info>
			<output>
				<port id="0" precision="I64" />
			</output>
		</layer>
		<layer id="193" name="Split_12353" type="Split" version="opset1">
			<data num_splits="2" />
			<rt_info>
				<attribute name="fused_names" version="0" value="Constant_12352, Split_12353" />
			</rt_info>
			<input>
				<port id="0" precision="I64">
					<dim>8</dim>
				</port>
				<port id="1" precision="I64" />
			</input>
			<output>
				<port id="2" precision="I64">
					<dim>4</dim>
				</port>
				<port id="3" precision="I64">
					<dim>4</dim>
				</port>
			</output>
		</layer>
		<layer id="194" name="/df_convp/df_convp.0/Constant_8" type="Const" version="opset1">
			<data element_type="f32" shape="" offset="65612" size="4" />
			<rt_info>
				<attribute name="fused_names" version="0" value="/df_convp/df_convp.0/Constant_8" />
			</rt_info>
			<output>
				<port id="0" precision="FP32" names="/df_convp/df_convp.0/Constant_8_output_0" />
			</output>
		</layer>
		<layer id="195" name="/df_convp/df_convp.0/Pad" type="Pad" version="opset12">
			<data pad_mode="constant" />
			<rt_info>
				<attribute name="fused_names" version="0" value="/df_convp/df_convp.0/Pad" />
			</rt_info>
			<input>
				<port id="0" precision="FP32">
					<dim>1</dim>
					<dim>64</dim>
					<dim>3002</dim>
					<dim>96</dim>
				</port>
				<port id="1" precision="I64">
					<dim>4</dim>
				</port>
				<port id="2" precision="I64">
					<dim>4</dim>
				</port>
				<port id="3" precision="FP32" />
			</input>
			<output>
				<port id="4" precision="FP32" names="/df_convp/df_convp.0/Pad_output_0">
					<dim>1</dim>
					<dim>64</dim>
					<dim>3006</dim>
					<dim>96</dim>
				</port>
			</output>
		</layer>
		<layer id="196" name="df_convp.1.weight" type="Const" version="opset1">
			<data element_type="f32" shape="10, 32, 5, 1" offset="3319020" size="6400" />
			<rt_info>
				<attribute name="fused_names" version="0" value="df_convp.1.weight" />
			</rt_info>
			<output>
				<port id="0" precision="FP32" names="df_convp.1.weight">
					<dim>10</dim>
					<dim>32</dim>
					<dim>5</dim>
					<dim>1</dim>
				</port>
			</output>
		</layer>
		<layer id="197" name="Constant_12362" type="Const" version="opset1">
			<data element_type="i64" shape="1" offset="65572" size="8" />
			<rt_info>
				<attribute name="fused_names" version="0" value="Constant_12362" />
			</rt_info>
			<output>
				<port id="0" precision="I64">
					<dim>1</dim>
				</port>
			</output>
		</layer>
		<layer id="198" name="ShapeOf_12363" type="Const" version="opset1">
			<data element_type="i64" shape="4" offset="3325420" size="32" />
			<rt_info>
				<attribute name="fused_names" version="0" value="ShapeOf_12363" />
			</rt_info>
			<output>
				<port id="0" precision="I64">
					<dim>4</dim>
				</port>
			</output>
		</layer>
		<layer id="199" name="Constant_12360" type="Const" version="opset1">
			<data element_type="i64" shape="" offset="4" size="8" />
			<rt_info>
				<attribute name="fused_names" version="0" value="Constant_12360" />
			</rt_info>
			<output>
				<port id="0" precision="I64" />
			</output>
		</layer>
		<layer id="200" name="Constant_12361" type="Const" version="opset1">
			<data element_type="i64" shape="2" offset="3325452" size="16" />
			<rt_info>
				<attribute name="fused_names" version="0" value="Constant_12361" />
			</rt_info>
			<output>
				<port id="0" precision="I64">
					<dim>2</dim>
				</port>
			</output>
		</layer>
		<layer id="201" name="VariadicSplit_12364" type="VariadicSplit" version="opset1">
			<rt_info>
				<attribute name="fused_names" version="0" value="Constant_12360, Constant_12361, ShapeOf_12363, VariadicSplit_12364" />
			</rt_info>
			<input>
				<port id="0" precision="I64">
					<dim>4</dim>
				</port>
				<port id="1" precision="I64" />
				<port id="2" precision="I64">
					<dim>2</dim>
				</port>
			</input>
			<output>
				<port id="3" precision="I64">
					<dim>1</dim>
				</port>
				<port id="4" precision="I64">
					<dim>3</dim>
				</port>
			</output>
		</layer>
		<layer id="202" name="Divide_12365" type="Divide" version="opset1">
			<data auto_broadcast="numpy" m_pythondiv="true" />
			<rt_info>
				<attribute name="fused_names" version="0" value="Constant_12362, Divide_12365" />
			</rt_info>
			<input>
				<port id="0" precision="I64">
					<dim>1</dim>
				</port>
				<port id="1" precision="I64">
					<dim>1</dim>
				</port>
			</input>
			<output>
				<port id="2" precision="I64">
					<dim>1</dim>
				</port>
			</output>
		</layer>
		<layer id="203" name="Concat_12366" type="Concat" version="opset1">
			<data axis="0" />
			<rt_info>
				<attribute name="fused_names" version="0" value="Concat_12366, Constant_12362" />
			</rt_info>
			<input>
				<port id="0" precision="I64">
					<dim>1</dim>
				</port>
				<port id="1" precision="I64">
					<dim>1</dim>
				</port>
				<port id="2" precision="I64">
					<dim>3</dim>
				</port>
			</input>
			<output>
				<port id="3" precision="I64">
					<dim>5</dim>
				</port>
			</output>
		</layer>
		<layer id="204" name="Reshape_12367" type="Reshape" version="opset1">
			<data special_zero="false" />
			<rt_info>
				<attribute name="fused_names" version="0" value="Reshape_12367" />
			</rt_info>
			<input>
				<port id="0" precision="FP32">
					<dim>10</dim>
					<dim>32</dim>
					<dim>5</dim>
					<dim>1</dim>
				</port>
				<port id="1" precision="I64">
					<dim>5</dim>
				</port>
			</input>
			<output>
				<port id="2" precision="FP32">
					<dim>2</dim>
					<dim>5</dim>
					<dim>32</dim>
					<dim>5</dim>
					<dim>1</dim>
				</port>
			</output>
		</layer>
		<layer id="205" name="/df_convp/df_convp.1/Conv" type="GroupConvolution" version="opset1">
			<data strides="1, 1" pads_begin="0, 0" pads_end="0, 0" dilations="1, 1" auto_pad="explicit" />
			<rt_info>
				<attribute name="fused_names" version="0" value="/df_convp/df_convp.1/Conv" />
			</rt_info>
			<input>
				<port id="0" precision="FP32">
					<dim>1</dim>
					<dim>64</dim>
					<dim>3006</dim>
					<dim>96</dim>
				</port>
				<port id="1" precision="FP32">
					<dim>2</dim>
					<dim>5</dim>
					<dim>32</dim>
					<dim>5</dim>
					<dim>1</dim>
				</port>
			</input>
			<output>
				<port id="2" precision="FP32" names="/df_convp/df_convp.1/Conv_output_0">
					<dim>1</dim>
					<dim>10</dim>
					<dim>3002</dim>
					<dim>96</dim>
				</port>
			</output>
		</layer>
		<layer id="206" name="onnx::Conv_268" type="Const" version="opset1">
			<data element_type="f32" shape="10, 10, 1, 1" offset="3325468" size="400" />
			<rt_info>
				<attribute name="fused_names" version="0" value="onnx::Conv_268" />
			</rt_info>
			<output>
				<port id="0" precision="FP32" names="onnx::Conv_268">
					<dim>10</dim>
					<dim>10</dim>
					<dim>1</dim>
					<dim>1</dim>
				</port>
			</output>
		</layer>
		<layer id="207" name="/df_convp/df_convp.2/Conv/WithoutBiases" type="Convolution" version="opset1">
			<data strides="1, 1" dilations="1, 1" pads_begin="0, 0" pads_end="0, 0" auto_pad="explicit" />
			<rt_info>
				<attribute name="fused_names" version="0" value="/df_convp/df_convp.2/Conv/WithoutBiases" />
			</rt_info>
			<input>
				<port id="0" precision="FP32">
					<dim>1</dim>
					<dim>10</dim>
					<dim>3002</dim>
					<dim>96</dim>
				</port>
				<port id="1" precision="FP32">
					<dim>10</dim>
					<dim>10</dim>
					<dim>1</dim>
					<dim>1</dim>
				</port>
			</input>
			<output>
				<port id="2" precision="FP32">
					<dim>1</dim>
					<dim>10</dim>
					<dim>3002</dim>
					<dim>96</dim>
				</port>
			</output>
		</layer>
		<layer id="208" name="onnx::Conv_269" type="Const" version="opset1">
			<data element_type="f32" shape="10" offset="3325868" size="40" />
			<rt_info>
				<attribute name="fused_names" version="0" value="onnx::Conv_269" />
			</rt_info>
			<output>
				<port id="0" precision="FP32" names="onnx::Conv_269">
					<dim>10</dim>
				</port>
			</output>
		</layer>
		<layer id="209" name="Constant_12411" type="Const" version="opset1">
			<data element_type="i64" shape="1" offset="12" size="8" />
			<rt_info>
				<attribute name="fused_names" version="0" value="Constant_12411" />
			</rt_info>
			<output>
				<port id="0" precision="I64">
					<dim>1</dim>
				</port>
			</output>
		</layer>
		<layer id="210" name="ShapeOf_12418" type="Const" version="opset1">
			<data element_type="i64" shape="1" offset="3318932" size="8" />
			<rt_info>
				<attribute name="fused_names" version="0" value="ShapeOf_12418" />
			</rt_info>
			<output>
				<port id="0" precision="I64">
					<dim>1</dim>
				</port>
			</output>
		</layer>
		<layer id="211" name="ShapeOf_12409" type="ShapeOf" version="opset3">
			<data output_type="i64" />
			<rt_info>
				<attribute name="fused_names" version="0" value="ShapeOf_12409" />
			</rt_info>
			<input>
				<port id="0" precision="FP32">
					<dim>1</dim>
					<dim>10</dim>
					<dim>3002</dim>
					<dim>96</dim>
				</port>
			</input>
			<output>
				<port id="1" precision="I64">
					<dim>4</dim>
				</port>
			</output>
		</layer>
		<layer id="212" name="ShapeOf_12410" type="ShapeOf" version="opset3">
			<data output_type="i64" />
			<rt_info>
				<attribute name="fused_names" version="0" value="ShapeOf_12410" />
			</rt_info>
			<input>
				<port id="0" precision="I64">
					<dim>4</dim>
				</port>
			</input>
			<output>
				<port id="1" precision="I64">
					<dim>1</dim>
				</port>
			</output>
		</layer>
		<layer id="213" name="Constant_12412" type="Const" version="opset1">
			<data element_type="i64" shape="1" offset="65572" size="8" />
			<rt_info>
				<attribute name="fused_names" version="0" value="Constant_12412" />
			</rt_info>
			<output>
				<port id="0" precision="I64">
					<dim>1</dim>
				</port>
			</output>
		</layer>
		<layer id="214" name="Subtract_12413" type="Subtract" version="opset1">
			<data auto_broadcast="numpy" />
			<rt_info>
				<attribute name="fused_names" version="0" value="Constant_12412, Subtract_12413" />
			</rt_info>
			<input>
				<port id="0" precision="I64">
					<dim>1</dim>
				</port>
				<port id="1" precision="I64">
					<dim>1</dim>
				</port>
			</input>
			<output>
				<port id="2" precision="I64">
					<dim>1</dim>
				</port>
			</output>
		</layer>
		<layer id="215" name="Broadcast_12414" type="Broadcast" version="opset3">
			<data mode="numpy" />
			<rt_info>
				<attribute name="fused_names" version="0" value="Broadcast_12414, Constant_12411" />
			</rt_info>
			<input>
				<port id="0" precision="I64">
					<dim>1</dim>
				</port>
				<port id="1" precision="I64">
					<dim>1</dim>
				</port>
			</input>
			<output>
				<port id="2" precision="I64">
					<dim>2</dim>
				</port>
			</output>
		</layer>
		<layer id="216" name="Concat_12419" type="Concat" version="opset1">
			<data axis="0" />
			<rt_info>
				<attribute name="fused_names" version="0" value="Concat_12419, Constant_12411, ShapeOf_12418" />
			</rt_info>
			<input>
				<port id="0" precision="I64">
					<dim>1</dim>
				</port>
				<port id="1" precision="I64">
					<dim>1</dim>
				</port>
				<port id="2" precision="I64">
					<dim>2</dim>
				</port>
			</input>
			<output>
				<port id="3" precision="I64">
					<dim>4</dim>
				</port>
			</output>
		</layer>
		<layer id="217" name="Reshape_12420" type="Reshape" version="opset1">
			<data special_zero="false" />
			<rt_info>
				<attribute name="fused_names" version="0" value="Reshape_12420" />
			</rt_info>
			<input>
				<port id="0" precision="FP32">
					<dim>10</dim>
				</port>
				<port id="1" precision="I64">
					<dim>4</dim>
				</port>
			</input>
			<output>
				<port id="2" precision="FP32">
					<dim>1</dim>
					<dim>10</dim>
					<dim>1</dim>
					<dim>1</dim>
				</port>
			</output>
		</layer>
		<layer id="218" name="/df_convp/df_convp.2/Conv" type="Add" version="opset1">
			<data auto_broadcast="numpy" />
			<rt_info>
				<attribute name="fused_names" version="0" value="/df_convp/df_convp.2/Conv" />
			</rt_info>
			<input>
				<port id="0" precision="FP32">
					<dim>1</dim>
					<dim>10</dim>
					<dim>3002</dim>
					<dim>96</dim>
				</port>
				<port id="1" precision="FP32">
					<dim>1</dim>
					<dim>10</dim>
					<dim>1</dim>
					<dim>1</dim>
				</port>
			</input>
			<output>
				<port id="2" precision="FP32" names="/df_convp/df_convp.2/Conv_output_0">
					<dim>1</dim>
					<dim>10</dim>
					<dim>3002</dim>
					<dim>96</dim>
				</port>
			</output>
		</layer>
		<layer id="219" name="/df_convp/df_convp.4/Relu" type="ReLU" version="opset1">
			<rt_info>
				<attribute name="fused_names" version="0" value="/df_convp/df_convp.4/Relu" />
			</rt_info>
			<input>
				<port id="0" precision="FP32">
					<dim>1</dim>
					<dim>10</dim>
					<dim>3002</dim>
					<dim>96</dim>
				</port>
			</input>
			<output>
				<port id="1" precision="FP32" names="/df_convp/df_convp.4/Relu_output_0">
					<dim>1</dim>
					<dim>10</dim>
					<dim>3002</dim>
					<dim>96</dim>
				</port>
			</output>
		</layer>
		<layer id="220" name="Constant_12425" type="Const" version="opset1">
			<data element_type="i64" shape="4" offset="3325908" size="32" />
			<rt_info>
				<attribute name="fused_names" version="0" value="Constant_12425" />
			</rt_info>
			<output>
				<port id="0" precision="I64">
					<dim>4</dim>
				</port>
			</output>
		</layer>
		<layer id="221" name="/Transpose" type="Transpose" version="opset1">
			<rt_info>
				<attribute name="fused_names" version="0" value="/Transpose" />
			</rt_info>
			<input>
				<port id="0" precision="FP32">
					<dim>1</dim>
					<dim>10</dim>
					<dim>3002</dim>
					<dim>96</dim>
				</port>
				<port id="1" precision="I64">
					<dim>4</dim>
				</port>
			</input>
			<output>
				<port id="2" precision="FP32" names="/Transpose_output_0">
					<dim>1</dim>
					<dim>3002</dim>
					<dim>96</dim>
					<dim>10</dim>
				</port>
			</output>
		</layer>
		<layer id="222" name="coefs" type="Add" version="opset1">
			<data auto_broadcast="numpy" />
			<rt_info>
				<attribute name="fused_names" version="0" value="coefs" />
			</rt_info>
			<input>
				<port id="0" precision="FP32">
					<dim>1</dim>
					<dim>3002</dim>
					<dim>96</dim>
					<dim>10</dim>
				</port>
				<port id="1" precision="FP32">
					<dim>1</dim>
					<dim>3002</dim>
					<dim>96</dim>
					<dim>10</dim>
				</port>
			</input>
			<output>
				<port id="2" precision="FP32" names="coefs">
					<dim>1</dim>
					<dim>3002</dim>
					<dim>96</dim>
					<dim>10</dim>
				</port>
			</output>
		</layer>
		<layer id="223" name="coefs/sink_port_0" type="Result" version="opset1">
			<rt_info>
				<attribute name="fused_names" version="0" value="coefs/sink_port_0" />
			</rt_info>
			<input>
				<port id="0" precision="FP32">
					<dim>1</dim>
					<dim>3002</dim>
					<dim>96</dim>
					<dim>10</dim>
				</port>
			</input>
		</layer>
		<layer id="136" name="235/sink_port_0" type="Result" version="opset1">
			<rt_info>
				<attribute name="fused_names" version="0" value="235/sink_port_0" />
			</rt_info>
			<input>
				<port id="0" precision="FP32">
					<dim>1</dim>
					<dim>3002</dim>
					<dim>1</dim>
				</port>
			</input>
		</layer>
	</layers>
	<edges>
		<edge from-layer="0" from-port="0" to-layer="195" to-port="0" />
		<edge from-layer="1" from-port="0" to-layer="3" to-port="0" />
		<edge from-layer="1" from-port="0" to-layer="9" to-port="0" />
		<edge from-layer="1" from-port="0" to-layer="18" to-port="0" />
		<edge from-layer="1" from-port="0" to-layer="117" to-port="0" />
		<edge from-layer="2" from-port="0" to-layer="134" to-port="0" />
		<edge from-layer="3" from-port="1" to-layer="6" to-port="0" />
		<edge from-layer="4" from-port="0" to-layer="6" to-port="1" />
		<edge from-layer="5" from-port="0" to-layer="6" to-port="2" />
		<edge from-layer="6" from-port="3" to-layer="8" to-port="0" />
		<edge from-layer="6" from-port="3" to-layer="168" to-port="0" />
		<edge from-layer="6" from-port="3" to-layer="111" to-port="0" />
		<edge from-layer="7" from-port="0" to-layer="8" to-port="1" />
		<edge from-layer="8" from-port="2" to-layer="17" to-port="0" />
		<edge from-layer="9" from-port="1" to-layer="12" to-port="0" />
		<edge from-layer="10" from-port="0" to-layer="12" to-port="1" />
		<edge from-layer="11" from-port="0" to-layer="12" to-port="2" />
		<edge from-layer="12" from-port="3" to-layer="14" to-port="0" />
		<edge from-layer="12" from-port="3" to-layer="170" to-port="0" />
		<edge from-layer="12" from-port="3" to-layer="113" to-port="0" />
		<edge from-layer="13" from-port="0" to-layer="14" to-port="1" />
		<edge from-layer="14" from-port="2" to-layer="17" to-port="1" />
		<edge from-layer="15" from-port="0" to-layer="17" to-port="2" />
		<edge from-layer="16" from-port="0" to-layer="17" to-port="3" />
		<edge from-layer="17" from-port="4" to-layer="18" to-port="1" />
		<edge from-layer="18" from-port="2" to-layer="20" to-port="0" />
		<edge from-layer="19" from-port="0" to-layer="20" to-port="1" />
		<edge from-layer="20" from-port="2" to-layer="21" to-port="0" />
		<edge from-layer="20" from-port="2" to-layer="31" to-port="0" />
		<edge from-layer="21" from-port="1" to-layer="28" to-port="0" />
		<edge from-layer="22" from-port="0" to-layer="28" to-port="1" />
		<edge from-layer="23" from-port="0" to-layer="28" to-port="2" />
		<edge from-layer="24" from-port="0" to-layer="26" to-port="0" />
		<edge from-layer="25" from-port="0" to-layer="26" to-port="1" />
		<edge from-layer="26" from-port="2" to-layer="28" to-port="3" />
		<edge from-layer="27" from-port="0" to-layer="28" to-port="4" />
		<edge from-layer="28" from-port="5" to-layer="30" to-port="0" />
		<edge from-layer="29" from-port="0" to-layer="30" to-port="1" />
		<edge from-layer="30" from-port="2" to-layer="31" to-port="1" />
		<edge from-layer="31" from-port="2" to-layer="32" to-port="0" />
		<edge from-layer="32" from-port="1" to-layer="34" to-port="0" />
		<edge from-layer="32" from-port="1" to-layer="39" to-port="0" />
		<edge from-layer="33" from-port="0" to-layer="34" to-port="1" />
		<edge from-layer="34" from-port="2" to-layer="36" to-port="0" />
		<edge from-layer="35" from-port="0" to-layer="36" to-port="1" />
		<edge from-layer="36" from-port="2" to-layer="57" to-port="0" />
		<edge from-layer="36" from-port="2" to-layer="72" to-port="0" />
		<edge from-layer="37" from-port="0" to-layer="47" to-port="0" />
		<edge from-layer="38" from-port="0" to-layer="46" to-port="0" />
		<edge from-layer="39" from-port="1" to-layer="42" to-port="0" />
		<edge from-layer="40" from-port="0" to-layer="42" to-port="1" />
		<edge from-layer="41" from-port="0" to-layer="42" to-port="2" />
		<edge from-layer="42" from-port="3" to-layer="44" to-port="0" />
		<edge from-layer="43" from-port="0" to-layer="44" to-port="1" />
		<edge from-layer="44" from-port="2" to-layer="46" to-port="1" />
		<edge from-layer="45" from-port="0" to-layer="46" to-port="2" />
		<edge from-layer="46" from-port="3" to-layer="47" to-port="1" />
		<edge from-layer="47" from-port="2" to-layer="85" to-port="0" />
		<edge from-layer="47" from-port="2" to-layer="54" to-port="0" />
		<edge from-layer="48" from-port="0" to-layer="54" to-port="1" />
		<edge from-layer="49" from-port="0" to-layer="54" to-port="2" />
		<edge from-layer="50" from-port="0" to-layer="52" to-port="0" />
		<edge from-layer="51" from-port="0" to-layer="52" to-port="1" />
		<edge from-layer="52" from-port="2" to-layer="54" to-port="3" />
		<edge from-layer="53" from-port="0" to-layer="54" to-port="4" />
		<edge from-layer="54" from-port="5" to-layer="56" to-port="0" />
		<edge from-layer="55" from-port="0" to-layer="56" to-port="1" />
		<edge from-layer="56" from-port="2" to-layer="72" to-port="1" />
		<edge from-layer="57" from-port="1" to-layer="60" to-port="0" />
		<edge from-layer="57" from-port="1" to-layer="62" to-port="0" />
		<edge from-layer="58" from-port="0" to-layer="60" to-port="1" />
		<edge from-layer="59" from-port="0" to-layer="62" to-port="2" />
		<edge from-layer="59" from-port="0" to-layer="60" to-port="2" />
		<edge from-layer="60" from-port="3" to-layer="63" to-port="0" />
		<edge from-layer="61" from-port="0" to-layer="62" to-port="1" />
		<edge from-layer="62" from-port="3" to-layer="63" to-port="1" />
		<edge from-layer="63" from-port="2" to-layer="72" to-port="2" />
		<edge from-layer="64" from-port="0" to-layer="72" to-port="3" />
		<edge from-layer="65" from-port="0" to-layer="72" to-port="4" />
		<edge from-layer="66" from-port="0" to-layer="68" to-port="0" />
		<edge from-layer="67" from-port="0" to-layer="68" to-port="1" />
		<edge from-layer="68" from-port="5" to-layer="69" to-port="1" />
		<edge from-layer="68" from-port="3" to-layer="70" to-port="0" />
		<edge from-layer="68" from-port="6" to-layer="70" to-port="1" />
		<edge from-layer="68" from-port="4" to-layer="71" to-port="2" />
		<edge from-layer="68" from-port="7" to-layer="71" to-port="3" />
		<edge from-layer="68" from-port="2" to-layer="69" to-port="0" />
		<edge from-layer="69" from-port="2" to-layer="71" to-port="0" />
		<edge from-layer="70" from-port="2" to-layer="71" to-port="1" />
		<edge from-layer="71" from-port="4" to-layer="72" to-port="5" />
		<edge from-layer="72" from-port="6" to-layer="74" to-port="0" />
		<edge from-layer="73" from-port="0" to-layer="74" to-port="1" />
		<edge from-layer="74" from-port="2" to-layer="76" to-port="0" />
		<edge from-layer="75" from-port="0" to-layer="76" to-port="1" />
		<edge from-layer="76" from-port="2" to-layer="78" to-port="0" />
		<edge from-layer="77" from-port="0" to-layer="78" to-port="1" />
		<edge from-layer="78" from-port="2" to-layer="88" to-port="0" />
		<edge from-layer="78" from-port="2" to-layer="103" to-port="0" />
		<edge from-layer="79" from-port="0" to-layer="85" to-port="1" />
		<edge from-layer="80" from-port="0" to-layer="85" to-port="2" />
		<edge from-layer="81" from-port="0" to-layer="83" to-port="0" />
		<edge from-layer="82" from-port="0" to-layer="83" to-port="1" />
		<edge from-layer="83" from-port="2" to-layer="85" to-port="3" />
		<edge from-layer="84" from-port="0" to-layer="85" to-port="4" />
		<edge from-layer="85" from-port="5" to-layer="87" to-port="0" />
		<edge from-layer="86" from-port="0" to-layer="87" to-port="1" />
		<edge from-layer="87" from-port="2" to-layer="103" to-port="1" />
		<edge from-layer="88" from-port="1" to-layer="91" to-port="0" />
		<edge from-layer="88" from-port="1" to-layer="93" to-port="0" />
		<edge from-layer="89" from-port="0" to-layer="91" to-port="1" />
		<edge from-layer="90" from-port="0" to-layer="91" to-port="2" />
		<edge from-layer="90" from-port="0" to-layer="93" to-port="2" />
		<edge from-layer="91" from-port="3" to-layer="94" to-port="0" />
		<edge from-layer="92" from-port="0" to-layer="93" to-port="1" />
		<edge from-layer="93" from-port="3" to-layer="94" to-port="1" />
		<edge from-layer="94" from-port="2" to-layer="103" to-port="2" />
		<edge from-layer="95" from-port="0" to-layer="103" to-port="3" />
		<edge from-layer="96" from-port="0" to-layer="103" to-port="4" />
		<edge from-layer="97" from-port="0" to-layer="99" to-port="0" />
		<edge from-layer="98" from-port="0" to-layer="99" to-port="1" />
		<edge from-layer="99" from-port="7" to-layer="102" to-port="3" />
		<edge from-layer="99" from-port="3" to-layer="101" to-port="0" />
		<edge from-layer="99" from-port="6" to-layer="101" to-port="1" />
		<edge from-layer="99" from-port="5" to-layer="100" to-port="1" />
		<edge from-layer="99" from-port="2" to-layer="100" to-port="0" />
		<edge from-layer="99" from-port="4" to-layer="102" to-port="2" />
		<edge from-layer="100" from-port="2" to-layer="102" to-port="0" />
		<edge from-layer="101" from-port="2" to-layer="102" to-port="1" />
		<edge from-layer="102" from-port="4" to-layer="103" to-port="5" />
		<edge from-layer="103" from-port="6" to-layer="105" to-port="0" />
		<edge from-layer="104" from-port="0" to-layer="105" to-port="1" />
		<edge from-layer="105" from-port="2" to-layer="107" to-port="0" />
		<edge from-layer="106" from-port="0" to-layer="107" to-port="1" />
		<edge from-layer="107" from-port="2" to-layer="109" to-port="0" />
		<edge from-layer="108" from-port="0" to-layer="109" to-port="1" />
		<edge from-layer="109" from-port="2" to-layer="131" to-port="0" />
		<edge from-layer="110" from-port="0" to-layer="111" to-port="1" />
		<edge from-layer="111" from-port="2" to-layer="116" to-port="0" />
		<edge from-layer="112" from-port="0" to-layer="113" to-port="1" />
		<edge from-layer="113" from-port="2" to-layer="116" to-port="1" />
		<edge from-layer="114" from-port="0" to-layer="116" to-port="2" />
		<edge from-layer="115" from-port="0" to-layer="116" to-port="3" />
		<edge from-layer="116" from-port="4" to-layer="117" to-port="1" />
		<edge from-layer="117" from-port="2" to-layer="119" to-port="0" />
		<edge from-layer="118" from-port="0" to-layer="119" to-port="1" />
		<edge from-layer="119" from-port="2" to-layer="120" to-port="0" />
		<edge from-layer="119" from-port="2" to-layer="130" to-port="0" />
		<edge from-layer="120" from-port="1" to-layer="127" to-port="0" />
		<edge from-layer="121" from-port="0" to-layer="127" to-port="1" />
		<edge from-layer="122" from-port="0" to-layer="127" to-port="2" />
		<edge from-layer="123" from-port="0" to-layer="125" to-port="0" />
		<edge from-layer="124" from-port="0" to-layer="125" to-port="1" />
		<edge from-layer="125" from-port="2" to-layer="127" to-port="3" />
		<edge from-layer="126" from-port="0" to-layer="127" to-port="4" />
		<edge from-layer="127" from-port="5" to-layer="129" to-port="0" />
		<edge from-layer="128" from-port="0" to-layer="129" to-port="1" />
		<edge from-layer="129" from-port="2" to-layer="130" to-port="1" />
		<edge from-layer="130" from-port="2" to-layer="131" to-port="1" />
		<edge from-layer="131" from-port="2" to-layer="137" to-port="0" />
		<edge from-layer="131" from-port="2" to-layer="143" to-port="0" />
		<edge from-layer="131" from-port="2" to-layer="152" to-port="0" />
		<edge from-layer="131" from-port="2" to-layer="133" to-port="0" />
		<edge from-layer="132" from-port="0" to-layer="133" to-port="1" />
		<edge from-layer="133" from-port="2" to-layer="134" to-port="1" />
		<edge from-layer="134" from-port="2" to-layer="135" to-port="0" />
		<edge from-layer="135" from-port="1" to-layer="136" to-port="0" />
		<edge from-layer="137" from-port="1" to-layer="140" to-port="0" />
		<edge from-layer="138" from-port="0" to-layer="140" to-port="1" />
		<edge from-layer="139" from-port="0" to-layer="140" to-port="2" />
		<edge from-layer="140" from-port="3" to-layer="142" to-port="0" />
		<edge from-layer="141" from-port="0" to-layer="142" to-port="1" />
		<edge from-layer="142" from-port="2" to-layer="151" to-port="0" />
		<edge from-layer="143" from-port="1" to-layer="146" to-port="0" />
		<edge from-layer="144" from-port="0" to-layer="146" to-port="1" />
		<edge from-layer="145" from-port="0" to-layer="146" to-port="2" />
		<edge from-layer="146" from-port="3" to-layer="148" to-port="0" />
		<edge from-layer="147" from-port="0" to-layer="148" to-port="1" />
		<edge from-layer="148" from-port="2" to-layer="151" to-port="1" />
		<edge from-layer="149" from-port="0" to-layer="151" to-port="2" />
		<edge from-layer="150" from-port="0" to-layer="151" to-port="3" />
		<edge from-layer="151" from-port="4" to-layer="152" to-port="1" />
		<edge from-layer="152" from-port="2" to-layer="154" to-port="0" />
		<edge from-layer="153" from-port="0" to-layer="154" to-port="1" />
		<edge from-layer="154" from-port="2" to-layer="155" to-port="0" />
		<edge from-layer="154" from-port="2" to-layer="165" to-port="0" />
		<edge from-layer="155" from-port="1" to-layer="162" to-port="0" />
		<edge from-layer="156" from-port="0" to-layer="162" to-port="1" />
		<edge from-layer="157" from-port="0" to-layer="162" to-port="2" />
		<edge from-layer="158" from-port="0" to-layer="160" to-port="0" />
		<edge from-layer="159" from-port="0" to-layer="160" to-port="1" />
		<edge from-layer="160" from-port="2" to-layer="162" to-port="3" />
		<edge from-layer="161" from-port="0" to-layer="162" to-port="4" />
		<edge from-layer="162" from-port="5" to-layer="164" to-port="0" />
		<edge from-layer="163" from-port="0" to-layer="164" to-port="1" />
		<edge from-layer="164" from-port="2" to-layer="165" to-port="1" />
		<edge from-layer="165" from-port="2" to-layer="166" to-port="0" />
		<edge from-layer="166" from-port="1" to-layer="174" to-port="0" />
		<edge from-layer="167" from-port="0" to-layer="168" to-port="1" />
		<edge from-layer="168" from-port="2" to-layer="173" to-port="0" />
		<edge from-layer="169" from-port="0" to-layer="170" to-port="1" />
		<edge from-layer="170" from-port="2" to-layer="173" to-port="1" />
		<edge from-layer="171" from-port="0" to-layer="173" to-port="2" />
		<edge from-layer="172" from-port="0" to-layer="173" to-port="3" />
		<edge from-layer="173" from-port="4" to-layer="174" to-port="1" />
		<edge from-layer="174" from-port="2" to-layer="222" to-port="0" />
		<edge from-layer="175" from-port="0" to-layer="179" to-port="0" />
		<edge from-layer="176" from-port="0" to-layer="178" to-port="0" />
		<edge from-layer="177" from-port="0" to-layer="178" to-port="1" />
		<edge from-layer="178" from-port="2" to-layer="179" to-port="1" />
		<edge from-layer="179" from-port="2" to-layer="181" to-port="0" />
		<edge from-layer="180" from-port="0" to-layer="181" to-port="1" />
		<edge from-layer="181" from-port="2" to-layer="186" to-port="0" />
		<edge from-layer="182" from-port="0" to-layer="186" to-port="1" />
		<edge from-layer="183" from-port="0" to-layer="186" to-port="2" />
		<edge from-layer="184" from-port="0" to-layer="186" to-port="3" />
		<edge from-layer="185" from-port="0" to-layer="186" to-port="4" />
		<edge from-layer="186" from-port="5" to-layer="188" to-port="0" />
		<edge from-layer="187" from-port="0" to-layer="188" to-port="1" />
		<edge from-layer="188" from-port="2" to-layer="190" to-port="0" />
		<edge from-layer="189" from-port="0" to-layer="190" to-port="1" />
		<edge from-layer="190" from-port="2" to-layer="191" to-port="0" />
		<edge from-layer="191" from-port="1" to-layer="193" to-port="0" />
		<edge from-layer="192" from-port="0" to-layer="193" to-port="1" />
		<edge from-layer="193" from-port="2" to-layer="195" to-port="1" />
		<edge from-layer="193" from-port="3" to-layer="195" to-port="2" />
		<edge from-layer="194" from-port="0" to-layer="195" to-port="3" />
		<edge from-layer="195" from-port="4" to-layer="205" to-port="0" />
		<edge from-layer="196" from-port="0" to-layer="204" to-port="0" />
		<edge from-layer="197" from-port="0" to-layer="202" to-port="1" />
		<edge from-layer="197" from-port="0" to-layer="203" to-port="0" />
		<edge from-layer="198" from-port="0" to-layer="201" to-port="0" />
		<edge from-layer="199" from-port="0" to-layer="201" to-port="1" />
		<edge from-layer="200" from-port="0" to-layer="201" to-port="2" />
		<edge from-layer="201" from-port="4" to-layer="203" to-port="2" />
		<edge from-layer="201" from-port="3" to-layer="202" to-port="0" />
		<edge from-layer="202" from-port="2" to-layer="203" to-port="1" />
		<edge from-layer="203" from-port="3" to-layer="204" to-port="1" />
		<edge from-layer="204" from-port="2" to-layer="205" to-port="1" />
		<edge from-layer="205" from-port="2" to-layer="207" to-port="0" />
		<edge from-layer="206" from-port="0" to-layer="207" to-port="1" />
		<edge from-layer="207" from-port="2" to-layer="211" to-port="0" />
		<edge from-layer="207" from-port="2" to-layer="218" to-port="0" />
		<edge from-layer="208" from-port="0" to-layer="217" to-port="0" />
		<edge from-layer="209" from-port="0" to-layer="216" to-port="0" />
		<edge from-layer="209" from-port="0" to-layer="215" to-port="0" />
		<edge from-layer="210" from-port="0" to-layer="216" to-port="1" />
		<edge from-layer="211" from-port="1" to-layer="212" to-port="0" />
		<edge from-layer="212" from-port="1" to-layer="214" to-port="0" />
		<edge from-layer="213" from-port="0" to-layer="214" to-port="1" />
		<edge from-layer="214" from-port="2" to-layer="215" to-port="1" />
		<edge from-layer="215" from-port="2" to-layer="216" to-port="2" />
		<edge from-layer="216" from-port="3" to-layer="217" to-port="1" />
		<edge from-layer="217" from-port="2" to-layer="218" to-port="1" />
		<edge from-layer="218" from-port="2" to-layer="219" to-port="0" />
		<edge from-layer="219" from-port="1" to-layer="221" to-port="0" />
		<edge from-layer="220" from-port="0" to-layer="221" to-port="1" />
		<edge from-layer="221" from-port="2" to-layer="222" to-port="1" />
		<edge from-layer="222" from-port="2" to-layer="223" to-port="0" />
	</edges>
	<rt_info />
</net>
