<?xml version="1.0"?>
<net name="torch_jit" version="11">
	<layers>
		<layer id="1" name="feat_erb" type="Parameter" version="opset1">
			<data shape="1,1,3002,32" element_type="f32" />
			<rt_info>
				<attribute name="fused_names" version="0" value="feat_erb" />
			</rt_info>
			<output>
				<port id="0" precision="FP32" names="feat_erb">
					<dim>1</dim>
					<dim>1</dim>
					<dim>3002</dim>
					<dim>32</dim>
				</port>
			</output>
		</layer>
		<layer id="0" name="feat_spec" type="Parameter" version="opset1">
			<data shape="1,2,3002,96" element_type="f32" />
			<rt_info>
				<attribute name="fused_names" version="0" value="feat_spec" />
			</rt_info>
			<output>
				<port id="0" precision="FP32" names="feat_spec">
					<dim>1</dim>
					<dim>2</dim>
					<dim>3002</dim>
					<dim>96</dim>
				</port>
			</output>
		</layer>
		<layer id="2" name="lsnr_fc.0.bias" type="Const" version="opset1">
			<data element_type="f32" shape="1" offset="0" size="4" />
			<rt_info>
				<attribute name="fused_names" version="0" value="lsnr_fc.0.bias" />
			</rt_info>
			<output>
				<port id="0" precision="FP32" names="lsnr_fc.0.bias">
					<dim>1</dim>
				</port>
			</output>
		</layer>
		<layer id="3" name="/erb_conv0/0/Constant_1" type="Const" version="opset1">
			<data element_type="i64" shape="4" offset="4" size="32" />
			<rt_info>
				<attribute name="fused_names" version="0" value="/erb_conv0/0/Constant_1" />
			</rt_info>
			<output>
				<port id="0" precision="I64" names="/erb_conv0/0/Constant_1_output_0">
					<dim>4</dim>
				</port>
			</output>
		</layer>
		<layer id="4" name="Constant_28" type="Const" version="opset1">
			<data element_type="i64" shape="" offset="36" size="8" />
			<rt_info>
				<attribute name="fused_names" version="0" value="Constant_28" />
			</rt_info>
			<output>
				<port id="0" precision="I64" />
			</output>
		</layer>
		<layer id="5" name="/erb_conv0/0/Constant" type="Const" version="opset1">
			<data element_type="i64" shape="1" offset="44" size="8" />
			<rt_info>
				<attribute name="fused_names" version="0" value="/erb_conv0/0/Constant" />
			</rt_info>
			<output>
				<port id="0" precision="I64" names="/erb_conv0/0/Constant_output_0">
					<dim>1</dim>
				</port>
			</output>
		</layer>
		<layer id="6" name="/erb_conv0/0/ConstantOfShape" type="Broadcast" version="opset3">
			<data mode="numpy" />
			<rt_info>
				<attribute name="fused_names" version="0" value="/erb_conv0/0/Constant, /erb_conv0/0/ConstantOfShape, Constant_28" />
			</rt_info>
			<input>
				<port id="0" precision="I64" />
				<port id="1" precision="I64">
					<dim>1</dim>
				</port>
			</input>
			<output>
				<port id="2" precision="I64" names="/erb_conv0/0/ConstantOfShape_output_0">
					<dim>4</dim>
				</port>
			</output>
		</layer>
		<layer id="7" name="/erb_conv0/0/Concat" type="Concat" version="opset1">
			<data axis="0" />
			<rt_info>
				<attribute name="fused_names" version="0" value="/erb_conv0/0/Concat, /erb_conv0/0/Constant_1" />
			</rt_info>
			<input>
				<port id="0" precision="I64">
					<dim>4</dim>
				</port>
				<port id="1" precision="I64">
					<dim>4</dim>
				</port>
			</input>
			<output>
				<port id="2" precision="I64" names="/erb_conv0/0/Concat_output_0">
					<dim>8</dim>
				</port>
			</output>
		</layer>
		<layer id="8" name="/erb_conv0/0/Constant_2" type="Const" version="opset1">
			<data element_type="i64" shape="2" offset="52" size="16" />
			<rt_info>
				<attribute name="fused_names" version="0" value="/erb_conv0/0/Constant_2" />
			</rt_info>
			<output>
				<port id="0" precision="I64" names="/erb_conv0/0/Constant_2_output_0">
					<dim>2</dim>
				</port>
			</output>
		</layer>
		<layer id="9" name="/erb_conv0/0/Reshape" type="Reshape" version="opset1">
			<data special_zero="true" />
			<rt_info>
				<attribute name="fused_names" version="0" value="/erb_conv0/0/Constant_2, /erb_conv0/0/Reshape" />
			</rt_info>
			<input>
				<port id="0" precision="I64">
					<dim>8</dim>
				</port>
				<port id="1" precision="I64">
					<dim>2</dim>
				</port>
			</input>
			<output>
				<port id="2" precision="I64" names="/erb_conv0/0/Reshape_output_0">
					<dim>4</dim>
					<dim>2</dim>
				</port>
			</output>
		</layer>
		<layer id="10" name="/erb_conv0/0/Constant_4" type="Const" version="opset1">
			<data element_type="i64" shape="1" offset="68" size="8" />
			<rt_info>
				<attribute name="fused_names" version="0" value="/erb_conv0/0/Constant_4" />
			</rt_info>
			<output>
				<port id="0" precision="I64" names="/erb_conv0/0/Constant_4_output_0">
					<dim>1</dim>
				</port>
			</output>
		</layer>
		<layer id="11" name="/erb_conv0/0/Constant_5" type="Const" version="opset1">
			<data element_type="i64" shape="1" offset="76" size="8" />
			<rt_info>
				<attribute name="fused_names" version="0" value="/erb_conv0/0/Constant_5" />
			</rt_info>
			<output>
				<port id="0" precision="I64" names="/erb_conv0/0/Constant_5_output_0">
					<dim>1</dim>
				</port>
			</output>
		</layer>
		<layer id="12" name="/erb_conv0/0/Constant_6" type="Const" version="opset1">
			<data element_type="i64" shape="1" offset="68" size="8" />
			<rt_info>
				<attribute name="fused_names" version="0" value="/erb_conv0/0/Constant_6" />
			</rt_info>
			<output>
				<port id="0" precision="I64" names="/erb_conv0/0/Constant_6_output_0">
					<dim>1</dim>
				</port>
			</output>
		</layer>
		<layer id="13" name="/erb_conv0/0/Constant_3" type="Const" version="opset1">
			<data element_type="i64" shape="1" offset="36" size="8" />
			<rt_info>
				<attribute name="fused_names" version="0" value="/erb_conv0/0/Constant_3" />
			</rt_info>
			<output>
				<port id="0" precision="I64" names="/erb_conv0/0/Constant_3_output_0">
					<dim>1</dim>
				</port>
			</output>
		</layer>
		<layer id="14" name="/erb_conv0/0/Slice" type="Slice" version="opset8">
			<rt_info>
				<attribute name="fused_names" version="0" value="/erb_conv0/0/Constant_3, /erb_conv0/0/Constant_4, /erb_conv0/0/Constant_5, /erb_conv0/0/Constant_6, /erb_conv0/0/Slice" />
			</rt_info>
			<input>
				<port id="0" precision="I64">
					<dim>4</dim>
					<dim>2</dim>
				</port>
				<port id="1" precision="I64">
					<dim>1</dim>
				</port>
				<port id="2" precision="I64">
					<dim>1</dim>
				</port>
				<port id="3" precision="I64">
					<dim>1</dim>
				</port>
				<port id="4" precision="I64">
					<dim>1</dim>
				</port>
			</input>
			<output>
				<port id="5" precision="I64" names="/erb_conv0/0/Slice_output_0">
					<dim>4</dim>
					<dim>2</dim>
				</port>
			</output>
		</layer>
		<layer id="15" name="Constant_38" type="Const" version="opset1">
			<data element_type="i64" shape="2" offset="84" size="16" />
			<rt_info>
				<attribute name="fused_names" version="0" value="Constant_38" />
			</rt_info>
			<output>
				<port id="0" precision="I64">
					<dim>2</dim>
				</port>
			</output>
		</layer>
		<layer id="16" name="/erb_conv0/0/Transpose" type="Transpose" version="opset1">
			<rt_info>
				<attribute name="fused_names" version="0" value="/erb_conv0/0/Transpose, Constant_38" />
			</rt_info>
			<input>
				<port id="0" precision="I64">
					<dim>4</dim>
					<dim>2</dim>
				</port>
				<port id="1" precision="I64">
					<dim>2</dim>
				</port>
			</input>
			<output>
				<port id="2" precision="I64" names="/erb_conv0/0/Transpose_output_0">
					<dim>2</dim>
					<dim>4</dim>
				</port>
			</output>
		</layer>
		<layer id="17" name="Constant_982" type="Const" version="opset1">
			<data element_type="i64" shape="1" offset="68" size="8" />
			<rt_info>
				<attribute name="fused_names" version="0" value="/erb_conv0/0/Reshape_1" />
			</rt_info>
			<output>
				<port id="0" precision="I64">
					<dim>1</dim>
				</port>
			</output>
		</layer>
		<layer id="18" name="/erb_conv0/0/Reshape_1" type="Reshape" version="opset1">
			<data special_zero="true" />
			<rt_info>
				<attribute name="fused_names" version="0" value="/erb_conv0/0/Reshape_1" />
			</rt_info>
			<input>
				<port id="0" precision="I64">
					<dim>2</dim>
					<dim>4</dim>
				</port>
				<port id="1" precision="I64">
					<dim>1</dim>
				</port>
			</input>
			<output>
				<port id="2" precision="I64" names="/erb_conv0/0/Reshape_1_output_0">
					<dim>8</dim>
				</port>
			</output>
		</layer>
		<layer id="19" name="/erb_conv0/0/Cast" type="Convert" version="opset1">
			<data destination_type="i64" />
			<rt_info>
				<attribute name="fused_names" version="0" value="/erb_conv0/0/Cast" />
			</rt_info>
			<input>
				<port id="0" precision="I64">
					<dim>8</dim>
				</port>
			</input>
			<output>
				<port id="1" precision="I64" names="/erb_conv0/0/Cast_output_0">
					<dim>8</dim>
				</port>
			</output>
		</layer>
		<layer id="20" name="Constant_44" type="Const" version="opset1">
			<data element_type="i64" shape="" offset="36" size="8" />
			<rt_info>
				<attribute name="fused_names" version="0" value="Constant_44" />
			</rt_info>
			<output>
				<port id="0" precision="I64" />
			</output>
		</layer>
		<layer id="21" name="Split_45" type="Split" version="opset1">
			<data num_splits="2" />
			<rt_info>
				<attribute name="fused_names" version="0" value="Constant_44, Split_45" />
			</rt_info>
			<input>
				<port id="0" precision="I64">
					<dim>8</dim>
				</port>
				<port id="1" precision="I64" />
			</input>
			<output>
				<port id="2" precision="I64">
					<dim>4</dim>
				</port>
				<port id="3" precision="I64">
					<dim>4</dim>
				</port>
			</output>
		</layer>
		<layer id="22" name="/erb_conv0/0/Constant_8" type="Const" version="opset1">
			<data element_type="f32" shape="" offset="100" size="4" />
			<rt_info>
				<attribute name="fused_names" version="0" value="/erb_conv0/0/Constant_8" />
			</rt_info>
			<output>
				<port id="0" precision="FP32" names="/erb_conv0/0/Constant_8_output_0" />
			</output>
		</layer>
		<layer id="23" name="/erb_conv0/0/Pad" type="Pad" version="opset12">
			<data pad_mode="constant" />
			<rt_info>
				<attribute name="fused_names" version="0" value="/erb_conv0/0/Pad" />
			</rt_info>
			<input>
				<port id="0" precision="FP32">
					<dim>1</dim>
					<dim>1</dim>
					<dim>3002</dim>
					<dim>32</dim>
				</port>
				<port id="1" precision="I64">
					<dim>4</dim>
				</port>
				<port id="2" precision="I64">
					<dim>4</dim>
				</port>
				<port id="3" precision="FP32" />
			</input>
			<output>
				<port id="4" precision="FP32" names="/erb_conv0/0/Pad_output_0">
					<dim>1</dim>
					<dim>1</dim>
					<dim>3004</dim>
					<dim>32</dim>
				</port>
			</output>
		</layer>
		<layer id="24" name="onnx::Conv_282" type="Const" version="opset1">
			<data element_type="f32" shape="64, 1, 3, 3" offset="104" size="2304" />
			<rt_info>
				<attribute name="fused_names" version="0" value="onnx::Conv_282" />
			</rt_info>
			<output>
				<port id="0" precision="FP32" names="onnx::Conv_282">
					<dim>64</dim>
					<dim>1</dim>
					<dim>3</dim>
					<dim>3</dim>
				</port>
			</output>
		</layer>
		<layer id="25" name="/erb_conv0/1/Conv/WithoutBiases" type="Convolution" version="opset1">
			<data strides="1, 1" dilations="1, 1" pads_begin="0, 1" pads_end="0, 1" auto_pad="explicit" />
			<rt_info>
				<attribute name="fused_names" version="0" value="/erb_conv0/1/Conv/WithoutBiases" />
			</rt_info>
			<input>
				<port id="0" precision="FP32">
					<dim>1</dim>
					<dim>1</dim>
					<dim>3004</dim>
					<dim>32</dim>
				</port>
				<port id="1" precision="FP32">
					<dim>64</dim>
					<dim>1</dim>
					<dim>3</dim>
					<dim>3</dim>
				</port>
			</input>
			<output>
				<port id="2" precision="FP32">
					<dim>1</dim>
					<dim>64</dim>
					<dim>3002</dim>
					<dim>32</dim>
				</port>
			</output>
		</layer>
		<layer id="26" name="onnx::Conv_283" type="Const" version="opset1">
			<data element_type="f32" shape="64" offset="2408" size="256" />
			<rt_info>
				<attribute name="fused_names" version="0" value="onnx::Conv_283" />
			</rt_info>
			<output>
				<port id="0" precision="FP32" names="onnx::Conv_283">
					<dim>64</dim>
				</port>
			</output>
		</layer>
		<layer id="27" name="Constant_54" type="Const" version="opset1">
			<data element_type="i64" shape="1" offset="2664" size="8" />
			<rt_info>
				<attribute name="fused_names" version="0" value="Constant_54" />
			</rt_info>
			<output>
				<port id="0" precision="I64">
					<dim>1</dim>
				</port>
			</output>
		</layer>
		<layer id="28" name="ShapeOf_61" type="Const" version="opset1">
			<data element_type="i64" shape="1" offset="2672" size="8" />
			<rt_info>
				<attribute name="fused_names" version="0" value="ShapeOf_61" />
			</rt_info>
			<output>
				<port id="0" precision="I64">
					<dim>1</dim>
				</port>
			</output>
		</layer>
		<layer id="29" name="ShapeOf_52" type="ShapeOf" version="opset3">
			<data output_type="i64" />
			<rt_info>
				<attribute name="fused_names" version="0" value="ShapeOf_52" />
			</rt_info>
			<input>
				<port id="0" precision="FP32">
					<dim>1</dim>
					<dim>64</dim>
					<dim>3002</dim>
					<dim>32</dim>
				</port>
			</input>
			<output>
				<port id="1" precision="I64">
					<dim>4</dim>
				</port>
			</output>
		</layer>
		<layer id="30" name="ShapeOf_53" type="ShapeOf" version="opset3">
			<data output_type="i64" />
			<rt_info>
				<attribute name="fused_names" version="0" value="ShapeOf_53" />
			</rt_info>
			<input>
				<port id="0" precision="I64">
					<dim>4</dim>
				</port>
			</input>
			<output>
				<port id="1" precision="I64">
					<dim>1</dim>
				</port>
			</output>
		</layer>
		<layer id="31" name="Constant_55" type="Const" version="opset1">
			<data element_type="i64" shape="1" offset="2680" size="8" />
			<rt_info>
				<attribute name="fused_names" version="0" value="Constant_55" />
			</rt_info>
			<output>
				<port id="0" precision="I64">
					<dim>1</dim>
				</port>
			</output>
		</layer>
		<layer id="32" name="Subtract_56" type="Subtract" version="opset1">
			<data auto_broadcast="numpy" />
			<rt_info>
				<attribute name="fused_names" version="0" value="Constant_55, Subtract_56" />
			</rt_info>
			<input>
				<port id="0" precision="I64">
					<dim>1</dim>
				</port>
				<port id="1" precision="I64">
					<dim>1</dim>
				</port>
			</input>
			<output>
				<port id="2" precision="I64">
					<dim>1</dim>
				</port>
			</output>
		</layer>
		<layer id="33" name="Broadcast_57" type="Broadcast" version="opset3">
			<data mode="numpy" />
			<rt_info>
				<attribute name="fused_names" version="0" value="Broadcast_57, Constant_54" />
			</rt_info>
			<input>
				<port id="0" precision="I64">
					<dim>1</dim>
				</port>
				<port id="1" precision="I64">
					<dim>1</dim>
				</port>
			</input>
			<output>
				<port id="2" precision="I64">
					<dim>2</dim>
				</port>
			</output>
		</layer>
		<layer id="34" name="Concat_62" type="Concat" version="opset1">
			<data axis="0" />
			<rt_info>
				<attribute name="fused_names" version="0" value="Concat_62, Constant_54, ShapeOf_61" />
			</rt_info>
			<input>
				<port id="0" precision="I64">
					<dim>1</dim>
				</port>
				<port id="1" precision="I64">
					<dim>1</dim>
				</port>
				<port id="2" precision="I64">
					<dim>2</dim>
				</port>
			</input>
			<output>
				<port id="3" precision="I64">
					<dim>4</dim>
				</port>
			</output>
		</layer>
		<layer id="35" name="Reshape_63" type="Reshape" version="opset1">
			<data special_zero="false" />
			<rt_info>
				<attribute name="fused_names" version="0" value="Reshape_63" />
			</rt_info>
			<input>
				<port id="0" precision="FP32">
					<dim>64</dim>
				</port>
				<port id="1" precision="I64">
					<dim>4</dim>
				</port>
			</input>
			<output>
				<port id="2" precision="FP32">
					<dim>1</dim>
					<dim>64</dim>
					<dim>1</dim>
					<dim>1</dim>
				</port>
			</output>
		</layer>
		<layer id="36" name="/erb_conv0/1/Conv" type="Add" version="opset1">
			<data auto_broadcast="numpy" />
			<rt_info>
				<attribute name="fused_names" version="0" value="/erb_conv0/1/Conv" />
			</rt_info>
			<input>
				<port id="0" precision="FP32">
					<dim>1</dim>
					<dim>64</dim>
					<dim>3002</dim>
					<dim>32</dim>
				</port>
				<port id="1" precision="FP32">
					<dim>1</dim>
					<dim>64</dim>
					<dim>1</dim>
					<dim>1</dim>
				</port>
			</input>
			<output>
				<port id="2" precision="FP32" names="/erb_conv0/1/Conv_output_0">
					<dim>1</dim>
					<dim>64</dim>
					<dim>3002</dim>
					<dim>32</dim>
				</port>
			</output>
		</layer>
		<layer id="37" name="e0" type="ReLU" version="opset1">
			<rt_info>
				<attribute name="fused_names" version="0" value="e0" />
			</rt_info>
			<input>
				<port id="0" precision="FP32">
					<dim>1</dim>
					<dim>64</dim>
					<dim>3002</dim>
					<dim>32</dim>
				</port>
			</input>
			<output>
				<port id="1" precision="FP32" names="e0">
					<dim>1</dim>
					<dim>64</dim>
					<dim>3002</dim>
					<dim>32</dim>
				</port>
			</output>
		</layer>
		<layer id="38" name="erb_conv1.0.weight" type="Const" version="opset1">
			<data element_type="f32" shape="64, 1, 1, 3" offset="2688" size="768" />
			<rt_info>
				<attribute name="fused_names" version="0" value="erb_conv1.0.weight" />
			</rt_info>
			<output>
				<port id="0" precision="FP32" names="erb_conv1.0.weight">
					<dim>64</dim>
					<dim>1</dim>
					<dim>1</dim>
					<dim>3</dim>
				</port>
			</output>
		</layer>
		<layer id="39" name="Constant_71" type="Const" version="opset1">
			<data element_type="i64" shape="1" offset="2672" size="8" />
			<rt_info>
				<attribute name="fused_names" version="0" value="Constant_71" />
			</rt_info>
			<output>
				<port id="0" precision="I64">
					<dim>1</dim>
				</port>
			</output>
		</layer>
		<layer id="40" name="ShapeOf_72" type="Const" version="opset1">
			<data element_type="i64" shape="4" offset="3456" size="32" />
			<rt_info>
				<attribute name="fused_names" version="0" value="ShapeOf_72" />
			</rt_info>
			<output>
				<port id="0" precision="I64">
					<dim>4</dim>
				</port>
			</output>
		</layer>
		<layer id="41" name="Constant_69" type="Const" version="opset1">
			<data element_type="i64" shape="" offset="36" size="8" />
			<rt_info>
				<attribute name="fused_names" version="0" value="Constant_69" />
			</rt_info>
			<output>
				<port id="0" precision="I64" />
			</output>
		</layer>
		<layer id="42" name="Constant_70" type="Const" version="opset1">
			<data element_type="i64" shape="2" offset="3488" size="16" />
			<rt_info>
				<attribute name="fused_names" version="0" value="Constant_70" />
			</rt_info>
			<output>
				<port id="0" precision="I64">
					<dim>2</dim>
				</port>
			</output>
		</layer>
		<layer id="43" name="VariadicSplit_73" type="VariadicSplit" version="opset1">
			<rt_info>
				<attribute name="fused_names" version="0" value="Constant_69, Constant_70, ShapeOf_72, VariadicSplit_73" />
			</rt_info>
			<input>
				<port id="0" precision="I64">
					<dim>4</dim>
				</port>
				<port id="1" precision="I64" />
				<port id="2" precision="I64">
					<dim>2</dim>
				</port>
			</input>
			<output>
				<port id="3" precision="I64">
					<dim>1</dim>
				</port>
				<port id="4" precision="I64">
					<dim>3</dim>
				</port>
			</output>
		</layer>
		<layer id="44" name="Divide_74" type="Divide" version="opset1">
			<data auto_broadcast="numpy" m_pythondiv="true" />
			<rt_info>
				<attribute name="fused_names" version="0" value="Constant_71, Divide_74" />
			</rt_info>
			<input>
				<port id="0" precision="I64">
					<dim>1</dim>
				</port>
				<port id="1" precision="I64">
					<dim>1</dim>
				</port>
			</input>
			<output>
				<port id="2" precision="I64">
					<dim>1</dim>
				</port>
			</output>
		</layer>
		<layer id="45" name="Concat_75" type="Concat" version="opset1">
			<data axis="0" />
			<rt_info>
				<attribute name="fused_names" version="0" value="Concat_75, Constant_71" />
			</rt_info>
			<input>
				<port id="0" precision="I64">
					<dim>1</dim>
				</port>
				<port id="1" precision="I64">
					<dim>1</dim>
				</port>
				<port id="2" precision="I64">
					<dim>3</dim>
				</port>
			</input>
			<output>
				<port id="3" precision="I64">
					<dim>5</dim>
				</port>
			</output>
		</layer>
		<layer id="46" name="Reshape_76" type="Reshape" version="opset1">
			<data special_zero="false" />
			<rt_info>
				<attribute name="fused_names" version="0" value="Reshape_76" />
			</rt_info>
			<input>
				<port id="0" precision="FP32">
					<dim>64</dim>
					<dim>1</dim>
					<dim>1</dim>
					<dim>3</dim>
				</port>
				<port id="1" precision="I64">
					<dim>5</dim>
				</port>
			</input>
			<output>
				<port id="2" precision="FP32">
					<dim>64</dim>
					<dim>1</dim>
					<dim>1</dim>
					<dim>1</dim>
					<dim>3</dim>
				</port>
			</output>
		</layer>
		<layer id="47" name="/erb_conv1/0/Conv" type="GroupConvolution" version="opset1">
			<data strides="1, 2" pads_begin="0, 1" pads_end="0, 1" dilations="1, 1" auto_pad="explicit" />
			<rt_info>
				<attribute name="fused_names" version="0" value="/erb_conv1/0/Conv" />
			</rt_info>
			<input>
				<port id="0" precision="FP32">
					<dim>1</dim>
					<dim>64</dim>
					<dim>3002</dim>
					<dim>32</dim>
				</port>
				<port id="1" precision="FP32">
					<dim>64</dim>
					<dim>1</dim>
					<dim>1</dim>
					<dim>1</dim>
					<dim>3</dim>
				</port>
			</input>
			<output>
				<port id="2" precision="FP32" names="/erb_conv1/0/Conv_output_0">
					<dim>1</dim>
					<dim>64</dim>
					<dim>3002</dim>
					<dim>16</dim>
				</port>
			</output>
		</layer>
		<layer id="48" name="onnx::Conv_285" type="Const" version="opset1">
			<data element_type="f32" shape="64, 64, 1, 1" offset="3504" size="16384" />
			<rt_info>
				<attribute name="fused_names" version="0" value="onnx::Conv_285" />
			</rt_info>
			<output>
				<port id="0" precision="FP32" names="onnx::Conv_285">
					<dim>64</dim>
					<dim>64</dim>
					<dim>1</dim>
					<dim>1</dim>
				</port>
			</output>
		</layer>
		<layer id="49" name="/erb_conv1/1/Conv/WithoutBiases" type="Convolution" version="opset1">
			<data strides="1, 1" dilations="1, 1" pads_begin="0, 0" pads_end="0, 0" auto_pad="explicit" />
			<rt_info>
				<attribute name="fused_names" version="0" value="/erb_conv1/1/Conv/WithoutBiases" />
			</rt_info>
			<input>
				<port id="0" precision="FP32">
					<dim>1</dim>
					<dim>64</dim>
					<dim>3002</dim>
					<dim>16</dim>
				</port>
				<port id="1" precision="FP32">
					<dim>64</dim>
					<dim>64</dim>
					<dim>1</dim>
					<dim>1</dim>
				</port>
			</input>
			<output>
				<port id="2" precision="FP32">
					<dim>1</dim>
					<dim>64</dim>
					<dim>3002</dim>
					<dim>16</dim>
				</port>
			</output>
		</layer>
		<layer id="50" name="onnx::Conv_286" type="Const" version="opset1">
			<data element_type="f32" shape="64" offset="19888" size="256" />
			<rt_info>
				<attribute name="fused_names" version="0" value="onnx::Conv_286" />
			</rt_info>
			<output>
				<port id="0" precision="FP32" names="onnx::Conv_286">
					<dim>64</dim>
				</port>
			</output>
		</layer>
		<layer id="51" name="Constant_120" type="Const" version="opset1">
			<data element_type="i64" shape="1" offset="2664" size="8" />
			<rt_info>
				<attribute name="fused_names" version="0" value="Constant_120" />
			</rt_info>
			<output>
				<port id="0" precision="I64">
					<dim>1</dim>
				</port>
			</output>
		</layer>
		<layer id="52" name="ShapeOf_127" type="Const" version="opset1">
			<data element_type="i64" shape="1" offset="2672" size="8" />
			<rt_info>
				<attribute name="fused_names" version="0" value="ShapeOf_127" />
			</rt_info>
			<output>
				<port id="0" precision="I64">
					<dim>1</dim>
				</port>
			</output>
		</layer>
		<layer id="53" name="ShapeOf_118" type="ShapeOf" version="opset3">
			<data output_type="i64" />
			<rt_info>
				<attribute name="fused_names" version="0" value="ShapeOf_118" />
			</rt_info>
			<input>
				<port id="0" precision="FP32">
					<dim>1</dim>
					<dim>64</dim>
					<dim>3002</dim>
					<dim>16</dim>
				</port>
			</input>
			<output>
				<port id="1" precision="I64">
					<dim>4</dim>
				</port>
			</output>
		</layer>
		<layer id="54" name="ShapeOf_119" type="ShapeOf" version="opset3">
			<data output_type="i64" />
			<rt_info>
				<attribute name="fused_names" version="0" value="ShapeOf_119" />
			</rt_info>
			<input>
				<port id="0" precision="I64">
					<dim>4</dim>
				</port>
			</input>
			<output>
				<port id="1" precision="I64">
					<dim>1</dim>
				</port>
			</output>
		</layer>
		<layer id="55" name="Constant_121" type="Const" version="opset1">
			<data element_type="i64" shape="1" offset="2680" size="8" />
			<rt_info>
				<attribute name="fused_names" version="0" value="Constant_121" />
			</rt_info>
			<output>
				<port id="0" precision="I64">
					<dim>1</dim>
				</port>
			</output>
		</layer>
		<layer id="56" name="Subtract_122" type="Subtract" version="opset1">
			<data auto_broadcast="numpy" />
			<rt_info>
				<attribute name="fused_names" version="0" value="Constant_121, Subtract_122" />
			</rt_info>
			<input>
				<port id="0" precision="I64">
					<dim>1</dim>
				</port>
				<port id="1" precision="I64">
					<dim>1</dim>
				</port>
			</input>
			<output>
				<port id="2" precision="I64">
					<dim>1</dim>
				</port>
			</output>
		</layer>
		<layer id="57" name="Broadcast_123" type="Broadcast" version="opset3">
			<data mode="numpy" />
			<rt_info>
				<attribute name="fused_names" version="0" value="Broadcast_123, Constant_120" />
			</rt_info>
			<input>
				<port id="0" precision="I64">
					<dim>1</dim>
				</port>
				<port id="1" precision="I64">
					<dim>1</dim>
				</port>
			</input>
			<output>
				<port id="2" precision="I64">
					<dim>2</dim>
				</port>
			</output>
		</layer>
		<layer id="58" name="Concat_128" type="Concat" version="opset1">
			<data axis="0" />
			<rt_info>
				<attribute name="fused_names" version="0" value="Concat_128, Constant_120, ShapeOf_127" />
			</rt_info>
			<input>
				<port id="0" precision="I64">
					<dim>1</dim>
				</port>
				<port id="1" precision="I64">
					<dim>1</dim>
				</port>
				<port id="2" precision="I64">
					<dim>2</dim>
				</port>
			</input>
			<output>
				<port id="3" precision="I64">
					<dim>4</dim>
				</port>
			</output>
		</layer>
		<layer id="59" name="Reshape_129" type="Reshape" version="opset1">
			<data special_zero="false" />
			<rt_info>
				<attribute name="fused_names" version="0" value="Reshape_129" />
			</rt_info>
			<input>
				<port id="0" precision="FP32">
					<dim>64</dim>
				</port>
				<port id="1" precision="I64">
					<dim>4</dim>
				</port>
			</input>
			<output>
				<port id="2" precision="FP32">
					<dim>1</dim>
					<dim>64</dim>
					<dim>1</dim>
					<dim>1</dim>
				</port>
			</output>
		</layer>
		<layer id="60" name="/erb_conv1/1/Conv" type="Add" version="opset1">
			<data auto_broadcast="numpy" />
			<rt_info>
				<attribute name="fused_names" version="0" value="/erb_conv1/1/Conv" />
			</rt_info>
			<input>
				<port id="0" precision="FP32">
					<dim>1</dim>
					<dim>64</dim>
					<dim>3002</dim>
					<dim>16</dim>
				</port>
				<port id="1" precision="FP32">
					<dim>1</dim>
					<dim>64</dim>
					<dim>1</dim>
					<dim>1</dim>
				</port>
			</input>
			<output>
				<port id="2" precision="FP32" names="/erb_conv1/1/Conv_output_0">
					<dim>1</dim>
					<dim>64</dim>
					<dim>3002</dim>
					<dim>16</dim>
				</port>
			</output>
		</layer>
		<layer id="61" name="e1" type="ReLU" version="opset1">
			<rt_info>
				<attribute name="fused_names" version="0" value="e1" />
			</rt_info>
			<input>
				<port id="0" precision="FP32">
					<dim>1</dim>
					<dim>64</dim>
					<dim>3002</dim>
					<dim>16</dim>
				</port>
			</input>
			<output>
				<port id="1" precision="FP32" names="e1">
					<dim>1</dim>
					<dim>64</dim>
					<dim>3002</dim>
					<dim>16</dim>
				</port>
			</output>
		</layer>
		<layer id="62" name="erb_conv2.0.weight" type="Const" version="opset1">
			<data element_type="f32" shape="64, 1, 1, 3" offset="20144" size="768" />
			<rt_info>
				<attribute name="fused_names" version="0" value="erb_conv2.0.weight" />
			</rt_info>
			<output>
				<port id="0" precision="FP32" names="erb_conv2.0.weight">
					<dim>64</dim>
					<dim>1</dim>
					<dim>1</dim>
					<dim>3</dim>
				</port>
			</output>
		</layer>
		<layer id="63" name="Constant_137" type="Const" version="opset1">
			<data element_type="i64" shape="1" offset="2672" size="8" />
			<rt_info>
				<attribute name="fused_names" version="0" value="Constant_137" />
			</rt_info>
			<output>
				<port id="0" precision="I64">
					<dim>1</dim>
				</port>
			</output>
		</layer>
		<layer id="64" name="ShapeOf_138" type="Const" version="opset1">
			<data element_type="i64" shape="4" offset="3456" size="32" />
			<rt_info>
				<attribute name="fused_names" version="0" value="ShapeOf_138" />
			</rt_info>
			<output>
				<port id="0" precision="I64">
					<dim>4</dim>
				</port>
			</output>
		</layer>
		<layer id="65" name="Constant_135" type="Const" version="opset1">
			<data element_type="i64" shape="" offset="36" size="8" />
			<rt_info>
				<attribute name="fused_names" version="0" value="Constant_135" />
			</rt_info>
			<output>
				<port id="0" precision="I64" />
			</output>
		</layer>
		<layer id="66" name="Constant_136" type="Const" version="opset1">
			<data element_type="i64" shape="2" offset="3488" size="16" />
			<rt_info>
				<attribute name="fused_names" version="0" value="Constant_136" />
			</rt_info>
			<output>
				<port id="0" precision="I64">
					<dim>2</dim>
				</port>
			</output>
		</layer>
		<layer id="67" name="VariadicSplit_139" type="VariadicSplit" version="opset1">
			<rt_info>
				<attribute name="fused_names" version="0" value="Constant_135, Constant_136, ShapeOf_138, VariadicSplit_139" />
			</rt_info>
			<input>
				<port id="0" precision="I64">
					<dim>4</dim>
				</port>
				<port id="1" precision="I64" />
				<port id="2" precision="I64">
					<dim>2</dim>
				</port>
			</input>
			<output>
				<port id="3" precision="I64">
					<dim>1</dim>
				</port>
				<port id="4" precision="I64">
					<dim>3</dim>
				</port>
			</output>
		</layer>
		<layer id="68" name="Divide_140" type="Divide" version="opset1">
			<data auto_broadcast="numpy" m_pythondiv="true" />
			<rt_info>
				<attribute name="fused_names" version="0" value="Constant_137, Divide_140" />
			</rt_info>
			<input>
				<port id="0" precision="I64">
					<dim>1</dim>
				</port>
				<port id="1" precision="I64">
					<dim>1</dim>
				</port>
			</input>
			<output>
				<port id="2" precision="I64">
					<dim>1</dim>
				</port>
			</output>
		</layer>
		<layer id="69" name="Concat_141" type="Concat" version="opset1">
			<data axis="0" />
			<rt_info>
				<attribute name="fused_names" version="0" value="Concat_141, Constant_137" />
			</rt_info>
			<input>
				<port id="0" precision="I64">
					<dim>1</dim>
				</port>
				<port id="1" precision="I64">
					<dim>1</dim>
				</port>
				<port id="2" precision="I64">
					<dim>3</dim>
				</port>
			</input>
			<output>
				<port id="3" precision="I64">
					<dim>5</dim>
				</port>
			</output>
		</layer>
		<layer id="70" name="Reshape_142" type="Reshape" version="opset1">
			<data special_zero="false" />
			<rt_info>
				<attribute name="fused_names" version="0" value="Reshape_142" />
			</rt_info>
			<input>
				<port id="0" precision="FP32">
					<dim>64</dim>
					<dim>1</dim>
					<dim>1</dim>
					<dim>3</dim>
				</port>
				<port id="1" precision="I64">
					<dim>5</dim>
				</port>
			</input>
			<output>
				<port id="2" precision="FP32">
					<dim>64</dim>
					<dim>1</dim>
					<dim>1</dim>
					<dim>1</dim>
					<dim>3</dim>
				</port>
			</output>
		</layer>
		<layer id="71" name="/erb_conv2/Conv" type="GroupConvolution" version="opset1">
			<data strides="1, 2" pads_begin="0, 1" pads_end="0, 1" dilations="1, 1" auto_pad="explicit" />
			<rt_info>
				<attribute name="fused_names" version="0" value="/erb_conv2/Conv" />
			</rt_info>
			<input>
				<port id="0" precision="FP32">
					<dim>1</dim>
					<dim>64</dim>
					<dim>3002</dim>
					<dim>16</dim>
				</port>
				<port id="1" precision="FP32">
					<dim>64</dim>
					<dim>1</dim>
					<dim>1</dim>
					<dim>1</dim>
					<dim>3</dim>
				</port>
			</input>
			<output>
				<port id="2" precision="FP32" names="/erb_conv2/Conv_output_0">
					<dim>1</dim>
					<dim>64</dim>
					<dim>3002</dim>
					<dim>8</dim>
				</port>
			</output>
		</layer>
		<layer id="72" name="onnx::Conv_288" type="Const" version="opset1">
			<data element_type="f32" shape="64, 64, 1, 1" offset="20912" size="16384" />
			<rt_info>
				<attribute name="fused_names" version="0" value="onnx::Conv_288" />
			</rt_info>
			<output>
				<port id="0" precision="FP32" names="onnx::Conv_288">
					<dim>64</dim>
					<dim>64</dim>
					<dim>1</dim>
					<dim>1</dim>
				</port>
			</output>
		</layer>
		<layer id="73" name="/erb_conv2/Conv_1/WithoutBiases" type="Convolution" version="opset1">
			<data strides="1, 1" dilations="1, 1" pads_begin="0, 0" pads_end="0, 0" auto_pad="explicit" />
			<rt_info>
				<attribute name="fused_names" version="0" value="/erb_conv2/Conv_1/WithoutBiases" />
			</rt_info>
			<input>
				<port id="0" precision="FP32">
					<dim>1</dim>
					<dim>64</dim>
					<dim>3002</dim>
					<dim>8</dim>
				</port>
				<port id="1" precision="FP32">
					<dim>64</dim>
					<dim>64</dim>
					<dim>1</dim>
					<dim>1</dim>
				</port>
			</input>
			<output>
				<port id="2" precision="FP32">
					<dim>1</dim>
					<dim>64</dim>
					<dim>3002</dim>
					<dim>8</dim>
				</port>
			</output>
		</layer>
		<layer id="74" name="onnx::Conv_289" type="Const" version="opset1">
			<data element_type="f32" shape="64" offset="37296" size="256" />
			<rt_info>
				<attribute name="fused_names" version="0" value="onnx::Conv_289" />
			</rt_info>
			<output>
				<port id="0" precision="FP32" names="onnx::Conv_289">
					<dim>64</dim>
				</port>
			</output>
		</layer>
		<layer id="75" name="Constant_186" type="Const" version="opset1">
			<data element_type="i64" shape="1" offset="2664" size="8" />
			<rt_info>
				<attribute name="fused_names" version="0" value="Constant_186" />
			</rt_info>
			<output>
				<port id="0" precision="I64">
					<dim>1</dim>
				</port>
			</output>
		</layer>
		<layer id="76" name="ShapeOf_193" type="Const" version="opset1">
			<data element_type="i64" shape="1" offset="2672" size="8" />
			<rt_info>
				<attribute name="fused_names" version="0" value="ShapeOf_193" />
			</rt_info>
			<output>
				<port id="0" precision="I64">
					<dim>1</dim>
				</port>
			</output>
		</layer>
		<layer id="77" name="ShapeOf_184" type="ShapeOf" version="opset3">
			<data output_type="i64" />
			<rt_info>
				<attribute name="fused_names" version="0" value="ShapeOf_184" />
			</rt_info>
			<input>
				<port id="0" precision="FP32">
					<dim>1</dim>
					<dim>64</dim>
					<dim>3002</dim>
					<dim>8</dim>
				</port>
			</input>
			<output>
				<port id="1" precision="I64">
					<dim>4</dim>
				</port>
			</output>
		</layer>
		<layer id="78" name="ShapeOf_185" type="ShapeOf" version="opset3">
			<data output_type="i64" />
			<rt_info>
				<attribute name="fused_names" version="0" value="ShapeOf_185" />
			</rt_info>
			<input>
				<port id="0" precision="I64">
					<dim>4</dim>
				</port>
			</input>
			<output>
				<port id="1" precision="I64">
					<dim>1</dim>
				</port>
			</output>
		</layer>
		<layer id="79" name="Constant_187" type="Const" version="opset1">
			<data element_type="i64" shape="1" offset="2680" size="8" />
			<rt_info>
				<attribute name="fused_names" version="0" value="Constant_187" />
			</rt_info>
			<output>
				<port id="0" precision="I64">
					<dim>1</dim>
				</port>
			</output>
		</layer>
		<layer id="80" name="Subtract_188" type="Subtract" version="opset1">
			<data auto_broadcast="numpy" />
			<rt_info>
				<attribute name="fused_names" version="0" value="Constant_187, Subtract_188" />
			</rt_info>
			<input>
				<port id="0" precision="I64">
					<dim>1</dim>
				</port>
				<port id="1" precision="I64">
					<dim>1</dim>
				</port>
			</input>
			<output>
				<port id="2" precision="I64">
					<dim>1</dim>
				</port>
			</output>
		</layer>
		<layer id="81" name="Broadcast_189" type="Broadcast" version="opset3">
			<data mode="numpy" />
			<rt_info>
				<attribute name="fused_names" version="0" value="Broadcast_189, Constant_186" />
			</rt_info>
			<input>
				<port id="0" precision="I64">
					<dim>1</dim>
				</port>
				<port id="1" precision="I64">
					<dim>1</dim>
				</port>
			</input>
			<output>
				<port id="2" precision="I64">
					<dim>2</dim>
				</port>
			</output>
		</layer>
		<layer id="82" name="Concat_194" type="Concat" version="opset1">
			<data axis="0" />
			<rt_info>
				<attribute name="fused_names" version="0" value="Concat_194, Constant_186, ShapeOf_193" />
			</rt_info>
			<input>
				<port id="0" precision="I64">
					<dim>1</dim>
				</port>
				<port id="1" precision="I64">
					<dim>1</dim>
				</port>
				<port id="2" precision="I64">
					<dim>2</dim>
				</port>
			</input>
			<output>
				<port id="3" precision="I64">
					<dim>4</dim>
				</port>
			</output>
		</layer>
		<layer id="83" name="Reshape_195" type="Reshape" version="opset1">
			<data special_zero="false" />
			<rt_info>
				<attribute name="fused_names" version="0" value="Reshape_195" />
			</rt_info>
			<input>
				<port id="0" precision="FP32">
					<dim>64</dim>
				</port>
				<port id="1" precision="I64">
					<dim>4</dim>
				</port>
			</input>
			<output>
				<port id="2" precision="FP32">
					<dim>1</dim>
					<dim>64</dim>
					<dim>1</dim>
					<dim>1</dim>
				</port>
			</output>
		</layer>
		<layer id="84" name="/erb_conv2/Conv_1" type="Add" version="opset1">
			<data auto_broadcast="numpy" />
			<rt_info>
				<attribute name="fused_names" version="0" value="/erb_conv2/Conv_1" />
			</rt_info>
			<input>
				<port id="0" precision="FP32">
					<dim>1</dim>
					<dim>64</dim>
					<dim>3002</dim>
					<dim>8</dim>
				</port>
				<port id="1" precision="FP32">
					<dim>1</dim>
					<dim>64</dim>
					<dim>1</dim>
					<dim>1</dim>
				</port>
			</input>
			<output>
				<port id="2" precision="FP32" names="/erb_conv2/Conv_1_output_0">
					<dim>1</dim>
					<dim>64</dim>
					<dim>3002</dim>
					<dim>8</dim>
				</port>
			</output>
		</layer>
		<layer id="85" name="e2" type="ReLU" version="opset1">
			<rt_info>
				<attribute name="fused_names" version="0" value="e2" />
			</rt_info>
			<input>
				<port id="0" precision="FP32">
					<dim>1</dim>
					<dim>64</dim>
					<dim>3002</dim>
					<dim>8</dim>
				</port>
			</input>
			<output>
				<port id="1" precision="FP32" names="e2">
					<dim>1</dim>
					<dim>64</dim>
					<dim>3002</dim>
					<dim>8</dim>
				</port>
			</output>
		</layer>
		<layer id="86" name="erb_conv3.0.weight" type="Const" version="opset1">
			<data element_type="f32" shape="64, 1, 1, 3" offset="37552" size="768" />
			<rt_info>
				<attribute name="fused_names" version="0" value="erb_conv3.0.weight" />
			</rt_info>
			<output>
				<port id="0" precision="FP32" names="erb_conv3.0.weight">
					<dim>64</dim>
					<dim>1</dim>
					<dim>1</dim>
					<dim>3</dim>
				</port>
			</output>
		</layer>
		<layer id="87" name="Constant_203" type="Const" version="opset1">
			<data element_type="i64" shape="1" offset="2672" size="8" />
			<rt_info>
				<attribute name="fused_names" version="0" value="Constant_203" />
			</rt_info>
			<output>
				<port id="0" precision="I64">
					<dim>1</dim>
				</port>
			</output>
		</layer>
		<layer id="88" name="ShapeOf_204" type="Const" version="opset1">
			<data element_type="i64" shape="4" offset="3456" size="32" />
			<rt_info>
				<attribute name="fused_names" version="0" value="ShapeOf_204" />
			</rt_info>
			<output>
				<port id="0" precision="I64">
					<dim>4</dim>
				</port>
			</output>
		</layer>
		<layer id="89" name="Constant_201" type="Const" version="opset1">
			<data element_type="i64" shape="" offset="36" size="8" />
			<rt_info>
				<attribute name="fused_names" version="0" value="Constant_201" />
			</rt_info>
			<output>
				<port id="0" precision="I64" />
			</output>
		</layer>
		<layer id="90" name="Constant_202" type="Const" version="opset1">
			<data element_type="i64" shape="2" offset="3488" size="16" />
			<rt_info>
				<attribute name="fused_names" version="0" value="Constant_202" />
			</rt_info>
			<output>
				<port id="0" precision="I64">
					<dim>2</dim>
				</port>
			</output>
		</layer>
		<layer id="91" name="VariadicSplit_205" type="VariadicSplit" version="opset1">
			<rt_info>
				<attribute name="fused_names" version="0" value="Constant_201, Constant_202, ShapeOf_204, VariadicSplit_205" />
			</rt_info>
			<input>
				<port id="0" precision="I64">
					<dim>4</dim>
				</port>
				<port id="1" precision="I64" />
				<port id="2" precision="I64">
					<dim>2</dim>
				</port>
			</input>
			<output>
				<port id="3" precision="I64">
					<dim>1</dim>
				</port>
				<port id="4" precision="I64">
					<dim>3</dim>
				</port>
			</output>
		</layer>
		<layer id="92" name="Divide_206" type="Divide" version="opset1">
			<data auto_broadcast="numpy" m_pythondiv="true" />
			<rt_info>
				<attribute name="fused_names" version="0" value="Constant_203, Divide_206" />
			</rt_info>
			<input>
				<port id="0" precision="I64">
					<dim>1</dim>
				</port>
				<port id="1" precision="I64">
					<dim>1</dim>
				</port>
			</input>
			<output>
				<port id="2" precision="I64">
					<dim>1</dim>
				</port>
			</output>
		</layer>
		<layer id="93" name="Concat_207" type="Concat" version="opset1">
			<data axis="0" />
			<rt_info>
				<attribute name="fused_names" version="0" value="Concat_207, Constant_203" />
			</rt_info>
			<input>
				<port id="0" precision="I64">
					<dim>1</dim>
				</port>
				<port id="1" precision="I64">
					<dim>1</dim>
				</port>
				<port id="2" precision="I64">
					<dim>3</dim>
				</port>
			</input>
			<output>
				<port id="3" precision="I64">
					<dim>5</dim>
				</port>
			</output>
		</layer>
		<layer id="94" name="Reshape_208" type="Reshape" version="opset1">
			<data special_zero="false" />
			<rt_info>
				<attribute name="fused_names" version="0" value="Reshape_208" />
			</rt_info>
			<input>
				<port id="0" precision="FP32">
					<dim>64</dim>
					<dim>1</dim>
					<dim>1</dim>
					<dim>3</dim>
				</port>
				<port id="1" precision="I64">
					<dim>5</dim>
				</port>
			</input>
			<output>
				<port id="2" precision="FP32">
					<dim>64</dim>
					<dim>1</dim>
					<dim>1</dim>
					<dim>1</dim>
					<dim>3</dim>
				</port>
			</output>
		</layer>
		<layer id="95" name="/erb_conv3/0/Conv" type="GroupConvolution" version="opset1">
			<data strides="1, 1" pads_begin="0, 1" pads_end="0, 1" dilations="1, 1" auto_pad="explicit" />
			<rt_info>
				<attribute name="fused_names" version="0" value="/erb_conv3/0/Conv" />
			</rt_info>
			<input>
				<port id="0" precision="FP32">
					<dim>1</dim>
					<dim>64</dim>
					<dim>3002</dim>
					<dim>8</dim>
				</port>
				<port id="1" precision="FP32">
					<dim>64</dim>
					<dim>1</dim>
					<dim>1</dim>
					<dim>1</dim>
					<dim>3</dim>
				</port>
			</input>
			<output>
				<port id="2" precision="FP32" names="/erb_conv3/0/Conv_output_0">
					<dim>1</dim>
					<dim>64</dim>
					<dim>3002</dim>
					<dim>8</dim>
				</port>
			</output>
		</layer>
		<layer id="96" name="onnx::Conv_291" type="Const" version="opset1">
			<data element_type="f32" shape="64, 64, 1, 1" offset="38320" size="16384" />
			<rt_info>
				<attribute name="fused_names" version="0" value="onnx::Conv_291" />
			</rt_info>
			<output>
				<port id="0" precision="FP32" names="onnx::Conv_291">
					<dim>64</dim>
					<dim>64</dim>
					<dim>1</dim>
					<dim>1</dim>
				</port>
			</output>
		</layer>
		<layer id="97" name="/erb_conv3/1/Conv/WithoutBiases" type="Convolution" version="opset1">
			<data strides="1, 1" dilations="1, 1" pads_begin="0, 0" pads_end="0, 0" auto_pad="explicit" />
			<rt_info>
				<attribute name="fused_names" version="0" value="/erb_conv3/1/Conv/WithoutBiases" />
			</rt_info>
			<input>
				<port id="0" precision="FP32">
					<dim>1</dim>
					<dim>64</dim>
					<dim>3002</dim>
					<dim>8</dim>
				</port>
				<port id="1" precision="FP32">
					<dim>64</dim>
					<dim>64</dim>
					<dim>1</dim>
					<dim>1</dim>
				</port>
			</input>
			<output>
				<port id="2" precision="FP32">
					<dim>1</dim>
					<dim>64</dim>
					<dim>3002</dim>
					<dim>8</dim>
				</port>
			</output>
		</layer>
		<layer id="98" name="onnx::Conv_292" type="Const" version="opset1">
			<data element_type="f32" shape="64" offset="54704" size="256" />
			<rt_info>
				<attribute name="fused_names" version="0" value="onnx::Conv_292" />
			</rt_info>
			<output>
				<port id="0" precision="FP32" names="onnx::Conv_292">
					<dim>64</dim>
				</port>
			</output>
		</layer>
		<layer id="99" name="Constant_252" type="Const" version="opset1">
			<data element_type="i64" shape="1" offset="2664" size="8" />
			<rt_info>
				<attribute name="fused_names" version="0" value="Constant_252" />
			</rt_info>
			<output>
				<port id="0" precision="I64">
					<dim>1</dim>
				</port>
			</output>
		</layer>
		<layer id="100" name="ShapeOf_259" type="Const" version="opset1">
			<data element_type="i64" shape="1" offset="2672" size="8" />
			<rt_info>
				<attribute name="fused_names" version="0" value="ShapeOf_259" />
			</rt_info>
			<output>
				<port id="0" precision="I64">
					<dim>1</dim>
				</port>
			</output>
		</layer>
		<layer id="101" name="ShapeOf_250" type="ShapeOf" version="opset3">
			<data output_type="i64" />
			<rt_info>
				<attribute name="fused_names" version="0" value="ShapeOf_250" />
			</rt_info>
			<input>
				<port id="0" precision="FP32">
					<dim>1</dim>
					<dim>64</dim>
					<dim>3002</dim>
					<dim>8</dim>
				</port>
			</input>
			<output>
				<port id="1" precision="I64">
					<dim>4</dim>
				</port>
			</output>
		</layer>
		<layer id="102" name="ShapeOf_251" type="ShapeOf" version="opset3">
			<data output_type="i64" />
			<rt_info>
				<attribute name="fused_names" version="0" value="ShapeOf_251" />
			</rt_info>
			<input>
				<port id="0" precision="I64">
					<dim>4</dim>
				</port>
			</input>
			<output>
				<port id="1" precision="I64">
					<dim>1</dim>
				</port>
			</output>
		</layer>
		<layer id="103" name="Constant_253" type="Const" version="opset1">
			<data element_type="i64" shape="1" offset="2680" size="8" />
			<rt_info>
				<attribute name="fused_names" version="0" value="Constant_253" />
			</rt_info>
			<output>
				<port id="0" precision="I64">
					<dim>1</dim>
				</port>
			</output>
		</layer>
		<layer id="104" name="Subtract_254" type="Subtract" version="opset1">
			<data auto_broadcast="numpy" />
			<rt_info>
				<attribute name="fused_names" version="0" value="Constant_253, Subtract_254" />
			</rt_info>
			<input>
				<port id="0" precision="I64">
					<dim>1</dim>
				</port>
				<port id="1" precision="I64">
					<dim>1</dim>
				</port>
			</input>
			<output>
				<port id="2" precision="I64">
					<dim>1</dim>
				</port>
			</output>
		</layer>
		<layer id="105" name="Broadcast_255" type="Broadcast" version="opset3">
			<data mode="numpy" />
			<rt_info>
				<attribute name="fused_names" version="0" value="Broadcast_255, Constant_252" />
			</rt_info>
			<input>
				<port id="0" precision="I64">
					<dim>1</dim>
				</port>
				<port id="1" precision="I64">
					<dim>1</dim>
				</port>
			</input>
			<output>
				<port id="2" precision="I64">
					<dim>2</dim>
				</port>
			</output>
		</layer>
		<layer id="106" name="Concat_260" type="Concat" version="opset1">
			<data axis="0" />
			<rt_info>
				<attribute name="fused_names" version="0" value="Concat_260, Constant_252, ShapeOf_259" />
			</rt_info>
			<input>
				<port id="0" precision="I64">
					<dim>1</dim>
				</port>
				<port id="1" precision="I64">
					<dim>1</dim>
				</port>
				<port id="2" precision="I64">
					<dim>2</dim>
				</port>
			</input>
			<output>
				<port id="3" precision="I64">
					<dim>4</dim>
				</port>
			</output>
		</layer>
		<layer id="107" name="Reshape_261" type="Reshape" version="opset1">
			<data special_zero="false" />
			<rt_info>
				<attribute name="fused_names" version="0" value="Reshape_261" />
			</rt_info>
			<input>
				<port id="0" precision="FP32">
					<dim>64</dim>
				</port>
				<port id="1" precision="I64">
					<dim>4</dim>
				</port>
			</input>
			<output>
				<port id="2" precision="FP32">
					<dim>1</dim>
					<dim>64</dim>
					<dim>1</dim>
					<dim>1</dim>
				</port>
			</output>
		</layer>
		<layer id="108" name="/erb_conv3/1/Conv" type="Add" version="opset1">
			<data auto_broadcast="numpy" />
			<rt_info>
				<attribute name="fused_names" version="0" value="/erb_conv3/1/Conv" />
			</rt_info>
			<input>
				<port id="0" precision="FP32">
					<dim>1</dim>
					<dim>64</dim>
					<dim>3002</dim>
					<dim>8</dim>
				</port>
				<port id="1" precision="FP32">
					<dim>1</dim>
					<dim>64</dim>
					<dim>1</dim>
					<dim>1</dim>
				</port>
			</input>
			<output>
				<port id="2" precision="FP32" names="/erb_conv3/1/Conv_output_0">
					<dim>1</dim>
					<dim>64</dim>
					<dim>3002</dim>
					<dim>8</dim>
				</port>
			</output>
		</layer>
		<layer id="109" name="e3" type="ReLU" version="opset1">
			<rt_info>
				<attribute name="fused_names" version="0" value="e3" />
			</rt_info>
			<input>
				<port id="0" precision="FP32">
					<dim>1</dim>
					<dim>64</dim>
					<dim>3002</dim>
					<dim>8</dim>
				</port>
			</input>
			<output>
				<port id="1" precision="FP32" names="e3">
					<dim>1</dim>
					<dim>64</dim>
					<dim>3002</dim>
					<dim>8</dim>
				</port>
			</output>
		</layer>
		<layer id="110" name="Constant_480" type="Const" version="opset1">
			<data element_type="i64" shape="4" offset="54960" size="32" />
			<rt_info>
				<attribute name="fused_names" version="0" value="Constant_480" />
			</rt_info>
			<output>
				<port id="0" precision="I64">
					<dim>4</dim>
				</port>
			</output>
		</layer>
		<layer id="111" name="/Transpose_1" type="Transpose" version="opset1">
			<rt_info>
				<attribute name="fused_names" version="0" value="/Transpose_1" />
			</rt_info>
			<input>
				<port id="0" precision="FP32">
					<dim>1</dim>
					<dim>64</dim>
					<dim>3002</dim>
					<dim>8</dim>
				</port>
				<port id="1" precision="I64">
					<dim>4</dim>
				</port>
			</input>
			<output>
				<port id="2" precision="FP32" names="/Transpose_1_output_0">
					<dim>1</dim>
					<dim>3002</dim>
					<dim>8</dim>
					<dim>64</dim>
				</port>
			</output>
		</layer>
		<layer id="112" name="/Shape_1" type="ShapeOf" version="opset3">
			<data output_type="i64" />
			<rt_info>
				<attribute name="fused_names" version="0" value="/Shape_1" />
			</rt_info>
			<input>
				<port id="0" precision="FP32">
					<dim>1</dim>
					<dim>3002</dim>
					<dim>8</dim>
					<dim>64</dim>
				</port>
			</input>
			<output>
				<port id="1" precision="I64" names="/Shape_1_output_0">
					<dim>4</dim>
				</port>
			</output>
		</layer>
		<layer id="113" name="/Constant_5" type="Const" version="opset1">
			<data element_type="i64" shape="1" offset="36" size="8" />
			<rt_info>
				<attribute name="fused_names" version="0" value="/Constant_5" />
			</rt_info>
			<output>
				<port id="0" precision="I64" names="/Constant_5_output_0">
					<dim>1</dim>
				</port>
			</output>
		</layer>
		<layer id="114" name="/Constant_6" type="Const" version="opset1">
			<data element_type="i64" shape="1" offset="2680" size="8" />
			<rt_info>
				<attribute name="fused_names" version="0" value="/Constant_6" />
			</rt_info>
			<output>
				<port id="0" precision="I64" names="/Constant_6_output_0">
					<dim>1</dim>
				</port>
			</output>
		</layer>
		<layer id="115" name="Constant_486" type="Const" version="opset1">
			<data element_type="i64" shape="1" offset="2664" size="8" />
			<rt_info>
				<attribute name="fused_names" version="0" value="Constant_486" />
			</rt_info>
			<output>
				<port id="0" precision="I64">
					<dim>1</dim>
				</port>
			</output>
		</layer>
		<layer id="116" name="ShapeOf_487" type="Const" version="opset1">
			<data element_type="i64" shape="1" offset="2664" size="8" />
			<rt_info>
				<attribute name="fused_names" version="0" value="/Constant_5, ShapeOf_487" />
			</rt_info>
			<output>
				<port id="0" precision="I64">
					<dim>1</dim>
				</port>
			</output>
		</layer>
		<layer id="117" name="Broadcast_488" type="Broadcast" version="opset3">
			<data mode="numpy" />
			<rt_info>
				<attribute name="fused_names" version="0" value="/Constant_5, Broadcast_488, Constant_486, ShapeOf_487" />
			</rt_info>
			<input>
				<port id="0" precision="I64">
					<dim>1</dim>
				</port>
				<port id="1" precision="I64">
					<dim>1</dim>
				</port>
			</input>
			<output>
				<port id="2" precision="I64">
					<dim>1</dim>
				</port>
			</output>
		</layer>
		<layer id="118" name="/Constant_4" type="Const" version="opset1">
			<data element_type="i64" shape="1" offset="36" size="8" />
			<rt_info>
				<attribute name="fused_names" version="0" value="/Constant_4" />
			</rt_info>
			<output>
				<port id="0" precision="I64" names="/Constant_4_output_0">
					<dim>1</dim>
				</port>
			</output>
		</layer>
		<layer id="119" name="/Slice_1" type="Slice" version="opset8">
			<rt_info>
				<attribute name="fused_names" version="0" value="/Constant_4, /Constant_5, /Constant_6, /Slice_1" />
			</rt_info>
			<input>
				<port id="0" precision="I64">
					<dim>4</dim>
				</port>
				<port id="1" precision="I64">
					<dim>1</dim>
				</port>
				<port id="2" precision="I64">
					<dim>1</dim>
				</port>
				<port id="3" precision="I64">
					<dim>1</dim>
				</port>
				<port id="4" precision="I64">
					<dim>1</dim>
				</port>
			</input>
			<output>
				<port id="5" precision="I64" names="/Slice_1_output_0">
					<dim>2</dim>
				</port>
			</output>
		</layer>
		<layer id="120" name="/Constant_7" type="Const" version="opset1">
			<data element_type="i64" shape="1" offset="68" size="8" />
			<rt_info>
				<attribute name="fused_names" version="0" value="/Constant_7" />
			</rt_info>
			<output>
				<port id="0" precision="I64" names="/Constant_7_output_0">
					<dim>1</dim>
				</port>
			</output>
		</layer>
		<layer id="121" name="/Concat_1" type="Concat" version="opset1">
			<data axis="0" />
			<rt_info>
				<attribute name="fused_names" version="0" value="/Concat_1, /Constant_7" />
			</rt_info>
			<input>
				<port id="0" precision="I64">
					<dim>2</dim>
				</port>
				<port id="1" precision="I64">
					<dim>1</dim>
				</port>
			</input>
			<output>
				<port id="2" precision="I64" names="/Concat_1_output_0">
					<dim>3</dim>
				</port>
			</output>
		</layer>
		<layer id="122" name="/Reshape_1" type="Reshape" version="opset1">
			<data special_zero="true" />
			<rt_info>
				<attribute name="fused_names" version="0" value="/Reshape_1" />
			</rt_info>
			<input>
				<port id="0" precision="FP32">
					<dim>1</dim>
					<dim>3002</dim>
					<dim>8</dim>
					<dim>64</dim>
				</port>
				<port id="1" precision="I64">
					<dim>3</dim>
				</port>
			</input>
			<output>
				<port id="2" precision="FP32" names="/Reshape_1_output_0">
					<dim>1</dim>
					<dim>3002</dim>
					<dim>512</dim>
				</port>
			</output>
		</layer>
		<layer id="123" name="/df_conv0/0/Constant_1" type="Const" version="opset1">
			<data element_type="i64" shape="4" offset="4" size="32" />
			<rt_info>
				<attribute name="fused_names" version="0" value="/df_conv0/0/Constant_1" />
			</rt_info>
			<output>
				<port id="0" precision="I64" names="/df_conv0/0/Constant_1_output_0">
					<dim>4</dim>
				</port>
			</output>
		</layer>
		<layer id="124" name="Constant_269" type="Const" version="opset1">
			<data element_type="i64" shape="" offset="36" size="8" />
			<rt_info>
				<attribute name="fused_names" version="0" value="Constant_269" />
			</rt_info>
			<output>
				<port id="0" precision="I64" />
			</output>
		</layer>
		<layer id="125" name="/df_conv0/0/Constant" type="Const" version="opset1">
			<data element_type="i64" shape="1" offset="44" size="8" />
			<rt_info>
				<attribute name="fused_names" version="0" value="/df_conv0/0/Constant" />
			</rt_info>
			<output>
				<port id="0" precision="I64" names="/df_conv0/0/Constant_output_0">
					<dim>1</dim>
				</port>
			</output>
		</layer>
		<layer id="126" name="/df_conv0/0/ConstantOfShape" type="Broadcast" version="opset3">
			<data mode="numpy" />
			<rt_info>
				<attribute name="fused_names" version="0" value="/df_conv0/0/Constant, /df_conv0/0/ConstantOfShape, Constant_269" />
			</rt_info>
			<input>
				<port id="0" precision="I64" />
				<port id="1" precision="I64">
					<dim>1</dim>
				</port>
			</input>
			<output>
				<port id="2" precision="I64" names="/df_conv0/0/ConstantOfShape_output_0">
					<dim>4</dim>
				</port>
			</output>
		</layer>
		<layer id="127" name="/df_conv0/0/Concat" type="Concat" version="opset1">
			<data axis="0" />
			<rt_info>
				<attribute name="fused_names" version="0" value="/df_conv0/0/Concat, /df_conv0/0/Constant_1" />
			</rt_info>
			<input>
				<port id="0" precision="I64">
					<dim>4</dim>
				</port>
				<port id="1" precision="I64">
					<dim>4</dim>
				</port>
			</input>
			<output>
				<port id="2" precision="I64" names="/df_conv0/0/Concat_output_0">
					<dim>8</dim>
				</port>
			</output>
		</layer>
		<layer id="128" name="/df_conv0/0/Constant_2" type="Const" version="opset1">
			<data element_type="i64" shape="2" offset="52" size="16" />
			<rt_info>
				<attribute name="fused_names" version="0" value="/df_conv0/0/Constant_2" />
			</rt_info>
			<output>
				<port id="0" precision="I64" names="/df_conv0/0/Constant_2_output_0">
					<dim>2</dim>
				</port>
			</output>
		</layer>
		<layer id="129" name="/df_conv0/0/Reshape" type="Reshape" version="opset1">
			<data special_zero="true" />
			<rt_info>
				<attribute name="fused_names" version="0" value="/df_conv0/0/Constant_2, /df_conv0/0/Reshape" />
			</rt_info>
			<input>
				<port id="0" precision="I64">
					<dim>8</dim>
				</port>
				<port id="1" precision="I64">
					<dim>2</dim>
				</port>
			</input>
			<output>
				<port id="2" precision="I64" names="/df_conv0/0/Reshape_output_0">
					<dim>4</dim>
					<dim>2</dim>
				</port>
			</output>
		</layer>
		<layer id="130" name="/df_conv0/0/Constant_4" type="Const" version="opset1">
			<data element_type="i64" shape="1" offset="68" size="8" />
			<rt_info>
				<attribute name="fused_names" version="0" value="/df_conv0/0/Constant_4" />
			</rt_info>
			<output>
				<port id="0" precision="I64" names="/df_conv0/0/Constant_4_output_0">
					<dim>1</dim>
				</port>
			</output>
		</layer>
		<layer id="131" name="/df_conv0/0/Constant_5" type="Const" version="opset1">
			<data element_type="i64" shape="1" offset="76" size="8" />
			<rt_info>
				<attribute name="fused_names" version="0" value="/df_conv0/0/Constant_5" />
			</rt_info>
			<output>
				<port id="0" precision="I64" names="/df_conv0/0/Constant_5_output_0">
					<dim>1</dim>
				</port>
			</output>
		</layer>
		<layer id="132" name="/df_conv0/0/Constant_6" type="Const" version="opset1">
			<data element_type="i64" shape="1" offset="68" size="8" />
			<rt_info>
				<attribute name="fused_names" version="0" value="/df_conv0/0/Constant_6" />
			</rt_info>
			<output>
				<port id="0" precision="I64" names="/df_conv0/0/Constant_6_output_0">
					<dim>1</dim>
				</port>
			</output>
		</layer>
		<layer id="133" name="/df_conv0/0/Constant_3" type="Const" version="opset1">
			<data element_type="i64" shape="1" offset="36" size="8" />
			<rt_info>
				<attribute name="fused_names" version="0" value="/df_conv0/0/Constant_3" />
			</rt_info>
			<output>
				<port id="0" precision="I64" names="/df_conv0/0/Constant_3_output_0">
					<dim>1</dim>
				</port>
			</output>
		</layer>
		<layer id="134" name="/df_conv0/0/Slice" type="Slice" version="opset8">
			<rt_info>
				<attribute name="fused_names" version="0" value="/df_conv0/0/Constant_3, /df_conv0/0/Constant_4, /df_conv0/0/Constant_5, /df_conv0/0/Constant_6, /df_conv0/0/Slice" />
			</rt_info>
			<input>
				<port id="0" precision="I64">
					<dim>4</dim>
					<dim>2</dim>
				</port>
				<port id="1" precision="I64">
					<dim>1</dim>
				</port>
				<port id="2" precision="I64">
					<dim>1</dim>
				</port>
				<port id="3" precision="I64">
					<dim>1</dim>
				</port>
				<port id="4" precision="I64">
					<dim>1</dim>
				</port>
			</input>
			<output>
				<port id="5" precision="I64" names="/df_conv0/0/Slice_output_0">
					<dim>4</dim>
					<dim>2</dim>
				</port>
			</output>
		</layer>
		<layer id="135" name="Constant_279" type="Const" version="opset1">
			<data element_type="i64" shape="2" offset="84" size="16" />
			<rt_info>
				<attribute name="fused_names" version="0" value="Constant_279" />
			</rt_info>
			<output>
				<port id="0" precision="I64">
					<dim>2</dim>
				</port>
			</output>
		</layer>
		<layer id="136" name="/df_conv0/0/Transpose" type="Transpose" version="opset1">
			<rt_info>
				<attribute name="fused_names" version="0" value="/df_conv0/0/Transpose, Constant_279" />
			</rt_info>
			<input>
				<port id="0" precision="I64">
					<dim>4</dim>
					<dim>2</dim>
				</port>
				<port id="1" precision="I64">
					<dim>2</dim>
				</port>
			</input>
			<output>
				<port id="2" precision="I64" names="/df_conv0/0/Transpose_output_0">
					<dim>2</dim>
					<dim>4</dim>
				</port>
			</output>
		</layer>
		<layer id="137" name="Constant_983" type="Const" version="opset1">
			<data element_type="i64" shape="1" offset="68" size="8" />
			<rt_info>
				<attribute name="fused_names" version="0" value="/df_conv0/0/Reshape_1" />
			</rt_info>
			<output>
				<port id="0" precision="I64">
					<dim>1</dim>
				</port>
			</output>
		</layer>
		<layer id="138" name="/df_conv0/0/Reshape_1" type="Reshape" version="opset1">
			<data special_zero="true" />
			<rt_info>
				<attribute name="fused_names" version="0" value="/df_conv0/0/Reshape_1" />
			</rt_info>
			<input>
				<port id="0" precision="I64">
					<dim>2</dim>
					<dim>4</dim>
				</port>
				<port id="1" precision="I64">
					<dim>1</dim>
				</port>
			</input>
			<output>
				<port id="2" precision="I64" names="/df_conv0/0/Reshape_1_output_0">
					<dim>8</dim>
				</port>
			</output>
		</layer>
		<layer id="139" name="/df_conv0/0/Cast" type="Convert" version="opset1">
			<data destination_type="i64" />
			<rt_info>
				<attribute name="fused_names" version="0" value="/df_conv0/0/Cast" />
			</rt_info>
			<input>
				<port id="0" precision="I64">
					<dim>8</dim>
				</port>
			</input>
			<output>
				<port id="1" precision="I64" names="/df_conv0/0/Cast_output_0">
					<dim>8</dim>
				</port>
			</output>
		</layer>
		<layer id="140" name="Constant_285" type="Const" version="opset1">
			<data element_type="i64" shape="" offset="36" size="8" />
			<rt_info>
				<attribute name="fused_names" version="0" value="Constant_285" />
			</rt_info>
			<output>
				<port id="0" precision="I64" />
			</output>
		</layer>
		<layer id="141" name="Split_286" type="Split" version="opset1">
			<data num_splits="2" />
			<rt_info>
				<attribute name="fused_names" version="0" value="Constant_285, Split_286" />
			</rt_info>
			<input>
				<port id="0" precision="I64">
					<dim>8</dim>
				</port>
				<port id="1" precision="I64" />
			</input>
			<output>
				<port id="2" precision="I64">
					<dim>4</dim>
				</port>
				<port id="3" precision="I64">
					<dim>4</dim>
				</port>
			</output>
		</layer>
		<layer id="142" name="/df_conv0/0/Constant_8" type="Const" version="opset1">
			<data element_type="f32" shape="" offset="100" size="4" />
			<rt_info>
				<attribute name="fused_names" version="0" value="/df_conv0/0/Constant_8" />
			</rt_info>
			<output>
				<port id="0" precision="FP32" names="/df_conv0/0/Constant_8_output_0" />
			</output>
		</layer>
		<layer id="143" name="/df_conv0/0/Pad" type="Pad" version="opset12">
			<data pad_mode="constant" />
			<rt_info>
				<attribute name="fused_names" version="0" value="/df_conv0/0/Pad" />
			</rt_info>
			<input>
				<port id="0" precision="FP32">
					<dim>1</dim>
					<dim>2</dim>
					<dim>3002</dim>
					<dim>96</dim>
				</port>
				<port id="1" precision="I64">
					<dim>4</dim>
				</port>
				<port id="2" precision="I64">
					<dim>4</dim>
				</port>
				<port id="3" precision="FP32" />
			</input>
			<output>
				<port id="4" precision="FP32" names="/df_conv0/0/Pad_output_0">
					<dim>1</dim>
					<dim>2</dim>
					<dim>3004</dim>
					<dim>96</dim>
				</port>
			</output>
		</layer>
		<layer id="144" name="df_conv0.1.weight" type="Const" version="opset1">
			<data element_type="f32" shape="64, 1, 3, 3" offset="54992" size="2304" />
			<rt_info>
				<attribute name="fused_names" version="0" value="df_conv0.1.weight" />
			</rt_info>
			<output>
				<port id="0" precision="FP32" names="df_conv0.1.weight">
					<dim>64</dim>
					<dim>1</dim>
					<dim>3</dim>
					<dim>3</dim>
				</port>
			</output>
		</layer>
		<layer id="145" name="Constant_295" type="Const" version="opset1">
			<data element_type="i64" shape="1" offset="2680" size="8" />
			<rt_info>
				<attribute name="fused_names" version="0" value="Constant_295" />
			</rt_info>
			<output>
				<port id="0" precision="I64">
					<dim>1</dim>
				</port>
			</output>
		</layer>
		<layer id="146" name="ShapeOf_296" type="Const" version="opset1">
			<data element_type="i64" shape="4" offset="57296" size="32" />
			<rt_info>
				<attribute name="fused_names" version="0" value="ShapeOf_296" />
			</rt_info>
			<output>
				<port id="0" precision="I64">
					<dim>4</dim>
				</port>
			</output>
		</layer>
		<layer id="147" name="Constant_293" type="Const" version="opset1">
			<data element_type="i64" shape="" offset="36" size="8" />
			<rt_info>
				<attribute name="fused_names" version="0" value="Constant_293" />
			</rt_info>
			<output>
				<port id="0" precision="I64" />
			</output>
		</layer>
		<layer id="148" name="Constant_294" type="Const" version="opset1">
			<data element_type="i64" shape="2" offset="3488" size="16" />
			<rt_info>
				<attribute name="fused_names" version="0" value="Constant_294" />
			</rt_info>
			<output>
				<port id="0" precision="I64">
					<dim>2</dim>
				</port>
			</output>
		</layer>
		<layer id="149" name="VariadicSplit_297" type="VariadicSplit" version="opset1">
			<rt_info>
				<attribute name="fused_names" version="0" value="Constant_293, Constant_294, ShapeOf_296, VariadicSplit_297" />
			</rt_info>
			<input>
				<port id="0" precision="I64">
					<dim>4</dim>
				</port>
				<port id="1" precision="I64" />
				<port id="2" precision="I64">
					<dim>2</dim>
				</port>
			</input>
			<output>
				<port id="3" precision="I64">
					<dim>1</dim>
				</port>
				<port id="4" precision="I64">
					<dim>3</dim>
				</port>
			</output>
		</layer>
		<layer id="150" name="Divide_298" type="Divide" version="opset1">
			<data auto_broadcast="numpy" m_pythondiv="true" />
			<rt_info>
				<attribute name="fused_names" version="0" value="Constant_295, Divide_298" />
			</rt_info>
			<input>
				<port id="0" precision="I64">
					<dim>1</dim>
				</port>
				<port id="1" precision="I64">
					<dim>1</dim>
				</port>
			</input>
			<output>
				<port id="2" precision="I64">
					<dim>1</dim>
				</port>
			</output>
		</layer>
		<layer id="151" name="Concat_299" type="Concat" version="opset1">
			<data axis="0" />
			<rt_info>
				<attribute name="fused_names" version="0" value="Concat_299, Constant_295" />
			</rt_info>
			<input>
				<port id="0" precision="I64">
					<dim>1</dim>
				</port>
				<port id="1" precision="I64">
					<dim>1</dim>
				</port>
				<port id="2" precision="I64">
					<dim>3</dim>
				</port>
			</input>
			<output>
				<port id="3" precision="I64">
					<dim>5</dim>
				</port>
			</output>
		</layer>
		<layer id="152" name="Reshape_300" type="Reshape" version="opset1">
			<data special_zero="false" />
			<rt_info>
				<attribute name="fused_names" version="0" value="Reshape_300" />
			</rt_info>
			<input>
				<port id="0" precision="FP32">
					<dim>64</dim>
					<dim>1</dim>
					<dim>3</dim>
					<dim>3</dim>
				</port>
				<port id="1" precision="I64">
					<dim>5</dim>
				</port>
			</input>
			<output>
				<port id="2" precision="FP32">
					<dim>2</dim>
					<dim>32</dim>
					<dim>1</dim>
					<dim>3</dim>
					<dim>3</dim>
				</port>
			</output>
		</layer>
		<layer id="153" name="/df_conv0/1/Conv" type="GroupConvolution" version="opset1">
			<data strides="1, 1" pads_begin="0, 1" pads_end="0, 1" dilations="1, 1" auto_pad="explicit" />
			<rt_info>
				<attribute name="fused_names" version="0" value="/df_conv0/1/Conv" />
			</rt_info>
			<input>
				<port id="0" precision="FP32">
					<dim>1</dim>
					<dim>2</dim>
					<dim>3004</dim>
					<dim>96</dim>
				</port>
				<port id="1" precision="FP32">
					<dim>2</dim>
					<dim>32</dim>
					<dim>1</dim>
					<dim>3</dim>
					<dim>3</dim>
				</port>
			</input>
			<output>
				<port id="2" precision="FP32" names="/df_conv0/1/Conv_output_0">
					<dim>1</dim>
					<dim>64</dim>
					<dim>3002</dim>
					<dim>96</dim>
				</port>
			</output>
		</layer>
		<layer id="154" name="onnx::Conv_294" type="Const" version="opset1">
			<data element_type="f32" shape="64, 64, 1, 1" offset="57328" size="16384" />
			<rt_info>
				<attribute name="fused_names" version="0" value="onnx::Conv_294" />
			</rt_info>
			<output>
				<port id="0" precision="FP32" names="onnx::Conv_294">
					<dim>64</dim>
					<dim>64</dim>
					<dim>1</dim>
					<dim>1</dim>
				</port>
			</output>
		</layer>
		<layer id="155" name="/df_conv0/2/Conv/WithoutBiases" type="Convolution" version="opset1">
			<data strides="1, 1" dilations="1, 1" pads_begin="0, 0" pads_end="0, 0" auto_pad="explicit" />
			<rt_info>
				<attribute name="fused_names" version="0" value="/df_conv0/2/Conv/WithoutBiases" />
			</rt_info>
			<input>
				<port id="0" precision="FP32">
					<dim>1</dim>
					<dim>64</dim>
					<dim>3002</dim>
					<dim>96</dim>
				</port>
				<port id="1" precision="FP32">
					<dim>64</dim>
					<dim>64</dim>
					<dim>1</dim>
					<dim>1</dim>
				</port>
			</input>
			<output>
				<port id="2" precision="FP32">
					<dim>1</dim>
					<dim>64</dim>
					<dim>3002</dim>
					<dim>96</dim>
				</port>
			</output>
		</layer>
		<layer id="156" name="onnx::Conv_295" type="Const" version="opset1">
			<data element_type="f32" shape="64" offset="73712" size="256" />
			<rt_info>
				<attribute name="fused_names" version="0" value="onnx::Conv_295" />
			</rt_info>
			<output>
				<port id="0" precision="FP32" names="onnx::Conv_295">
					<dim>64</dim>
				</port>
			</output>
		</layer>
		<layer id="157" name="Constant_344" type="Const" version="opset1">
			<data element_type="i64" shape="1" offset="2664" size="8" />
			<rt_info>
				<attribute name="fused_names" version="0" value="Constant_344" />
			</rt_info>
			<output>
				<port id="0" precision="I64">
					<dim>1</dim>
				</port>
			</output>
		</layer>
		<layer id="158" name="ShapeOf_351" type="Const" version="opset1">
			<data element_type="i64" shape="1" offset="2672" size="8" />
			<rt_info>
				<attribute name="fused_names" version="0" value="ShapeOf_351" />
			</rt_info>
			<output>
				<port id="0" precision="I64">
					<dim>1</dim>
				</port>
			</output>
		</layer>
		<layer id="159" name="ShapeOf_342" type="ShapeOf" version="opset3">
			<data output_type="i64" />
			<rt_info>
				<attribute name="fused_names" version="0" value="ShapeOf_342" />
			</rt_info>
			<input>
				<port id="0" precision="FP32">
					<dim>1</dim>
					<dim>64</dim>
					<dim>3002</dim>
					<dim>96</dim>
				</port>
			</input>
			<output>
				<port id="1" precision="I64">
					<dim>4</dim>
				</port>
			</output>
		</layer>
		<layer id="160" name="ShapeOf_343" type="ShapeOf" version="opset3">
			<data output_type="i64" />
			<rt_info>
				<attribute name="fused_names" version="0" value="ShapeOf_343" />
			</rt_info>
			<input>
				<port id="0" precision="I64">
					<dim>4</dim>
				</port>
			</input>
			<output>
				<port id="1" precision="I64">
					<dim>1</dim>
				</port>
			</output>
		</layer>
		<layer id="161" name="Constant_345" type="Const" version="opset1">
			<data element_type="i64" shape="1" offset="2680" size="8" />
			<rt_info>
				<attribute name="fused_names" version="0" value="Constant_345" />
			</rt_info>
			<output>
				<port id="0" precision="I64">
					<dim>1</dim>
				</port>
			</output>
		</layer>
		<layer id="162" name="Subtract_346" type="Subtract" version="opset1">
			<data auto_broadcast="numpy" />
			<rt_info>
				<attribute name="fused_names" version="0" value="Constant_345, Subtract_346" />
			</rt_info>
			<input>
				<port id="0" precision="I64">
					<dim>1</dim>
				</port>
				<port id="1" precision="I64">
					<dim>1</dim>
				</port>
			</input>
			<output>
				<port id="2" precision="I64">
					<dim>1</dim>
				</port>
			</output>
		</layer>
		<layer id="163" name="Broadcast_347" type="Broadcast" version="opset3">
			<data mode="numpy" />
			<rt_info>
				<attribute name="fused_names" version="0" value="Broadcast_347, Constant_344" />
			</rt_info>
			<input>
				<port id="0" precision="I64">
					<dim>1</dim>
				</port>
				<port id="1" precision="I64">
					<dim>1</dim>
				</port>
			</input>
			<output>
				<port id="2" precision="I64">
					<dim>2</dim>
				</port>
			</output>
		</layer>
		<layer id="164" name="Concat_352" type="Concat" version="opset1">
			<data axis="0" />
			<rt_info>
				<attribute name="fused_names" version="0" value="Concat_352, Constant_344, ShapeOf_351" />
			</rt_info>
			<input>
				<port id="0" precision="I64">
					<dim>1</dim>
				</port>
				<port id="1" precision="I64">
					<dim>1</dim>
				</port>
				<port id="2" precision="I64">
					<dim>2</dim>
				</port>
			</input>
			<output>
				<port id="3" precision="I64">
					<dim>4</dim>
				</port>
			</output>
		</layer>
		<layer id="165" name="Reshape_353" type="Reshape" version="opset1">
			<data special_zero="false" />
			<rt_info>
				<attribute name="fused_names" version="0" value="Reshape_353" />
			</rt_info>
			<input>
				<port id="0" precision="FP32">
					<dim>64</dim>
				</port>
				<port id="1" precision="I64">
					<dim>4</dim>
				</port>
			</input>
			<output>
				<port id="2" precision="FP32">
					<dim>1</dim>
					<dim>64</dim>
					<dim>1</dim>
					<dim>1</dim>
				</port>
			</output>
		</layer>
		<layer id="166" name="/df_conv0/2/Conv" type="Add" version="opset1">
			<data auto_broadcast="numpy" />
			<rt_info>
				<attribute name="fused_names" version="0" value="/df_conv0/2/Conv" />
			</rt_info>
			<input>
				<port id="0" precision="FP32">
					<dim>1</dim>
					<dim>64</dim>
					<dim>3002</dim>
					<dim>96</dim>
				</port>
				<port id="1" precision="FP32">
					<dim>1</dim>
					<dim>64</dim>
					<dim>1</dim>
					<dim>1</dim>
				</port>
			</input>
			<output>
				<port id="2" precision="FP32" names="/df_conv0/2/Conv_output_0">
					<dim>1</dim>
					<dim>64</dim>
					<dim>3002</dim>
					<dim>96</dim>
				</port>
			</output>
		</layer>
		<layer id="167" name="c0" type="ReLU" version="opset1">
			<rt_info>
				<attribute name="fused_names" version="0" value="c0" />
			</rt_info>
			<input>
				<port id="0" precision="FP32">
					<dim>1</dim>
					<dim>64</dim>
					<dim>3002</dim>
					<dim>96</dim>
				</port>
			</input>
			<output>
				<port id="1" precision="FP32" names="c0">
					<dim>1</dim>
					<dim>64</dim>
					<dim>3002</dim>
					<dim>96</dim>
				</port>
			</output>
		</layer>
		<layer id="168" name="df_conv1.0.weight" type="Const" version="opset1">
			<data element_type="f32" shape="64, 1, 1, 3" offset="73968" size="768" />
			<rt_info>
				<attribute name="fused_names" version="0" value="df_conv1.0.weight" />
			</rt_info>
			<output>
				<port id="0" precision="FP32" names="df_conv1.0.weight">
					<dim>64</dim>
					<dim>1</dim>
					<dim>1</dim>
					<dim>3</dim>
				</port>
			</output>
		</layer>
		<layer id="169" name="Constant_361" type="Const" version="opset1">
			<data element_type="i64" shape="1" offset="2672" size="8" />
			<rt_info>
				<attribute name="fused_names" version="0" value="Constant_361" />
			</rt_info>
			<output>
				<port id="0" precision="I64">
					<dim>1</dim>
				</port>
			</output>
		</layer>
		<layer id="170" name="ShapeOf_362" type="Const" version="opset1">
			<data element_type="i64" shape="4" offset="3456" size="32" />
			<rt_info>
				<attribute name="fused_names" version="0" value="ShapeOf_362" />
			</rt_info>
			<output>
				<port id="0" precision="I64">
					<dim>4</dim>
				</port>
			</output>
		</layer>
		<layer id="171" name="Constant_359" type="Const" version="opset1">
			<data element_type="i64" shape="" offset="36" size="8" />
			<rt_info>
				<attribute name="fused_names" version="0" value="Constant_359" />
			</rt_info>
			<output>
				<port id="0" precision="I64" />
			</output>
		</layer>
		<layer id="172" name="Constant_360" type="Const" version="opset1">
			<data element_type="i64" shape="2" offset="3488" size="16" />
			<rt_info>
				<attribute name="fused_names" version="0" value="Constant_360" />
			</rt_info>
			<output>
				<port id="0" precision="I64">
					<dim>2</dim>
				</port>
			</output>
		</layer>
		<layer id="173" name="VariadicSplit_363" type="VariadicSplit" version="opset1">
			<rt_info>
				<attribute name="fused_names" version="0" value="Constant_359, Constant_360, ShapeOf_362, VariadicSplit_363" />
			</rt_info>
			<input>
				<port id="0" precision="I64">
					<dim>4</dim>
				</port>
				<port id="1" precision="I64" />
				<port id="2" precision="I64">
					<dim>2</dim>
				</port>
			</input>
			<output>
				<port id="3" precision="I64">
					<dim>1</dim>
				</port>
				<port id="4" precision="I64">
					<dim>3</dim>
				</port>
			</output>
		</layer>
		<layer id="174" name="Divide_364" type="Divide" version="opset1">
			<data auto_broadcast="numpy" m_pythondiv="true" />
			<rt_info>
				<attribute name="fused_names" version="0" value="Constant_361, Divide_364" />
			</rt_info>
			<input>
				<port id="0" precision="I64">
					<dim>1</dim>
				</port>
				<port id="1" precision="I64">
					<dim>1</dim>
				</port>
			</input>
			<output>
				<port id="2" precision="I64">
					<dim>1</dim>
				</port>
			</output>
		</layer>
		<layer id="175" name="Concat_365" type="Concat" version="opset1">
			<data axis="0" />
			<rt_info>
				<attribute name="fused_names" version="0" value="Concat_365, Constant_361" />
			</rt_info>
			<input>
				<port id="0" precision="I64">
					<dim>1</dim>
				</port>
				<port id="1" precision="I64">
					<dim>1</dim>
				</port>
				<port id="2" precision="I64">
					<dim>3</dim>
				</port>
			</input>
			<output>
				<port id="3" precision="I64">
					<dim>5</dim>
				</port>
			</output>
		</layer>
		<layer id="176" name="Reshape_366" type="Reshape" version="opset1">
			<data special_zero="false" />
			<rt_info>
				<attribute name="fused_names" version="0" value="Reshape_366" />
			</rt_info>
			<input>
				<port id="0" precision="FP32">
					<dim>64</dim>
					<dim>1</dim>
					<dim>1</dim>
					<dim>3</dim>
				</port>
				<port id="1" precision="I64">
					<dim>5</dim>
				</port>
			</input>
			<output>
				<port id="2" precision="FP32">
					<dim>64</dim>
					<dim>1</dim>
					<dim>1</dim>
					<dim>1</dim>
					<dim>3</dim>
				</port>
			</output>
		</layer>
		<layer id="177" name="/df_conv1/Conv" type="GroupConvolution" version="opset1">
			<data strides="1, 2" pads_begin="0, 1" pads_end="0, 1" dilations="1, 1" auto_pad="explicit" />
			<rt_info>
				<attribute name="fused_names" version="0" value="/df_conv1/Conv" />
			</rt_info>
			<input>
				<port id="0" precision="FP32">
					<dim>1</dim>
					<dim>64</dim>
					<dim>3002</dim>
					<dim>96</dim>
				</port>
				<port id="1" precision="FP32">
					<dim>64</dim>
					<dim>1</dim>
					<dim>1</dim>
					<dim>1</dim>
					<dim>3</dim>
				</port>
			</input>
			<output>
				<port id="2" precision="FP32" names="/df_conv1/Conv_output_0">
					<dim>1</dim>
					<dim>64</dim>
					<dim>3002</dim>
					<dim>48</dim>
				</port>
			</output>
		</layer>
		<layer id="178" name="onnx::Conv_297" type="Const" version="opset1">
			<data element_type="f32" shape="64, 64, 1, 1" offset="74736" size="16384" />
			<rt_info>
				<attribute name="fused_names" version="0" value="onnx::Conv_297" />
			</rt_info>
			<output>
				<port id="0" precision="FP32" names="onnx::Conv_297">
					<dim>64</dim>
					<dim>64</dim>
					<dim>1</dim>
					<dim>1</dim>
				</port>
			</output>
		</layer>
		<layer id="179" name="/df_conv1/Conv_1/WithoutBiases" type="Convolution" version="opset1">
			<data strides="1, 1" dilations="1, 1" pads_begin="0, 0" pads_end="0, 0" auto_pad="explicit" />
			<rt_info>
				<attribute name="fused_names" version="0" value="/df_conv1/Conv_1/WithoutBiases" />
			</rt_info>
			<input>
				<port id="0" precision="FP32">
					<dim>1</dim>
					<dim>64</dim>
					<dim>3002</dim>
					<dim>48</dim>
				</port>
				<port id="1" precision="FP32">
					<dim>64</dim>
					<dim>64</dim>
					<dim>1</dim>
					<dim>1</dim>
				</port>
			</input>
			<output>
				<port id="2" precision="FP32">
					<dim>1</dim>
					<dim>64</dim>
					<dim>3002</dim>
					<dim>48</dim>
				</port>
			</output>
		</layer>
		<layer id="180" name="onnx::Conv_298" type="Const" version="opset1">
			<data element_type="f32" shape="64" offset="91120" size="256" />
			<rt_info>
				<attribute name="fused_names" version="0" value="onnx::Conv_298" />
			</rt_info>
			<output>
				<port id="0" precision="FP32" names="onnx::Conv_298">
					<dim>64</dim>
				</port>
			</output>
		</layer>
		<layer id="181" name="Constant_410" type="Const" version="opset1">
			<data element_type="i64" shape="1" offset="2664" size="8" />
			<rt_info>
				<attribute name="fused_names" version="0" value="Constant_410" />
			</rt_info>
			<output>
				<port id="0" precision="I64">
					<dim>1</dim>
				</port>
			</output>
		</layer>
		<layer id="182" name="ShapeOf_417" type="Const" version="opset1">
			<data element_type="i64" shape="1" offset="2672" size="8" />
			<rt_info>
				<attribute name="fused_names" version="0" value="ShapeOf_417" />
			</rt_info>
			<output>
				<port id="0" precision="I64">
					<dim>1</dim>
				</port>
			</output>
		</layer>
		<layer id="183" name="ShapeOf_408" type="ShapeOf" version="opset3">
			<data output_type="i64" />
			<rt_info>
				<attribute name="fused_names" version="0" value="ShapeOf_408" />
			</rt_info>
			<input>
				<port id="0" precision="FP32">
					<dim>1</dim>
					<dim>64</dim>
					<dim>3002</dim>
					<dim>48</dim>
				</port>
			</input>
			<output>
				<port id="1" precision="I64">
					<dim>4</dim>
				</port>
			</output>
		</layer>
		<layer id="184" name="ShapeOf_409" type="ShapeOf" version="opset3">
			<data output_type="i64" />
			<rt_info>
				<attribute name="fused_names" version="0" value="ShapeOf_409" />
			</rt_info>
			<input>
				<port id="0" precision="I64">
					<dim>4</dim>
				</port>
			</input>
			<output>
				<port id="1" precision="I64">
					<dim>1</dim>
				</port>
			</output>
		</layer>
		<layer id="185" name="Constant_411" type="Const" version="opset1">
			<data element_type="i64" shape="1" offset="2680" size="8" />
			<rt_info>
				<attribute name="fused_names" version="0" value="Constant_411" />
			</rt_info>
			<output>
				<port id="0" precision="I64">
					<dim>1</dim>
				</port>
			</output>
		</layer>
		<layer id="186" name="Subtract_412" type="Subtract" version="opset1">
			<data auto_broadcast="numpy" />
			<rt_info>
				<attribute name="fused_names" version="0" value="Constant_411, Subtract_412" />
			</rt_info>
			<input>
				<port id="0" precision="I64">
					<dim>1</dim>
				</port>
				<port id="1" precision="I64">
					<dim>1</dim>
				</port>
			</input>
			<output>
				<port id="2" precision="I64">
					<dim>1</dim>
				</port>
			</output>
		</layer>
		<layer id="187" name="Broadcast_413" type="Broadcast" version="opset3">
			<data mode="numpy" />
			<rt_info>
				<attribute name="fused_names" version="0" value="Broadcast_413, Constant_410" />
			</rt_info>
			<input>
				<port id="0" precision="I64">
					<dim>1</dim>
				</port>
				<port id="1" precision="I64">
					<dim>1</dim>
				</port>
			</input>
			<output>
				<port id="2" precision="I64">
					<dim>2</dim>
				</port>
			</output>
		</layer>
		<layer id="188" name="Concat_418" type="Concat" version="opset1">
			<data axis="0" />
			<rt_info>
				<attribute name="fused_names" version="0" value="Concat_418, Constant_410, ShapeOf_417" />
			</rt_info>
			<input>
				<port id="0" precision="I64">
					<dim>1</dim>
				</port>
				<port id="1" precision="I64">
					<dim>1</dim>
				</port>
				<port id="2" precision="I64">
					<dim>2</dim>
				</port>
			</input>
			<output>
				<port id="3" precision="I64">
					<dim>4</dim>
				</port>
			</output>
		</layer>
		<layer id="189" name="Reshape_419" type="Reshape" version="opset1">
			<data special_zero="false" />
			<rt_info>
				<attribute name="fused_names" version="0" value="Reshape_419" />
			</rt_info>
			<input>
				<port id="0" precision="FP32">
					<dim>64</dim>
				</port>
				<port id="1" precision="I64">
					<dim>4</dim>
				</port>
			</input>
			<output>
				<port id="2" precision="FP32">
					<dim>1</dim>
					<dim>64</dim>
					<dim>1</dim>
					<dim>1</dim>
				</port>
			</output>
		</layer>
		<layer id="190" name="/df_conv1/Conv_1" type="Add" version="opset1">
			<data auto_broadcast="numpy" />
			<rt_info>
				<attribute name="fused_names" version="0" value="/df_conv1/Conv_1" />
			</rt_info>
			<input>
				<port id="0" precision="FP32">
					<dim>1</dim>
					<dim>64</dim>
					<dim>3002</dim>
					<dim>48</dim>
				</port>
				<port id="1" precision="FP32">
					<dim>1</dim>
					<dim>64</dim>
					<dim>1</dim>
					<dim>1</dim>
				</port>
			</input>
			<output>
				<port id="2" precision="FP32" names="/df_conv1/Conv_1_output_0">
					<dim>1</dim>
					<dim>64</dim>
					<dim>3002</dim>
					<dim>48</dim>
				</port>
			</output>
		</layer>
		<layer id="191" name="/df_conv1/Relu" type="ReLU" version="opset1">
			<rt_info>
				<attribute name="fused_names" version="0" value="/df_conv1/Relu" />
			</rt_info>
			<input>
				<port id="0" precision="FP32">
					<dim>1</dim>
					<dim>64</dim>
					<dim>3002</dim>
					<dim>48</dim>
				</port>
			</input>
			<output>
				<port id="1" precision="FP32" names="/df_conv1/Relu_output_0">
					<dim>1</dim>
					<dim>64</dim>
					<dim>3002</dim>
					<dim>48</dim>
				</port>
			</output>
		</layer>
		<layer id="192" name="Constant_424" type="Const" version="opset1">
			<data element_type="i64" shape="4" offset="54960" size="32" />
			<rt_info>
				<attribute name="fused_names" version="0" value="Constant_424" />
			</rt_info>
			<output>
				<port id="0" precision="I64">
					<dim>4</dim>
				</port>
			</output>
		</layer>
		<layer id="193" name="/Transpose" type="Transpose" version="opset1">
			<rt_info>
				<attribute name="fused_names" version="0" value="/Transpose" />
			</rt_info>
			<input>
				<port id="0" precision="FP32">
					<dim>1</dim>
					<dim>64</dim>
					<dim>3002</dim>
					<dim>48</dim>
				</port>
				<port id="1" precision="I64">
					<dim>4</dim>
				</port>
			</input>
			<output>
				<port id="2" precision="FP32" names="/Transpose_output_0">
					<dim>1</dim>
					<dim>3002</dim>
					<dim>48</dim>
					<dim>64</dim>
				</port>
			</output>
		</layer>
		<layer id="194" name="/Shape" type="ShapeOf" version="opset3">
			<data output_type="i64" />
			<rt_info>
				<attribute name="fused_names" version="0" value="/Shape" />
			</rt_info>
			<input>
				<port id="0" precision="FP32">
					<dim>1</dim>
					<dim>3002</dim>
					<dim>48</dim>
					<dim>64</dim>
				</port>
			</input>
			<output>
				<port id="1" precision="I64" names="/Shape_output_0">
					<dim>4</dim>
				</port>
			</output>
		</layer>
		<layer id="195" name="/Constant_1" type="Const" version="opset1">
			<data element_type="i64" shape="1" offset="36" size="8" />
			<rt_info>
				<attribute name="fused_names" version="0" value="/Constant_1" />
			</rt_info>
			<output>
				<port id="0" precision="I64" names="/Constant_1_output_0">
					<dim>1</dim>
				</port>
			</output>
		</layer>
		<layer id="196" name="/Constant_2" type="Const" version="opset1">
			<data element_type="i64" shape="1" offset="2680" size="8" />
			<rt_info>
				<attribute name="fused_names" version="0" value="/Constant_2" />
			</rt_info>
			<output>
				<port id="0" precision="I64" names="/Constant_2_output_0">
					<dim>1</dim>
				</port>
			</output>
		</layer>
		<layer id="197" name="Constant_430" type="Const" version="opset1">
			<data element_type="i64" shape="1" offset="2664" size="8" />
			<rt_info>
				<attribute name="fused_names" version="0" value="Constant_430" />
			</rt_info>
			<output>
				<port id="0" precision="I64">
					<dim>1</dim>
				</port>
			</output>
		</layer>
		<layer id="198" name="ShapeOf_431" type="Const" version="opset1">
			<data element_type="i64" shape="1" offset="2664" size="8" />
			<rt_info>
				<attribute name="fused_names" version="0" value="/Constant_1, ShapeOf_431" />
			</rt_info>
			<output>
				<port id="0" precision="I64">
					<dim>1</dim>
				</port>
			</output>
		</layer>
		<layer id="199" name="Broadcast_432" type="Broadcast" version="opset3">
			<data mode="numpy" />
			<rt_info>
				<attribute name="fused_names" version="0" value="/Constant_1, Broadcast_432, Constant_430, ShapeOf_431" />
			</rt_info>
			<input>
				<port id="0" precision="I64">
					<dim>1</dim>
				</port>
				<port id="1" precision="I64">
					<dim>1</dim>
				</port>
			</input>
			<output>
				<port id="2" precision="I64">
					<dim>1</dim>
				</port>
			</output>
		</layer>
		<layer id="200" name="/Constant" type="Const" version="opset1">
			<data element_type="i64" shape="1" offset="36" size="8" />
			<rt_info>
				<attribute name="fused_names" version="0" value="/Constant" />
			</rt_info>
			<output>
				<port id="0" precision="I64" names="/Constant_output_0">
					<dim>1</dim>
				</port>
			</output>
		</layer>
		<layer id="201" name="/Slice" type="Slice" version="opset8">
			<rt_info>
				<attribute name="fused_names" version="0" value="/Constant, /Constant_1, /Constant_2, /Slice" />
			</rt_info>
			<input>
				<port id="0" precision="I64">
					<dim>4</dim>
				</port>
				<port id="1" precision="I64">
					<dim>1</dim>
				</port>
				<port id="2" precision="I64">
					<dim>1</dim>
				</port>
				<port id="3" precision="I64">
					<dim>1</dim>
				</port>
				<port id="4" precision="I64">
					<dim>1</dim>
				</port>
			</input>
			<output>
				<port id="5" precision="I64" names="/Slice_output_0">
					<dim>2</dim>
				</port>
			</output>
		</layer>
		<layer id="202" name="/Constant_3" type="Const" version="opset1">
			<data element_type="i64" shape="1" offset="68" size="8" />
			<rt_info>
				<attribute name="fused_names" version="0" value="/Constant_3" />
			</rt_info>
			<output>
				<port id="0" precision="I64" names="/Constant_3_output_0">
					<dim>1</dim>
				</port>
			</output>
		</layer>
		<layer id="203" name="/Concat" type="Concat" version="opset1">
			<data axis="0" />
			<rt_info>
				<attribute name="fused_names" version="0" value="/Concat, /Constant_3" />
			</rt_info>
			<input>
				<port id="0" precision="I64">
					<dim>2</dim>
				</port>
				<port id="1" precision="I64">
					<dim>1</dim>
				</port>
			</input>
			<output>
				<port id="2" precision="I64" names="/Concat_output_0">
					<dim>3</dim>
				</port>
			</output>
		</layer>
		<layer id="204" name="/Reshape" type="Reshape" version="opset1">
			<data special_zero="true" />
			<rt_info>
				<attribute name="fused_names" version="0" value="/Reshape" />
			</rt_info>
			<input>
				<port id="0" precision="FP32">
					<dim>1</dim>
					<dim>3002</dim>
					<dim>48</dim>
					<dim>64</dim>
				</port>
				<port id="1" precision="I64">
					<dim>3</dim>
				</port>
			</input>
			<output>
				<port id="2" precision="FP32" names="/Reshape_output_0">
					<dim>1</dim>
					<dim>3002</dim>
					<dim>3072</dim>
				</port>
			</output>
		</layer>
		<layer id="205" name="/df_fc_emb/0/Shape" type="ShapeOf" version="opset3">
			<data output_type="i64" />
			<rt_info>
				<attribute name="fused_names" version="0" value="/df_fc_emb/0/Shape" />
			</rt_info>
			<input>
				<port id="0" precision="FP32">
					<dim>1</dim>
					<dim>3002</dim>
					<dim>3072</dim>
				</port>
			</input>
			<output>
				<port id="1" precision="I64" names="/df_fc_emb/0/Shape_output_0">
					<dim>3</dim>
				</port>
			</output>
		</layer>
		<layer id="206" name="Constant_61" type="Const" version="opset1">
			<data element_type="i64" shape="" offset="36" size="8" />
			<rt_info>
				<attribute name="fused_names" version="0" value="Constant_61" />
			</rt_info>
			<output>
				<port id="0" precision="I64" names="onnx::Gather_131" />
			</output>
		</layer>
		<layer id="207" name="Constant_446" type="Const" version="opset1">
			<data element_type="i64" shape="" offset="36" size="8" />
			<rt_info>
				<attribute name="fused_names" version="0" value="Constant_446" />
			</rt_info>
			<output>
				<port id="0" precision="I64" />
			</output>
		</layer>
		<layer id="208" name="/df_fc_emb/0/Gather" type="Gather" version="opset8">
			<data batch_dims="0" />
			<rt_info>
				<attribute name="fused_names" version="0" value="/df_fc_emb/0/Gather, Constant_446, Constant_61" />
			</rt_info>
			<input>
				<port id="0" precision="I64">
					<dim>3</dim>
				</port>
				<port id="1" precision="I64" />
				<port id="2" precision="I64" />
			</input>
			<output>
				<port id="3" precision="I64" names="/df_fc_emb/0/Gather_output_0" />
			</output>
		</layer>
		<layer id="209" name="Constant_451" type="Const" version="opset1">
			<data element_type="i64" shape="1" offset="36" size="8" />
			<rt_info>
				<attribute name="fused_names" version="0" value="Constant_451" />
			</rt_info>
			<output>
				<port id="0" precision="I64">
					<dim>1</dim>
				</port>
			</output>
		</layer>
		<layer id="210" name="/df_fc_emb/0/Unsqueeze" type="Unsqueeze" version="opset1">
			<rt_info>
				<attribute name="fused_names" version="0" value="/df_fc_emb/0/Unsqueeze, Constant_451" />
			</rt_info>
			<input>
				<port id="0" precision="I64" />
				<port id="1" precision="I64">
					<dim>1</dim>
				</port>
			</input>
			<output>
				<port id="2" precision="I64" names="/df_fc_emb/0/Unsqueeze_output_0">
					<dim>1</dim>
				</port>
			</output>
		</layer>
		<layer id="211" name="Constant_63" type="Const" version="opset1">
			<data element_type="i64" shape="" offset="2664" size="8" />
			<rt_info>
				<attribute name="fused_names" version="0" value="Constant_63" />
			</rt_info>
			<output>
				<port id="0" precision="I64" names="onnx::Gather_133" />
			</output>
		</layer>
		<layer id="212" name="Constant_449" type="Const" version="opset1">
			<data element_type="i64" shape="" offset="36" size="8" />
			<rt_info>
				<attribute name="fused_names" version="0" value="Constant_449" />
			</rt_info>
			<output>
				<port id="0" precision="I64" />
			</output>
		</layer>
		<layer id="213" name="/df_fc_emb/0/Gather_1" type="Gather" version="opset8">
			<data batch_dims="0" />
			<rt_info>
				<attribute name="fused_names" version="0" value="/df_fc_emb/0/Gather_1, Constant_449, Constant_63" />
			</rt_info>
			<input>
				<port id="0" precision="I64">
					<dim>3</dim>
				</port>
				<port id="1" precision="I64" />
				<port id="2" precision="I64" />
			</input>
			<output>
				<port id="3" precision="I64" names="/df_fc_emb/0/Gather_1_output_0" />
			</output>
		</layer>
		<layer id="214" name="Constant_453" type="Const" version="opset1">
			<data element_type="i64" shape="1" offset="36" size="8" />
			<rt_info>
				<attribute name="fused_names" version="0" value="Constant_453" />
			</rt_info>
			<output>
				<port id="0" precision="I64">
					<dim>1</dim>
				</port>
			</output>
		</layer>
		<layer id="215" name="/df_fc_emb/0/Unsqueeze_1" type="Unsqueeze" version="opset1">
			<rt_info>
				<attribute name="fused_names" version="0" value="/df_fc_emb/0/Unsqueeze_1, Constant_453" />
			</rt_info>
			<input>
				<port id="0" precision="I64" />
				<port id="1" precision="I64">
					<dim>1</dim>
				</port>
			</input>
			<output>
				<port id="2" precision="I64" names="/df_fc_emb/0/Unsqueeze_1_output_0">
					<dim>1</dim>
				</port>
			</output>
		</layer>
		<layer id="216" name="/df_fc_emb/0/Constant" type="Const" version="opset1">
			<data element_type="i64" shape="1" offset="91376" size="8" />
			<rt_info>
				<attribute name="fused_names" version="0" value="/df_fc_emb/0/Constant" />
			</rt_info>
			<output>
				<port id="0" precision="I64" names="/df_fc_emb/0/Constant_output_0">
					<dim>1</dim>
				</port>
			</output>
		</layer>
		<layer id="217" name="/df_fc_emb/0/Constant_1" type="Const" version="opset1">
			<data element_type="i64" shape="1" offset="91384" size="8" />
			<rt_info>
				<attribute name="fused_names" version="0" value="/df_fc_emb/0/Constant_1" />
			</rt_info>
			<output>
				<port id="0" precision="I64" names="/df_fc_emb/0/Constant_1_output_0">
					<dim>1</dim>
				</port>
			</output>
		</layer>
		<layer id="218" name="/df_fc_emb/0/Concat" type="Concat" version="opset1">
			<data axis="0" />
			<rt_info>
				<attribute name="fused_names" version="0" value="/df_fc_emb/0/Concat, /df_fc_emb/0/Constant, /df_fc_emb/0/Constant_1" />
			</rt_info>
			<input>
				<port id="0" precision="I64">
					<dim>1</dim>
				</port>
				<port id="1" precision="I64">
					<dim>1</dim>
				</port>
				<port id="2" precision="I64">
					<dim>1</dim>
				</port>
				<port id="3" precision="I64">
					<dim>1</dim>
				</port>
			</input>
			<output>
				<port id="4" precision="I64" names="/df_fc_emb/0/Concat_output_0">
					<dim>4</dim>
				</port>
			</output>
		</layer>
		<layer id="219" name="/df_fc_emb/0/Reshape" type="Reshape" version="opset1">
			<data special_zero="true" />
			<rt_info>
				<attribute name="fused_names" version="0" value="/df_fc_emb/0/Reshape" />
			</rt_info>
			<input>
				<port id="0" precision="FP32">
					<dim>1</dim>
					<dim>3002</dim>
					<dim>3072</dim>
				</port>
				<port id="1" precision="I64">
					<dim>4</dim>
				</port>
			</input>
			<output>
				<port id="2" precision="FP32" names="/df_fc_emb/0/Reshape_output_0">
					<dim>1</dim>
					<dim>3002</dim>
					<dim>32</dim>
					<dim>96</dim>
				</port>
			</output>
		</layer>
		<layer id="220" name="df_fc_emb.0.weight" type="Const" version="opset1">
			<data element_type="f32" shape="32, 96, 16" offset="91392" size="196608" />
			<rt_info>
				<attribute name="fused_names" version="0" value="df_fc_emb.0.weight" />
			</rt_info>
			<output>
				<port id="0" precision="FP32" names="df_fc_emb.0.weight">
					<dim>32</dim>
					<dim>96</dim>
					<dim>16</dim>
				</port>
			</output>
		</layer>
		<layer id="221" name="/df_fc_emb/0/Einsum" type="Einsum" version="opset7">
			<data equation="btgi,gih->btgh" />
			<rt_info>
				<attribute name="fused_names" version="0" value="/df_fc_emb/0/Einsum" />
			</rt_info>
			<input>
				<port id="0" precision="FP32">
					<dim>1</dim>
					<dim>3002</dim>
					<dim>32</dim>
					<dim>96</dim>
				</port>
				<port id="1" precision="FP32">
					<dim>32</dim>
					<dim>96</dim>
					<dim>16</dim>
				</port>
			</input>
			<output>
				<port id="2" precision="FP32" names="/df_fc_emb/0/Einsum_output_0">
					<dim>1</dim>
					<dim>3002</dim>
					<dim>32</dim>
					<dim>16</dim>
				</port>
			</output>
		</layer>
		<layer id="222" name="/df_fc_emb/0/Shape_1" type="ShapeOf" version="opset3">
			<data output_type="i64" />
			<rt_info>
				<attribute name="fused_names" version="0" value="/df_fc_emb/0/Shape_1" />
			</rt_info>
			<input>
				<port id="0" precision="FP32">
					<dim>1</dim>
					<dim>3002</dim>
					<dim>32</dim>
					<dim>16</dim>
				</port>
			</input>
			<output>
				<port id="1" precision="I64" names="/df_fc_emb/0/Shape_1_output_0">
					<dim>4</dim>
				</port>
			</output>
		</layer>
		<layer id="223" name="/df_fc_emb/0/Constant_3" type="Const" version="opset1">
			<data element_type="i64" shape="1" offset="36" size="8" />
			<rt_info>
				<attribute name="fused_names" version="0" value="/df_fc_emb/0/Constant_3" />
			</rt_info>
			<output>
				<port id="0" precision="I64" names="/df_fc_emb/0/Constant_3_output_0">
					<dim>1</dim>
				</port>
			</output>
		</layer>
		<layer id="224" name="/df_fc_emb/0/Constant_4" type="Const" version="opset1">
			<data element_type="i64" shape="1" offset="2680" size="8" />
			<rt_info>
				<attribute name="fused_names" version="0" value="/df_fc_emb/0/Constant_4" />
			</rt_info>
			<output>
				<port id="0" precision="I64" names="/df_fc_emb/0/Constant_4_output_0">
					<dim>1</dim>
				</port>
			</output>
		</layer>
		<layer id="225" name="Constant_465" type="Const" version="opset1">
			<data element_type="i64" shape="1" offset="2664" size="8" />
			<rt_info>
				<attribute name="fused_names" version="0" value="Constant_465" />
			</rt_info>
			<output>
				<port id="0" precision="I64">
					<dim>1</dim>
				</port>
			</output>
		</layer>
		<layer id="226" name="ShapeOf_466" type="Const" version="opset1">
			<data element_type="i64" shape="1" offset="2664" size="8" />
			<rt_info>
				<attribute name="fused_names" version="0" value="/df_fc_emb/0/Constant_3, ShapeOf_466" />
			</rt_info>
			<output>
				<port id="0" precision="I64">
					<dim>1</dim>
				</port>
			</output>
		</layer>
		<layer id="227" name="Broadcast_467" type="Broadcast" version="opset3">
			<data mode="numpy" />
			<rt_info>
				<attribute name="fused_names" version="0" value="/df_fc_emb/0/Constant_3, Broadcast_467, Constant_465, ShapeOf_466" />
			</rt_info>
			<input>
				<port id="0" precision="I64">
					<dim>1</dim>
				</port>
				<port id="1" precision="I64">
					<dim>1</dim>
				</port>
			</input>
			<output>
				<port id="2" precision="I64">
					<dim>1</dim>
				</port>
			</output>
		</layer>
		<layer id="228" name="/df_fc_emb/0/Constant_2" type="Const" version="opset1">
			<data element_type="i64" shape="1" offset="36" size="8" />
			<rt_info>
				<attribute name="fused_names" version="0" value="/df_fc_emb/0/Constant_2" />
			</rt_info>
			<output>
				<port id="0" precision="I64" names="/df_fc_emb/0/Constant_2_output_0">
					<dim>1</dim>
				</port>
			</output>
		</layer>
		<layer id="229" name="/df_fc_emb/0/Slice" type="Slice" version="opset8">
			<rt_info>
				<attribute name="fused_names" version="0" value="/df_fc_emb/0/Constant_2, /df_fc_emb/0/Constant_3, /df_fc_emb/0/Constant_4, /df_fc_emb/0/Slice" />
			</rt_info>
			<input>
				<port id="0" precision="I64">
					<dim>4</dim>
				</port>
				<port id="1" precision="I64">
					<dim>1</dim>
				</port>
				<port id="2" precision="I64">
					<dim>1</dim>
				</port>
				<port id="3" precision="I64">
					<dim>1</dim>
				</port>
				<port id="4" precision="I64">
					<dim>1</dim>
				</port>
			</input>
			<output>
				<port id="5" precision="I64" names="/df_fc_emb/0/Slice_output_0">
					<dim>2</dim>
				</port>
			</output>
		</layer>
		<layer id="230" name="/df_fc_emb/0/Constant_5" type="Const" version="opset1">
			<data element_type="i64" shape="1" offset="68" size="8" />
			<rt_info>
				<attribute name="fused_names" version="0" value="/df_fc_emb/0/Constant_5" />
			</rt_info>
			<output>
				<port id="0" precision="I64" names="/df_fc_emb/0/Constant_5_output_0">
					<dim>1</dim>
				</port>
			</output>
		</layer>
		<layer id="231" name="/df_fc_emb/0/Concat_1" type="Concat" version="opset1">
			<data axis="0" />
			<rt_info>
				<attribute name="fused_names" version="0" value="/df_fc_emb/0/Concat_1, /df_fc_emb/0/Constant_5" />
			</rt_info>
			<input>
				<port id="0" precision="I64">
					<dim>2</dim>
				</port>
				<port id="1" precision="I64">
					<dim>1</dim>
				</port>
			</input>
			<output>
				<port id="2" precision="I64" names="/df_fc_emb/0/Concat_1_output_0">
					<dim>3</dim>
				</port>
			</output>
		</layer>
		<layer id="232" name="/df_fc_emb/0/Reshape_1" type="Reshape" version="opset1">
			<data special_zero="true" />
			<rt_info>
				<attribute name="fused_names" version="0" value="/df_fc_emb/0/Reshape_1" />
			</rt_info>
			<input>
				<port id="0" precision="FP32">
					<dim>1</dim>
					<dim>3002</dim>
					<dim>32</dim>
					<dim>16</dim>
				</port>
				<port id="1" precision="I64">
					<dim>3</dim>
				</port>
			</input>
			<output>
				<port id="2" precision="FP32" names="/df_fc_emb/0/Reshape_1_output_0">
					<dim>1</dim>
					<dim>3002</dim>
					<dim>512</dim>
				</port>
			</output>
		</layer>
		<layer id="233" name="/df_fc_emb/1/Relu" type="ReLU" version="opset1">
			<rt_info>
				<attribute name="fused_names" version="0" value="/df_fc_emb/1/Relu" />
			</rt_info>
			<input>
				<port id="0" precision="FP32">
					<dim>1</dim>
					<dim>3002</dim>
					<dim>512</dim>
				</port>
			</input>
			<output>
				<port id="1" precision="FP32" names="/df_fc_emb/1/Relu_output_0">
					<dim>1</dim>
					<dim>3002</dim>
					<dim>512</dim>
				</port>
			</output>
		</layer>
		<layer id="234" name="/combine/Add" type="Add" version="opset1">
			<data auto_broadcast="numpy" />
			<rt_info>
				<attribute name="fused_names" version="0" value="/combine/Add" />
			</rt_info>
			<input>
				<port id="0" precision="FP32">
					<dim>1</dim>
					<dim>3002</dim>
					<dim>512</dim>
				</port>
				<port id="1" precision="FP32">
					<dim>1</dim>
					<dim>3002</dim>
					<dim>512</dim>
				</port>
			</input>
			<output>
				<port id="2" precision="FP32" names="/combine/Add_output_0">
					<dim>1</dim>
					<dim>3002</dim>
					<dim>512</dim>
				</port>
			</output>
		</layer>
		<layer id="235" name="/emb_gru/linear_in/0/Shape" type="ShapeOf" version="opset3">
			<data output_type="i64" />
			<rt_info>
				<attribute name="fused_names" version="0" value="/emb_gru/linear_in/0/Shape" />
			</rt_info>
			<input>
				<port id="0" precision="FP32">
					<dim>1</dim>
					<dim>3002</dim>
					<dim>512</dim>
				</port>
			</input>
			<output>
				<port id="1" precision="I64" names="/emb_gru/linear_in/0/Shape_output_0">
					<dim>3</dim>
				</port>
			</output>
		</layer>
		<layer id="236" name="Constant_92" type="Const" version="opset1">
			<data element_type="i64" shape="" offset="36" size="8" />
			<rt_info>
				<attribute name="fused_names" version="0" value="Constant_92" />
			</rt_info>
			<output>
				<port id="0" precision="I64" names="onnx::Gather_162" />
			</output>
		</layer>
		<layer id="237" name="Constant_503" type="Const" version="opset1">
			<data element_type="i64" shape="" offset="36" size="8" />
			<rt_info>
				<attribute name="fused_names" version="0" value="Constant_503" />
			</rt_info>
			<output>
				<port id="0" precision="I64" />
			</output>
		</layer>
		<layer id="238" name="/emb_gru/linear_in/0/Gather" type="Gather" version="opset8">
			<data batch_dims="0" />
			<rt_info>
				<attribute name="fused_names" version="0" value="/emb_gru/linear_in/0/Gather, Constant_503, Constant_92" />
			</rt_info>
			<input>
				<port id="0" precision="I64">
					<dim>3</dim>
				</port>
				<port id="1" precision="I64" />
				<port id="2" precision="I64" />
			</input>
			<output>
				<port id="3" precision="I64" names="/emb_gru/linear_in/0/Gather_output_0" />
			</output>
		</layer>
		<layer id="239" name="Constant_508" type="Const" version="opset1">
			<data element_type="i64" shape="1" offset="36" size="8" />
			<rt_info>
				<attribute name="fused_names" version="0" value="Constant_508" />
			</rt_info>
			<output>
				<port id="0" precision="I64">
					<dim>1</dim>
				</port>
			</output>
		</layer>
		<layer id="240" name="/emb_gru/linear_in/0/Unsqueeze" type="Unsqueeze" version="opset1">
			<rt_info>
				<attribute name="fused_names" version="0" value="/emb_gru/linear_in/0/Unsqueeze, Constant_508" />
			</rt_info>
			<input>
				<port id="0" precision="I64" />
				<port id="1" precision="I64">
					<dim>1</dim>
				</port>
			</input>
			<output>
				<port id="2" precision="I64" names="/emb_gru/linear_in/0/Unsqueeze_output_0">
					<dim>1</dim>
				</port>
			</output>
		</layer>
		<layer id="241" name="Constant_94" type="Const" version="opset1">
			<data element_type="i64" shape="" offset="2664" size="8" />
			<rt_info>
				<attribute name="fused_names" version="0" value="Constant_94" />
			</rt_info>
			<output>
				<port id="0" precision="I64" names="onnx::Gather_164" />
			</output>
		</layer>
		<layer id="242" name="Constant_506" type="Const" version="opset1">
			<data element_type="i64" shape="" offset="36" size="8" />
			<rt_info>
				<attribute name="fused_names" version="0" value="Constant_506" />
			</rt_info>
			<output>
				<port id="0" precision="I64" />
			</output>
		</layer>
		<layer id="243" name="/emb_gru/linear_in/0/Gather_1" type="Gather" version="opset8">
			<data batch_dims="0" />
			<rt_info>
				<attribute name="fused_names" version="0" value="/emb_gru/linear_in/0/Gather_1, Constant_506, Constant_94" />
			</rt_info>
			<input>
				<port id="0" precision="I64">
					<dim>3</dim>
				</port>
				<port id="1" precision="I64" />
				<port id="2" precision="I64" />
			</input>
			<output>
				<port id="3" precision="I64" names="/emb_gru/linear_in/0/Gather_1_output_0" />
			</output>
		</layer>
		<layer id="244" name="Constant_510" type="Const" version="opset1">
			<data element_type="i64" shape="1" offset="36" size="8" />
			<rt_info>
				<attribute name="fused_names" version="0" value="Constant_510" />
			</rt_info>
			<output>
				<port id="0" precision="I64">
					<dim>1</dim>
				</port>
			</output>
		</layer>
		<layer id="245" name="/emb_gru/linear_in/0/Unsqueeze_1" type="Unsqueeze" version="opset1">
			<rt_info>
				<attribute name="fused_names" version="0" value="/emb_gru/linear_in/0/Unsqueeze_1, Constant_510" />
			</rt_info>
			<input>
				<port id="0" precision="I64" />
				<port id="1" precision="I64">
					<dim>1</dim>
				</port>
			</input>
			<output>
				<port id="2" precision="I64" names="/emb_gru/linear_in/0/Unsqueeze_1_output_0">
					<dim>1</dim>
				</port>
			</output>
		</layer>
		<layer id="246" name="/emb_gru/linear_in/0/Constant" type="Const" version="opset1">
			<data element_type="i64" shape="1" offset="288000" size="8" />
			<rt_info>
				<attribute name="fused_names" version="0" value="/emb_gru/linear_in/0/Constant" />
			</rt_info>
			<output>
				<port id="0" precision="I64" names="/emb_gru/linear_in/0/Constant_output_0">
					<dim>1</dim>
				</port>
			</output>
		</layer>
		<layer id="247" name="/emb_gru/linear_in/0/Constant_1" type="Const" version="opset1">
			<data element_type="i64" shape="1" offset="91376" size="8" />
			<rt_info>
				<attribute name="fused_names" version="0" value="/emb_gru/linear_in/0/Constant_1" />
			</rt_info>
			<output>
				<port id="0" precision="I64" names="/emb_gru/linear_in/0/Constant_1_output_0">
					<dim>1</dim>
				</port>
			</output>
		</layer>
		<layer id="248" name="/emb_gru/linear_in/0/Concat" type="Concat" version="opset1">
			<data axis="0" />
			<rt_info>
				<attribute name="fused_names" version="0" value="/emb_gru/linear_in/0/Concat, /emb_gru/linear_in/0/Constant, /emb_gru/linear_in/0/Constant_1" />
			</rt_info>
			<input>
				<port id="0" precision="I64">
					<dim>1</dim>
				</port>
				<port id="1" precision="I64">
					<dim>1</dim>
				</port>
				<port id="2" precision="I64">
					<dim>1</dim>
				</port>
				<port id="3" precision="I64">
					<dim>1</dim>
				</port>
			</input>
			<output>
				<port id="4" precision="I64" names="/emb_gru/linear_in/0/Concat_output_0">
					<dim>4</dim>
				</port>
			</output>
		</layer>
		<layer id="249" name="/emb_gru/linear_in/0/Reshape" type="Reshape" version="opset1">
			<data special_zero="true" />
			<rt_info>
				<attribute name="fused_names" version="0" value="/emb_gru/linear_in/0/Reshape" />
			</rt_info>
			<input>
				<port id="0" precision="FP32">
					<dim>1</dim>
					<dim>3002</dim>
					<dim>512</dim>
				</port>
				<port id="1" precision="I64">
					<dim>4</dim>
				</port>
			</input>
			<output>
				<port id="2" precision="FP32" names="/emb_gru/linear_in/0/Reshape_output_0">
					<dim>1</dim>
					<dim>3002</dim>
					<dim>16</dim>
					<dim>32</dim>
				</port>
			</output>
		</layer>
		<layer id="250" name="emb_gru.linear_in.0.weight" type="Const" version="opset1">
			<data element_type="f32" shape="16, 32, 16" offset="288008" size="32768" />
			<rt_info>
				<attribute name="fused_names" version="0" value="emb_gru.linear_in.0.weight" />
			</rt_info>
			<output>
				<port id="0" precision="FP32" names="emb_gru.linear_in.0.weight">
					<dim>16</dim>
					<dim>32</dim>
					<dim>16</dim>
				</port>
			</output>
		</layer>
		<layer id="251" name="/emb_gru/linear_in/0/Einsum" type="Einsum" version="opset7">
			<data equation="btgi,gih->btgh" />
			<rt_info>
				<attribute name="fused_names" version="0" value="/emb_gru/linear_in/0/Einsum" />
			</rt_info>
			<input>
				<port id="0" precision="FP32">
					<dim>1</dim>
					<dim>3002</dim>
					<dim>16</dim>
					<dim>32</dim>
				</port>
				<port id="1" precision="FP32">
					<dim>16</dim>
					<dim>32</dim>
					<dim>16</dim>
				</port>
			</input>
			<output>
				<port id="2" precision="FP32" names="/emb_gru/linear_in/0/Einsum_output_0">
					<dim>1</dim>
					<dim>3002</dim>
					<dim>16</dim>
					<dim>16</dim>
				</port>
			</output>
		</layer>
		<layer id="252" name="/emb_gru/linear_in/0/Shape_1" type="ShapeOf" version="opset3">
			<data output_type="i64" />
			<rt_info>
				<attribute name="fused_names" version="0" value="/emb_gru/linear_in/0/Shape_1" />
			</rt_info>
			<input>
				<port id="0" precision="FP32">
					<dim>1</dim>
					<dim>3002</dim>
					<dim>16</dim>
					<dim>16</dim>
				</port>
			</input>
			<output>
				<port id="1" precision="I64" names="/emb_gru/linear_in/0/Shape_1_output_0">
					<dim>4</dim>
				</port>
			</output>
		</layer>
		<layer id="253" name="/emb_gru/linear_in/0/Constant_3" type="Const" version="opset1">
			<data element_type="i64" shape="1" offset="36" size="8" />
			<rt_info>
				<attribute name="fused_names" version="0" value="/emb_gru/linear_in/0/Constant_3" />
			</rt_info>
			<output>
				<port id="0" precision="I64" names="/emb_gru/linear_in/0/Constant_3_output_0">
					<dim>1</dim>
				</port>
			</output>
		</layer>
		<layer id="254" name="/emb_gru/linear_in/0/Constant_4" type="Const" version="opset1">
			<data element_type="i64" shape="1" offset="2680" size="8" />
			<rt_info>
				<attribute name="fused_names" version="0" value="/emb_gru/linear_in/0/Constant_4" />
			</rt_info>
			<output>
				<port id="0" precision="I64" names="/emb_gru/linear_in/0/Constant_4_output_0">
					<dim>1</dim>
				</port>
			</output>
		</layer>
		<layer id="255" name="Constant_522" type="Const" version="opset1">
			<data element_type="i64" shape="1" offset="2664" size="8" />
			<rt_info>
				<attribute name="fused_names" version="0" value="Constant_522" />
			</rt_info>
			<output>
				<port id="0" precision="I64">
					<dim>1</dim>
				</port>
			</output>
		</layer>
		<layer id="256" name="ShapeOf_523" type="Const" version="opset1">
			<data element_type="i64" shape="1" offset="2664" size="8" />
			<rt_info>
				<attribute name="fused_names" version="0" value="/emb_gru/linear_in/0/Constant_3, ShapeOf_523" />
			</rt_info>
			<output>
				<port id="0" precision="I64">
					<dim>1</dim>
				</port>
			</output>
		</layer>
		<layer id="257" name="Broadcast_524" type="Broadcast" version="opset3">
			<data mode="numpy" />
			<rt_info>
				<attribute name="fused_names" version="0" value="/emb_gru/linear_in/0/Constant_3, Broadcast_524, Constant_522, ShapeOf_523" />
			</rt_info>
			<input>
				<port id="0" precision="I64">
					<dim>1</dim>
				</port>
				<port id="1" precision="I64">
					<dim>1</dim>
				</port>
			</input>
			<output>
				<port id="2" precision="I64">
					<dim>1</dim>
				</port>
			</output>
		</layer>
		<layer id="258" name="/emb_gru/linear_in/0/Constant_2" type="Const" version="opset1">
			<data element_type="i64" shape="1" offset="36" size="8" />
			<rt_info>
				<attribute name="fused_names" version="0" value="/emb_gru/linear_in/0/Constant_2" />
			</rt_info>
			<output>
				<port id="0" precision="I64" names="/emb_gru/linear_in/0/Constant_2_output_0">
					<dim>1</dim>
				</port>
			</output>
		</layer>
		<layer id="259" name="/emb_gru/linear_in/0/Slice" type="Slice" version="opset8">
			<rt_info>
				<attribute name="fused_names" version="0" value="/emb_gru/linear_in/0/Constant_2, /emb_gru/linear_in/0/Constant_3, /emb_gru/linear_in/0/Constant_4, /emb_gru/linear_in/0/Slice" />
			</rt_info>
			<input>
				<port id="0" precision="I64">
					<dim>4</dim>
				</port>
				<port id="1" precision="I64">
					<dim>1</dim>
				</port>
				<port id="2" precision="I64">
					<dim>1</dim>
				</port>
				<port id="3" precision="I64">
					<dim>1</dim>
				</port>
				<port id="4" precision="I64">
					<dim>1</dim>
				</port>
			</input>
			<output>
				<port id="5" precision="I64" names="/emb_gru/linear_in/0/Slice_output_0">
					<dim>2</dim>
				</port>
			</output>
		</layer>
		<layer id="260" name="/emb_gru/linear_in/0/Constant_5" type="Const" version="opset1">
			<data element_type="i64" shape="1" offset="68" size="8" />
			<rt_info>
				<attribute name="fused_names" version="0" value="/emb_gru/linear_in/0/Constant_5" />
			</rt_info>
			<output>
				<port id="0" precision="I64" names="/emb_gru/linear_in/0/Constant_5_output_0">
					<dim>1</dim>
				</port>
			</output>
		</layer>
		<layer id="261" name="/emb_gru/linear_in/0/Concat_1" type="Concat" version="opset1">
			<data axis="0" />
			<rt_info>
				<attribute name="fused_names" version="0" value="/emb_gru/linear_in/0/Concat_1, /emb_gru/linear_in/0/Constant_5" />
			</rt_info>
			<input>
				<port id="0" precision="I64">
					<dim>2</dim>
				</port>
				<port id="1" precision="I64">
					<dim>1</dim>
				</port>
			</input>
			<output>
				<port id="2" precision="I64" names="/emb_gru/linear_in/0/Concat_1_output_0">
					<dim>3</dim>
				</port>
			</output>
		</layer>
		<layer id="262" name="/emb_gru/linear_in/0/Reshape_1" type="Reshape" version="opset1">
			<data special_zero="true" />
			<rt_info>
				<attribute name="fused_names" version="0" value="/emb_gru/linear_in/0/Reshape_1" />
			</rt_info>
			<input>
				<port id="0" precision="FP32">
					<dim>1</dim>
					<dim>3002</dim>
					<dim>16</dim>
					<dim>16</dim>
				</port>
				<port id="1" precision="I64">
					<dim>3</dim>
				</port>
			</input>
			<output>
				<port id="2" precision="FP32" names="/emb_gru/linear_in/0/Reshape_1_output_0">
					<dim>1</dim>
					<dim>3002</dim>
					<dim>256</dim>
				</port>
			</output>
		</layer>
		<layer id="263" name="/emb_gru/linear_in/1/Relu" type="ReLU" version="opset1">
			<rt_info>
				<attribute name="fused_names" version="0" value="/emb_gru/linear_in/1/Relu" />
			</rt_info>
			<input>
				<port id="0" precision="FP32">
					<dim>1</dim>
					<dim>3002</dim>
					<dim>256</dim>
				</port>
			</input>
			<output>
				<port id="1" precision="FP32" names="/emb_gru/linear_in/1/Relu_output_0">
					<dim>1</dim>
					<dim>3002</dim>
					<dim>256</dim>
				</port>
			</output>
		</layer>
		<layer id="264" name="Constant_552" type="Const" version="opset1">
			<data element_type="i64" shape="3" offset="320776" size="24" />
			<rt_info>
				<attribute name="fused_names" version="0" value="Constant_552" />
			</rt_info>
			<output>
				<port id="0" precision="I64">
					<dim>3</dim>
				</port>
			</output>
		</layer>
		<layer id="265" name="/emb_gru/Transpose" type="Transpose" version="opset1">
			<rt_info>
				<attribute name="fused_names" version="0" value="/emb_gru/Transpose" />
			</rt_info>
			<input>
				<port id="0" precision="FP32">
					<dim>1</dim>
					<dim>3002</dim>
					<dim>256</dim>
				</port>
				<port id="1" precision="I64">
					<dim>3</dim>
				</port>
			</input>
			<output>
				<port id="2" precision="FP32" names="/emb_gru/Transpose_output_0">
					<dim>3002</dim>
					<dim>1</dim>
					<dim>256</dim>
				</port>
			</output>
		</layer>
		<layer id="266" name="Constant_558" type="Const" version="opset1">
			<data element_type="i64" shape="3" offset="320776" size="24" />
			<rt_info>
				<attribute name="fused_names" version="0" value="Constant_558" />
			</rt_info>
			<output>
				<port id="0" precision="I64">
					<dim>3</dim>
				</port>
			</output>
		</layer>
		<layer id="267" name="Transpose_559" type="Transpose" version="opset1">
			<rt_info>
				<attribute name="fused_names" version="0" value="Transpose_559" />
			</rt_info>
			<input>
				<port id="0" precision="FP32">
					<dim>3002</dim>
					<dim>1</dim>
					<dim>256</dim>
				</port>
				<port id="1" precision="I64">
					<dim>3</dim>
				</port>
			</input>
			<output>
				<port id="2" precision="FP32">
					<dim>1</dim>
					<dim>3002</dim>
					<dim>256</dim>
				</port>
			</output>
		</layer>
		<layer id="268" name="Constant_547" type="Const" version="opset1">
			<data element_type="f32" shape="" offset="100" size="4" />
			<rt_info>
				<attribute name="fused_names" version="0" value="Constant_547" />
			</rt_info>
			<output>
				<port id="0" precision="FP32" />
			</output>
		</layer>
		<layer id="269" name="/emb_gru/Constant_1" type="Const" version="opset1">
			<data element_type="i64" shape="1" offset="2664" size="8" />
			<rt_info>
				<attribute name="fused_names" version="0" value="/emb_gru/Constant_1" />
			</rt_info>
			<output>
				<port id="0" precision="I64" names="/emb_gru/Constant_1_output_0">
					<dim>1</dim>
				</port>
			</output>
		</layer>
		<layer id="270" name="/emb_gru/Shape" type="ShapeOf" version="opset3">
			<data output_type="i64" />
			<rt_info>
				<attribute name="fused_names" version="0" value="/emb_gru/Shape" />
			</rt_info>
			<input>
				<port id="0" precision="FP32">
					<dim>1</dim>
					<dim>3002</dim>
					<dim>256</dim>
				</port>
			</input>
			<output>
				<port id="1" precision="I64" names="/emb_gru/Shape_output_0">
					<dim>3</dim>
				</port>
			</output>
		</layer>
		<layer id="271" name="/emb_gru/Constant" type="Const" version="opset1">
			<data element_type="i64" shape="" offset="36" size="8" />
			<rt_info>
				<attribute name="fused_names" version="0" value="/emb_gru/Constant" />
			</rt_info>
			<output>
				<port id="0" precision="I64" names="/emb_gru/Constant_output_0" />
			</output>
		</layer>
		<layer id="272" name="Constant_539" type="Const" version="opset1">
			<data element_type="i64" shape="" offset="36" size="8" />
			<rt_info>
				<attribute name="fused_names" version="0" value="Constant_539" />
			</rt_info>
			<output>
				<port id="0" precision="I64" />
			</output>
		</layer>
		<layer id="273" name="/emb_gru/Gather" type="Gather" version="opset8">
			<data batch_dims="0" />
			<rt_info>
				<attribute name="fused_names" version="0" value="/emb_gru/Constant, /emb_gru/Gather, Constant_539" />
			</rt_info>
			<input>
				<port id="0" precision="I64">
					<dim>3</dim>
				</port>
				<port id="1" precision="I64" />
				<port id="2" precision="I64" />
			</input>
			<output>
				<port id="3" precision="I64" names="/emb_gru/Gather_output_0" />
			</output>
		</layer>
		<layer id="274" name="Constant_542" type="Const" version="opset1">
			<data element_type="i64" shape="1" offset="36" size="8" />
			<rt_info>
				<attribute name="fused_names" version="0" value="Constant_542" />
			</rt_info>
			<output>
				<port id="0" precision="I64">
					<dim>1</dim>
				</port>
			</output>
		</layer>
		<layer id="275" name="/emb_gru/Unsqueeze" type="Unsqueeze" version="opset1">
			<rt_info>
				<attribute name="fused_names" version="0" value="/emb_gru/Unsqueeze, Constant_542" />
			</rt_info>
			<input>
				<port id="0" precision="I64" />
				<port id="1" precision="I64">
					<dim>1</dim>
				</port>
			</input>
			<output>
				<port id="2" precision="I64" names="/emb_gru/Unsqueeze_output_0">
					<dim>1</dim>
				</port>
			</output>
		</layer>
		<layer id="276" name="/emb_gru/Constant_2" type="Const" version="opset1">
			<data element_type="i64" shape="1" offset="320800" size="8" />
			<rt_info>
				<attribute name="fused_names" version="0" value="/emb_gru/Constant_2" />
			</rt_info>
			<output>
				<port id="0" precision="I64" names="/emb_gru/Constant_2_output_0">
					<dim>1</dim>
				</port>
			</output>
		</layer>
		<layer id="277" name="/emb_gru/Concat" type="Concat" version="opset1">
			<data axis="0" />
			<rt_info>
				<attribute name="fused_names" version="0" value="/emb_gru/Concat, /emb_gru/Constant_1, /emb_gru/Constant_2" />
			</rt_info>
			<input>
				<port id="0" precision="I64">
					<dim>1</dim>
				</port>
				<port id="1" precision="I64">
					<dim>1</dim>
				</port>
				<port id="2" precision="I64">
					<dim>1</dim>
				</port>
			</input>
			<output>
				<port id="3" precision="I64" names="/emb_gru/Concat_output_0">
					<dim>3</dim>
				</port>
			</output>
		</layer>
		<layer id="278" name="/emb_gru/ConstantOfShape" type="Broadcast" version="opset3">
			<data mode="numpy" />
			<rt_info>
				<attribute name="fused_names" version="0" value="/emb_gru/ConstantOfShape" />
			</rt_info>
			<input>
				<port id="0" precision="FP32" />
				<port id="1" precision="I64">
					<dim>3</dim>
				</port>
			</input>
			<output>
				<port id="2" precision="FP32" names="/emb_gru/ConstantOfShape_output_0">
					<dim>1</dim>
					<dim>1</dim>
					<dim>256</dim>
				</port>
			</output>
		</layer>
		<layer id="279" name="Constant_578" type="Const" version="opset1">
			<data element_type="i64" shape="3" offset="320776" size="24" />
			<rt_info>
				<attribute name="fused_names" version="0" value="Constant_578" />
			</rt_info>
			<output>
				<port id="0" precision="I64">
					<dim>3</dim>
				</port>
			</output>
		</layer>
		<layer id="280" name="Transpose_579" type="Transpose" version="opset1">
			<rt_info>
				<attribute name="fused_names" version="0" value="Transpose_579" />
			</rt_info>
			<input>
				<port id="0" precision="FP32">
					<dim>1</dim>
					<dim>1</dim>
					<dim>256</dim>
				</port>
				<port id="1" precision="I64">
					<dim>3</dim>
				</port>
			</input>
			<output>
				<port id="2" precision="FP32">
					<dim>1</dim>
					<dim>1</dim>
					<dim>256</dim>
				</port>
			</output>
		</layer>
		<layer id="281" name="ShapeOf_560" type="ShapeOf" version="opset3">
			<data output_type="i64" />
			<rt_info>
				<attribute name="fused_names" version="0" value="ShapeOf_560" />
			</rt_info>
			<input>
				<port id="0" precision="FP32">
					<dim>1</dim>
					<dim>3002</dim>
					<dim>256</dim>
				</port>
			</input>
			<output>
				<port id="1" precision="I64">
					<dim>3</dim>
				</port>
			</output>
		</layer>
		<layer id="282" name="Constant_564" type="Const" version="opset1">
			<data element_type="i32" shape="1" offset="320808" size="4" />
			<rt_info>
				<attribute name="fused_names" version="0" value="Constant_564" />
			</rt_info>
			<output>
				<port id="0" precision="I32">
					<dim>1</dim>
				</port>
			</output>
		</layer>
		<layer id="283" name="Constant_561" type="Const" version="opset1">
			<data element_type="i32" shape="1" offset="100" size="4" />
			<rt_info>
				<attribute name="fused_names" version="0" value="Constant_561" />
			</rt_info>
			<output>
				<port id="0" precision="I32">
					<dim>1</dim>
				</port>
			</output>
		</layer>
		<layer id="284" name="Gather_565" type="Gather" version="opset8">
			<data batch_dims="0" />
			<rt_info>
				<attribute name="fused_names" version="0" value="Constant_561, Gather_565" />
			</rt_info>
			<input>
				<port id="0" precision="I64">
					<dim>3</dim>
				</port>
				<port id="1" precision="I32">
					<dim>1</dim>
				</port>
				<port id="2" precision="I32">
					<dim>1</dim>
				</port>
			</input>
			<output>
				<port id="3" precision="I64">
					<dim>1</dim>
				</port>
			</output>
		</layer>
		<layer id="285" name="Constant_562" type="Const" version="opset1">
			<data element_type="i32" shape="1" offset="100" size="4" />
			<rt_info>
				<attribute name="fused_names" version="0" value="Constant_562" />
			</rt_info>
			<output>
				<port id="0" precision="I32">
					<dim>1</dim>
				</port>
			</output>
		</layer>
		<layer id="286" name="Gather_563" type="Gather" version="opset8">
			<data batch_dims="0" />
			<rt_info>
				<attribute name="fused_names" version="0" value="Constant_561, Constant_562, Gather_563" />
			</rt_info>
			<input>
				<port id="0" precision="I64">
					<dim>3</dim>
				</port>
				<port id="1" precision="I32">
					<dim>1</dim>
				</port>
				<port id="2" precision="I32">
					<dim>1</dim>
				</port>
			</input>
			<output>
				<port id="3" precision="I64">
					<dim>1</dim>
				</port>
			</output>
		</layer>
		<layer id="287" name="Broadcast_574" type="Broadcast" version="opset3">
			<data mode="numpy" />
			<rt_info>
				<attribute name="fused_names" version="0" value="Broadcast_574" />
			</rt_info>
			<input>
				<port id="0" precision="I64">
					<dim>1</dim>
				</port>
				<port id="1" precision="I64">
					<dim>1</dim>
				</port>
			</input>
			<output>
				<port id="2" precision="I64">
					<dim>1</dim>
				</port>
			</output>
		</layer>
		<layer id="288" name="/emb_gru/Constant_3" type="Const" version="opset1">
			<data element_type="f32" shape="1, 768, 256" offset="320812" size="786432" />
			<rt_info>
				<attribute name="fused_names" version="0" value="/emb_gru/Constant_3" />
			</rt_info>
			<output>
				<port id="0" precision="FP32" names="/emb_gru/Constant_3_output_0">
					<dim>1</dim>
					<dim>768</dim>
					<dim>256</dim>
				</port>
			</output>
		</layer>
		<layer id="289" name="/emb_gru/Constant_4" type="Const" version="opset1">
			<data element_type="f32" shape="1, 768, 256" offset="1107244" size="786432" />
			<rt_info>
				<attribute name="fused_names" version="0" value="/emb_gru/Constant_4" />
			</rt_info>
			<output>
				<port id="0" precision="FP32" names="/emb_gru/Constant_4_output_0">
					<dim>1</dim>
					<dim>768</dim>
					<dim>256</dim>
				</port>
			</output>
		</layer>
		<layer id="290" name="/emb_gru/Constant_5" type="Const" version="opset1">
			<data element_type="f32" shape="1, 1536" offset="1893676" size="6144" />
			<rt_info>
				<attribute name="fused_names" version="0" value="/emb_gru/Constant_5" />
			</rt_info>
			<output>
				<port id="0" precision="FP32" names="/emb_gru/Constant_5_output_0">
					<dim>1</dim>
					<dim>1536</dim>
				</port>
			</output>
		</layer>
		<layer id="291" name="Constant_581" type="Const" version="opset1">
			<data element_type="i64" shape="" offset="2664" size="8" />
			<rt_info>
				<attribute name="fused_names" version="0" value="Constant_581" />
			</rt_info>
			<output>
				<port id="0" precision="I64" />
			</output>
		</layer>
		<layer id="292" name="Split_582" type="Split" version="opset1">
			<data num_splits="6" />
			<rt_info>
				<attribute name="fused_names" version="0" value="Split_582" />
			</rt_info>
			<input>
				<port id="0" precision="FP32">
					<dim>1</dim>
					<dim>1536</dim>
				</port>
				<port id="1" precision="I64" />
			</input>
			<output>
				<port id="2" precision="FP32">
					<dim>1</dim>
					<dim>256</dim>
				</port>
				<port id="3" precision="FP32">
					<dim>1</dim>
					<dim>256</dim>
				</port>
				<port id="4" precision="FP32">
					<dim>1</dim>
					<dim>256</dim>
				</port>
				<port id="5" precision="FP32">
					<dim>1</dim>
					<dim>256</dim>
				</port>
				<port id="6" precision="FP32">
					<dim>1</dim>
					<dim>256</dim>
				</port>
				<port id="7" precision="FP32">
					<dim>1</dim>
					<dim>256</dim>
				</port>
			</output>
		</layer>
		<layer id="293" name="Add_583" type="Add" version="opset1">
			<data auto_broadcast="numpy" />
			<rt_info>
				<attribute name="fused_names" version="0" value="Add_583" />
			</rt_info>
			<input>
				<port id="0" precision="FP32">
					<dim>1</dim>
					<dim>256</dim>
				</port>
				<port id="1" precision="FP32">
					<dim>1</dim>
					<dim>256</dim>
				</port>
			</input>
			<output>
				<port id="2" precision="FP32">
					<dim>1</dim>
					<dim>256</dim>
				</port>
			</output>
		</layer>
		<layer id="294" name="Add_584" type="Add" version="opset1">
			<data auto_broadcast="numpy" />
			<rt_info>
				<attribute name="fused_names" version="0" value="Add_584" />
			</rt_info>
			<input>
				<port id="0" precision="FP32">
					<dim>1</dim>
					<dim>256</dim>
				</port>
				<port id="1" precision="FP32">
					<dim>1</dim>
					<dim>256</dim>
				</port>
			</input>
			<output>
				<port id="2" precision="FP32">
					<dim>1</dim>
					<dim>256</dim>
				</port>
			</output>
		</layer>
		<layer id="295" name="Concat_585" type="Concat" version="opset1">
			<data axis="1" />
			<rt_info>
				<attribute name="fused_names" version="0" value="Concat_585" />
			</rt_info>
			<input>
				<port id="0" precision="FP32">
					<dim>1</dim>
					<dim>256</dim>
				</port>
				<port id="1" precision="FP32">
					<dim>1</dim>
					<dim>256</dim>
				</port>
				<port id="2" precision="FP32">
					<dim>1</dim>
					<dim>256</dim>
				</port>
				<port id="3" precision="FP32">
					<dim>1</dim>
					<dim>256</dim>
				</port>
			</input>
			<output>
				<port id="4" precision="FP32">
					<dim>1</dim>
					<dim>1024</dim>
				</port>
			</output>
		</layer>
		<layer id="296" name="GRUSequence_586" type="GRUSequence" version="opset5">
			<data direction="forward" linear_before_reset="true" hidden_size="256" activations="sigmoid, tanh" activations_alpha="" activations_beta="" clip="0" />
			<rt_info>
				<attribute name="fused_names" version="0" value="GRUSequence_586" />
			</rt_info>
			<input>
				<port id="0" precision="FP32">
					<dim>1</dim>
					<dim>3002</dim>
					<dim>256</dim>
				</port>
				<port id="1" precision="FP32">
					<dim>1</dim>
					<dim>1</dim>
					<dim>256</dim>
				</port>
				<port id="2" precision="I64">
					<dim>1</dim>
				</port>
				<port id="3" precision="FP32">
					<dim>1</dim>
					<dim>768</dim>
					<dim>256</dim>
				</port>
				<port id="4" precision="FP32">
					<dim>1</dim>
					<dim>768</dim>
					<dim>256</dim>
				</port>
				<port id="5" precision="FP32">
					<dim>1</dim>
					<dim>1024</dim>
				</port>
			</input>
			<output>
				<port id="6" precision="FP32">
					<dim>1</dim>
					<dim>1</dim>
					<dim>3002</dim>
					<dim>256</dim>
				</port>
				<port id="7" precision="FP32">
					<dim>1</dim>
					<dim>1</dim>
					<dim>256</dim>
				</port>
			</output>
		</layer>
		<layer id="297" name="Constant_587" type="Const" version="opset1">
			<data element_type="i64" shape="4" offset="1899820" size="32" />
			<rt_info>
				<attribute name="fused_names" version="0" value="Constant_587" />
			</rt_info>
			<output>
				<port id="0" precision="I64">
					<dim>4</dim>
				</port>
			</output>
		</layer>
		<layer id="298" name="/emb_gru/GRU_/emb_gru/GRU_output_0" type="Transpose" version="opset1">
			<rt_info>
				<attribute name="fused_names" version="0" value="/emb_gru/GRU_/emb_gru/GRU_output_0" />
			</rt_info>
			<input>
				<port id="0" precision="FP32">
					<dim>1</dim>
					<dim>1</dim>
					<dim>3002</dim>
					<dim>256</dim>
				</port>
				<port id="1" precision="I64">
					<dim>4</dim>
				</port>
			</input>
			<output>
				<port id="2" precision="FP32" names="/emb_gru/GRU_output_0">
					<dim>3002</dim>
					<dim>1</dim>
					<dim>1</dim>
					<dim>256</dim>
				</port>
			</output>
		</layer>
		<layer id="299" name="Constant_591" type="Const" version="opset1">
			<data element_type="i64" shape="1" offset="2664" size="8" />
			<rt_info>
				<attribute name="fused_names" version="0" value="Constant_591" />
			</rt_info>
			<output>
				<port id="0" precision="I64">
					<dim>1</dim>
				</port>
			</output>
		</layer>
		<layer id="300" name="/emb_gru/Squeeze" type="Squeeze" version="opset1">
			<rt_info>
				<attribute name="fused_names" version="0" value="/emb_gru/Squeeze" />
			</rt_info>
			<input>
				<port id="0" precision="FP32">
					<dim>3002</dim>
					<dim>1</dim>
					<dim>1</dim>
					<dim>256</dim>
				</port>
				<port id="1" precision="I64">
					<dim>1</dim>
				</port>
			</input>
			<output>
				<port id="2" precision="FP32" names="/emb_gru/Squeeze_output_0">
					<dim>3002</dim>
					<dim>1</dim>
					<dim>256</dim>
				</port>
			</output>
		</layer>
		<layer id="301" name="Constant_593" type="Const" version="opset1">
			<data element_type="i64" shape="3" offset="320776" size="24" />
			<rt_info>
				<attribute name="fused_names" version="0" value="Constant_593" />
			</rt_info>
			<output>
				<port id="0" precision="I64">
					<dim>3</dim>
				</port>
			</output>
		</layer>
		<layer id="302" name="/emb_gru/Transpose_1" type="Transpose" version="opset1">
			<rt_info>
				<attribute name="fused_names" version="0" value="/emb_gru/Transpose_1" />
			</rt_info>
			<input>
				<port id="0" precision="FP32">
					<dim>3002</dim>
					<dim>1</dim>
					<dim>256</dim>
				</port>
				<port id="1" precision="I64">
					<dim>3</dim>
				</port>
			</input>
			<output>
				<port id="2" precision="FP32" names="/emb_gru/Transpose_1_output_0">
					<dim>1</dim>
					<dim>3002</dim>
					<dim>256</dim>
				</port>
			</output>
		</layer>
		<layer id="303" name="/emb_gru/linear_out/0/Shape" type="ShapeOf" version="opset3">
			<data output_type="i64" />
			<rt_info>
				<attribute name="fused_names" version="0" value="/emb_gru/linear_out/0/Shape" />
			</rt_info>
			<input>
				<port id="0" precision="FP32">
					<dim>1</dim>
					<dim>3002</dim>
					<dim>256</dim>
				</port>
			</input>
			<output>
				<port id="1" precision="I64" names="/emb_gru/linear_out/0/Shape_output_0">
					<dim>3</dim>
				</port>
			</output>
		</layer>
		<layer id="304" name="Constant_128" type="Const" version="opset1">
			<data element_type="i64" shape="" offset="36" size="8" />
			<rt_info>
				<attribute name="fused_names" version="0" value="Constant_128" />
			</rt_info>
			<output>
				<port id="0" precision="I64" names="onnx::Gather_253" />
			</output>
		</layer>
		<layer id="305" name="Constant_597" type="Const" version="opset1">
			<data element_type="i64" shape="" offset="36" size="8" />
			<rt_info>
				<attribute name="fused_names" version="0" value="Constant_597" />
			</rt_info>
			<output>
				<port id="0" precision="I64" />
			</output>
		</layer>
		<layer id="306" name="/emb_gru/linear_out/0/Gather" type="Gather" version="opset8">
			<data batch_dims="0" />
			<rt_info>
				<attribute name="fused_names" version="0" value="/emb_gru/linear_out/0/Gather, Constant_128, Constant_597" />
			</rt_info>
			<input>
				<port id="0" precision="I64">
					<dim>3</dim>
				</port>
				<port id="1" precision="I64" />
				<port id="2" precision="I64" />
			</input>
			<output>
				<port id="3" precision="I64" names="/emb_gru/linear_out/0/Gather_output_0" />
			</output>
		</layer>
		<layer id="307" name="Constant_602" type="Const" version="opset1">
			<data element_type="i64" shape="1" offset="36" size="8" />
			<rt_info>
				<attribute name="fused_names" version="0" value="Constant_602" />
			</rt_info>
			<output>
				<port id="0" precision="I64">
					<dim>1</dim>
				</port>
			</output>
		</layer>
		<layer id="308" name="/emb_gru/linear_out/0/Unsqueeze" type="Unsqueeze" version="opset1">
			<rt_info>
				<attribute name="fused_names" version="0" value="/emb_gru/linear_out/0/Unsqueeze, Constant_602" />
			</rt_info>
			<input>
				<port id="0" precision="I64" />
				<port id="1" precision="I64">
					<dim>1</dim>
				</port>
			</input>
			<output>
				<port id="2" precision="I64" names="/emb_gru/linear_out/0/Unsqueeze_output_0">
					<dim>1</dim>
				</port>
			</output>
		</layer>
		<layer id="309" name="Constant_130" type="Const" version="opset1">
			<data element_type="i64" shape="" offset="2664" size="8" />
			<rt_info>
				<attribute name="fused_names" version="0" value="Constant_130" />
			</rt_info>
			<output>
				<port id="0" precision="I64" names="onnx::Gather_255" />
			</output>
		</layer>
		<layer id="310" name="Constant_600" type="Const" version="opset1">
			<data element_type="i64" shape="" offset="36" size="8" />
			<rt_info>
				<attribute name="fused_names" version="0" value="Constant_600" />
			</rt_info>
			<output>
				<port id="0" precision="I64" />
			</output>
		</layer>
		<layer id="311" name="/emb_gru/linear_out/0/Gather_1" type="Gather" version="opset8">
			<data batch_dims="0" />
			<rt_info>
				<attribute name="fused_names" version="0" value="/emb_gru/linear_out/0/Gather_1, Constant_130, Constant_600" />
			</rt_info>
			<input>
				<port id="0" precision="I64">
					<dim>3</dim>
				</port>
				<port id="1" precision="I64" />
				<port id="2" precision="I64" />
			</input>
			<output>
				<port id="3" precision="I64" names="/emb_gru/linear_out/0/Gather_1_output_0" />
			</output>
		</layer>
		<layer id="312" name="Constant_604" type="Const" version="opset1">
			<data element_type="i64" shape="1" offset="36" size="8" />
			<rt_info>
				<attribute name="fused_names" version="0" value="Constant_604" />
			</rt_info>
			<output>
				<port id="0" precision="I64">
					<dim>1</dim>
				</port>
			</output>
		</layer>
		<layer id="313" name="/emb_gru/linear_out/0/Unsqueeze_1" type="Unsqueeze" version="opset1">
			<rt_info>
				<attribute name="fused_names" version="0" value="/emb_gru/linear_out/0/Unsqueeze_1, Constant_604" />
			</rt_info>
			<input>
				<port id="0" precision="I64" />
				<port id="1" precision="I64">
					<dim>1</dim>
				</port>
			</input>
			<output>
				<port id="2" precision="I64" names="/emb_gru/linear_out/0/Unsqueeze_1_output_0">
					<dim>1</dim>
				</port>
			</output>
		</layer>
		<layer id="314" name="/emb_gru/linear_out/0/Constant" type="Const" version="opset1">
			<data element_type="i64" shape="1" offset="288000" size="8" />
			<rt_info>
				<attribute name="fused_names" version="0" value="/emb_gru/linear_out/0/Constant" />
			</rt_info>
			<output>
				<port id="0" precision="I64" names="/emb_gru/linear_out/0/Constant_output_0">
					<dim>1</dim>
				</port>
			</output>
		</layer>
		<layer id="315" name="/emb_gru/linear_out/0/Constant_1" type="Const" version="opset1">
			<data element_type="i64" shape="1" offset="288000" size="8" />
			<rt_info>
				<attribute name="fused_names" version="0" value="/emb_gru/linear_out/0/Constant_1" />
			</rt_info>
			<output>
				<port id="0" precision="I64" names="/emb_gru/linear_out/0/Constant_1_output_0">
					<dim>1</dim>
				</port>
			</output>
		</layer>
		<layer id="316" name="/emb_gru/linear_out/0/Concat" type="Concat" version="opset1">
			<data axis="0" />
			<rt_info>
				<attribute name="fused_names" version="0" value="/emb_gru/linear_out/0/Concat, /emb_gru/linear_out/0/Constant, /emb_gru/linear_out/0/Constant_1" />
			</rt_info>
			<input>
				<port id="0" precision="I64">
					<dim>1</dim>
				</port>
				<port id="1" precision="I64">
					<dim>1</dim>
				</port>
				<port id="2" precision="I64">
					<dim>1</dim>
				</port>
				<port id="3" precision="I64">
					<dim>1</dim>
				</port>
			</input>
			<output>
				<port id="4" precision="I64" names="/emb_gru/linear_out/0/Concat_output_0">
					<dim>4</dim>
				</port>
			</output>
		</layer>
		<layer id="317" name="/emb_gru/linear_out/0/Reshape" type="Reshape" version="opset1">
			<data special_zero="true" />
			<rt_info>
				<attribute name="fused_names" version="0" value="/emb_gru/linear_out/0/Reshape" />
			</rt_info>
			<input>
				<port id="0" precision="FP32">
					<dim>1</dim>
					<dim>3002</dim>
					<dim>256</dim>
				</port>
				<port id="1" precision="I64">
					<dim>4</dim>
				</port>
			</input>
			<output>
				<port id="2" precision="FP32" names="/emb_gru/linear_out/0/Reshape_output_0">
					<dim>1</dim>
					<dim>3002</dim>
					<dim>16</dim>
					<dim>16</dim>
				</port>
			</output>
		</layer>
		<layer id="318" name="emb_gru.linear_out.0.weight" type="Const" version="opset1">
			<data element_type="f32" shape="16, 16, 32" offset="1899852" size="32768" />
			<rt_info>
				<attribute name="fused_names" version="0" value="emb_gru.linear_out.0.weight" />
			</rt_info>
			<output>
				<port id="0" precision="FP32" names="emb_gru.linear_out.0.weight">
					<dim>16</dim>
					<dim>16</dim>
					<dim>32</dim>
				</port>
			</output>
		</layer>
		<layer id="319" name="/emb_gru/linear_out/0/Einsum" type="Einsum" version="opset7">
			<data equation="btgi,gih->btgh" />
			<rt_info>
				<attribute name="fused_names" version="0" value="/emb_gru/linear_out/0/Einsum" />
			</rt_info>
			<input>
				<port id="0" precision="FP32">
					<dim>1</dim>
					<dim>3002</dim>
					<dim>16</dim>
					<dim>16</dim>
				</port>
				<port id="1" precision="FP32">
					<dim>16</dim>
					<dim>16</dim>
					<dim>32</dim>
				</port>
			</input>
			<output>
				<port id="2" precision="FP32" names="/emb_gru/linear_out/0/Einsum_output_0">
					<dim>1</dim>
					<dim>3002</dim>
					<dim>16</dim>
					<dim>32</dim>
				</port>
			</output>
		</layer>
		<layer id="320" name="/emb_gru/linear_out/0/Shape_1" type="ShapeOf" version="opset3">
			<data output_type="i64" />
			<rt_info>
				<attribute name="fused_names" version="0" value="/emb_gru/linear_out/0/Shape_1" />
			</rt_info>
			<input>
				<port id="0" precision="FP32">
					<dim>1</dim>
					<dim>3002</dim>
					<dim>16</dim>
					<dim>32</dim>
				</port>
			</input>
			<output>
				<port id="1" precision="I64" names="/emb_gru/linear_out/0/Shape_1_output_0">
					<dim>4</dim>
				</port>
			</output>
		</layer>
		<layer id="321" name="/emb_gru/linear_out/0/Constant_3" type="Const" version="opset1">
			<data element_type="i64" shape="1" offset="36" size="8" />
			<rt_info>
				<attribute name="fused_names" version="0" value="/emb_gru/linear_out/0/Constant_3" />
			</rt_info>
			<output>
				<port id="0" precision="I64" names="/emb_gru/linear_out/0/Constant_3_output_0">
					<dim>1</dim>
				</port>
			</output>
		</layer>
		<layer id="322" name="/emb_gru/linear_out/0/Constant_4" type="Const" version="opset1">
			<data element_type="i64" shape="1" offset="2680" size="8" />
			<rt_info>
				<attribute name="fused_names" version="0" value="/emb_gru/linear_out/0/Constant_4" />
			</rt_info>
			<output>
				<port id="0" precision="I64" names="/emb_gru/linear_out/0/Constant_4_output_0">
					<dim>1</dim>
				</port>
			</output>
		</layer>
		<layer id="323" name="Constant_616" type="Const" version="opset1">
			<data element_type="i64" shape="1" offset="2664" size="8" />
			<rt_info>
				<attribute name="fused_names" version="0" value="Constant_616" />
			</rt_info>
			<output>
				<port id="0" precision="I64">
					<dim>1</dim>
				</port>
			</output>
		</layer>
		<layer id="324" name="ShapeOf_617" type="Const" version="opset1">
			<data element_type="i64" shape="1" offset="2664" size="8" />
			<rt_info>
				<attribute name="fused_names" version="0" value="/emb_gru/linear_out/0/Constant_3, ShapeOf_617" />
			</rt_info>
			<output>
				<port id="0" precision="I64">
					<dim>1</dim>
				</port>
			</output>
		</layer>
		<layer id="325" name="Broadcast_618" type="Broadcast" version="opset3">
			<data mode="numpy" />
			<rt_info>
				<attribute name="fused_names" version="0" value="/emb_gru/linear_out/0/Constant_3, Broadcast_618, Constant_616, ShapeOf_617" />
			</rt_info>
			<input>
				<port id="0" precision="I64">
					<dim>1</dim>
				</port>
				<port id="1" precision="I64">
					<dim>1</dim>
				</port>
			</input>
			<output>
				<port id="2" precision="I64">
					<dim>1</dim>
				</port>
			</output>
		</layer>
		<layer id="326" name="/emb_gru/linear_out/0/Constant_2" type="Const" version="opset1">
			<data element_type="i64" shape="1" offset="36" size="8" />
			<rt_info>
				<attribute name="fused_names" version="0" value="/emb_gru/linear_out/0/Constant_2" />
			</rt_info>
			<output>
				<port id="0" precision="I64" names="/emb_gru/linear_out/0/Constant_2_output_0">
					<dim>1</dim>
				</port>
			</output>
		</layer>
		<layer id="327" name="/emb_gru/linear_out/0/Slice" type="Slice" version="opset8">
			<rt_info>
				<attribute name="fused_names" version="0" value="/emb_gru/linear_out/0/Constant_2, /emb_gru/linear_out/0/Constant_3, /emb_gru/linear_out/0/Constant_4, /emb_gru/linear_out/0/Slice" />
			</rt_info>
			<input>
				<port id="0" precision="I64">
					<dim>4</dim>
				</port>
				<port id="1" precision="I64">
					<dim>1</dim>
				</port>
				<port id="2" precision="I64">
					<dim>1</dim>
				</port>
				<port id="3" precision="I64">
					<dim>1</dim>
				</port>
				<port id="4" precision="I64">
					<dim>1</dim>
				</port>
			</input>
			<output>
				<port id="5" precision="I64" names="/emb_gru/linear_out/0/Slice_output_0">
					<dim>2</dim>
				</port>
			</output>
		</layer>
		<layer id="328" name="/emb_gru/linear_out/0/Constant_5" type="Const" version="opset1">
			<data element_type="i64" shape="1" offset="68" size="8" />
			<rt_info>
				<attribute name="fused_names" version="0" value="/emb_gru/linear_out/0/Constant_5" />
			</rt_info>
			<output>
				<port id="0" precision="I64" names="/emb_gru/linear_out/0/Constant_5_output_0">
					<dim>1</dim>
				</port>
			</output>
		</layer>
		<layer id="329" name="/emb_gru/linear_out/0/Concat_1" type="Concat" version="opset1">
			<data axis="0" />
			<rt_info>
				<attribute name="fused_names" version="0" value="/emb_gru/linear_out/0/Concat_1, /emb_gru/linear_out/0/Constant_5" />
			</rt_info>
			<input>
				<port id="0" precision="I64">
					<dim>2</dim>
				</port>
				<port id="1" precision="I64">
					<dim>1</dim>
				</port>
			</input>
			<output>
				<port id="2" precision="I64" names="/emb_gru/linear_out/0/Concat_1_output_0">
					<dim>3</dim>
				</port>
			</output>
		</layer>
		<layer id="330" name="/emb_gru/linear_out/0/Reshape_1" type="Reshape" version="opset1">
			<data special_zero="true" />
			<rt_info>
				<attribute name="fused_names" version="0" value="/emb_gru/linear_out/0/Reshape_1" />
			</rt_info>
			<input>
				<port id="0" precision="FP32">
					<dim>1</dim>
					<dim>3002</dim>
					<dim>16</dim>
					<dim>32</dim>
				</port>
				<port id="1" precision="I64">
					<dim>3</dim>
				</port>
			</input>
			<output>
				<port id="2" precision="FP32" names="/emb_gru/linear_out/0/Reshape_1_output_0">
					<dim>1</dim>
					<dim>3002</dim>
					<dim>512</dim>
				</port>
			</output>
		</layer>
		<layer id="331" name="emb" type="ReLU" version="opset1">
			<rt_info>
				<attribute name="fused_names" version="0" value="emb" />
			</rt_info>
			<input>
				<port id="0" precision="FP32">
					<dim>1</dim>
					<dim>3002</dim>
					<dim>512</dim>
				</port>
			</input>
			<output>
				<port id="1" precision="FP32" names="emb">
					<dim>1</dim>
					<dim>3002</dim>
					<dim>512</dim>
				</port>
			</output>
		</layer>
		<layer id="332" name="onnx::MatMul_337" type="Const" version="opset1">
			<data element_type="f32" shape="512, 1" offset="1932620" size="2048" />
			<rt_info>
				<attribute name="fused_names" version="0" value="onnx::MatMul_337" />
			</rt_info>
			<output>
				<port id="0" precision="FP32" names="onnx::MatMul_337">
					<dim>512</dim>
					<dim>1</dim>
				</port>
			</output>
		</layer>
		<layer id="333" name="/lsnr_fc/0/MatMul" type="MatMul" version="opset1">
			<data transpose_a="false" transpose_b="false" />
			<rt_info>
				<attribute name="fused_names" version="0" value="/lsnr_fc/0/MatMul" />
			</rt_info>
			<input>
				<port id="0" precision="FP32">
					<dim>1</dim>
					<dim>3002</dim>
					<dim>512</dim>
				</port>
				<port id="1" precision="FP32">
					<dim>512</dim>
					<dim>1</dim>
				</port>
			</input>
			<output>
				<port id="2" precision="FP32" names="/lsnr_fc/0/MatMul_output_0">
					<dim>1</dim>
					<dim>3002</dim>
					<dim>1</dim>
				</port>
			</output>
		</layer>
		<layer id="334" name="/lsnr_fc/0/Add" type="Add" version="opset1">
			<data auto_broadcast="numpy" />
			<rt_info>
				<attribute name="fused_names" version="0" value="/lsnr_fc/0/Add" />
			</rt_info>
			<input>
				<port id="0" precision="FP32">
					<dim>1</dim>
				</port>
				<port id="1" precision="FP32">
					<dim>1</dim>
					<dim>3002</dim>
					<dim>1</dim>
				</port>
			</input>
			<output>
				<port id="2" precision="FP32" names="/lsnr_fc/0/Add_output_0">
					<dim>1</dim>
					<dim>3002</dim>
					<dim>1</dim>
				</port>
			</output>
		</layer>
		<layer id="335" name="/lsnr_fc/1/Sigmoid" type="Sigmoid" version="opset1">
			<rt_info>
				<attribute name="fused_names" version="0" value="/lsnr_fc/1/Sigmoid" />
			</rt_info>
			<input>
				<port id="0" precision="FP32">
					<dim>1</dim>
					<dim>3002</dim>
					<dim>1</dim>
				</port>
			</input>
			<output>
				<port id="1" precision="FP32" names="/lsnr_fc/1/Sigmoid_output_0">
					<dim>1</dim>
					<dim>3002</dim>
					<dim>1</dim>
				</port>
			</output>
		</layer>
		<layer id="336" name="/Constant_8" type="Const" version="opset1">
			<data element_type="f32" shape="" offset="1934668" size="4" />
			<rt_info>
				<attribute name="fused_names" version="0" value="/Constant_8" />
			</rt_info>
			<output>
				<port id="0" precision="FP32" names="/Constant_8_output_0" />
			</output>
		</layer>
		<layer id="337" name="/Mul" type="Multiply" version="opset1">
			<data auto_broadcast="numpy" />
			<rt_info>
				<attribute name="fused_names" version="0" value="/Mul" />
			</rt_info>
			<input>
				<port id="0" precision="FP32">
					<dim>1</dim>
					<dim>3002</dim>
					<dim>1</dim>
				</port>
				<port id="1" precision="FP32" />
			</input>
			<output>
				<port id="2" precision="FP32" names="/Mul_output_0">
					<dim>1</dim>
					<dim>3002</dim>
					<dim>1</dim>
				</port>
			</output>
		</layer>
		<layer id="338" name="/Constant_9" type="Const" version="opset1">
			<data element_type="f32" shape="" offset="1934672" size="4" />
			<rt_info>
				<attribute name="fused_names" version="0" value="/Constant_9" />
			</rt_info>
			<output>
				<port id="0" precision="FP32" names="/Constant_9_output_0" />
			</output>
		</layer>
		<layer id="339" name="lsnr" type="Add" version="opset1">
			<data auto_broadcast="numpy" />
			<rt_info>
				<attribute name="fused_names" version="0" value="lsnr" />
			</rt_info>
			<input>
				<port id="0" precision="FP32">
					<dim>1</dim>
					<dim>3002</dim>
					<dim>1</dim>
				</port>
				<port id="1" precision="FP32" />
			</input>
			<output>
				<port id="2" precision="FP32" names="lsnr">
					<dim>1</dim>
					<dim>3002</dim>
					<dim>1</dim>
				</port>
			</output>
		</layer>
		<layer id="346" name="e0/sink_port_0" type="Result" version="opset1">
			<rt_info>
				<attribute name="fused_names" version="0" value="e0/sink_port_0" />
			</rt_info>
			<input>
				<port id="0" precision="FP32">
					<dim>1</dim>
					<dim>64</dim>
					<dim>3002</dim>
					<dim>32</dim>
				</port>
			</input>
		</layer>
		<layer id="345" name="e1/sink_port_0" type="Result" version="opset1">
			<rt_info>
				<attribute name="fused_names" version="0" value="e1/sink_port_0" />
			</rt_info>
			<input>
				<port id="0" precision="FP32">
					<dim>1</dim>
					<dim>64</dim>
					<dim>3002</dim>
					<dim>16</dim>
				</port>
			</input>
		</layer>
		<layer id="344" name="e2/sink_port_0" type="Result" version="opset1">
			<rt_info>
				<attribute name="fused_names" version="0" value="e2/sink_port_0" />
			</rt_info>
			<input>
				<port id="0" precision="FP32">
					<dim>1</dim>
					<dim>64</dim>
					<dim>3002</dim>
					<dim>8</dim>
				</port>
			</input>
		</layer>
		<layer id="343" name="e3/sink_port_0" type="Result" version="opset1">
			<rt_info>
				<attribute name="fused_names" version="0" value="e3/sink_port_0" />
			</rt_info>
			<input>
				<port id="0" precision="FP32">
					<dim>1</dim>
					<dim>64</dim>
					<dim>3002</dim>
					<dim>8</dim>
				</port>
			</input>
		</layer>
		<layer id="342" name="emb/sink_port_0" type="Result" version="opset1">
			<rt_info>
				<attribute name="fused_names" version="0" value="emb/sink_port_0" />
			</rt_info>
			<input>
				<port id="0" precision="FP32">
					<dim>1</dim>
					<dim>3002</dim>
					<dim>512</dim>
				</port>
			</input>
		</layer>
		<layer id="341" name="c0/sink_port_0" type="Result" version="opset1">
			<rt_info>
				<attribute name="fused_names" version="0" value="c0/sink_port_0" />
			</rt_info>
			<input>
				<port id="0" precision="FP32">
					<dim>1</dim>
					<dim>64</dim>
					<dim>3002</dim>
					<dim>96</dim>
				</port>
			</input>
		</layer>
		<layer id="340" name="lsnr/sink_port_0" type="Result" version="opset1">
			<rt_info>
				<attribute name="fused_names" version="0" value="lsnr/sink_port_0" />
			</rt_info>
			<input>
				<port id="0" precision="FP32">
					<dim>1</dim>
					<dim>3002</dim>
					<dim>1</dim>
				</port>
			</input>
		</layer>
	</layers>
	<edges>
		<edge from-layer="0" from-port="0" to-layer="143" to-port="0" />
		<edge from-layer="1" from-port="0" to-layer="23" to-port="0" />
		<edge from-layer="2" from-port="0" to-layer="334" to-port="0" />
		<edge from-layer="3" from-port="0" to-layer="7" to-port="0" />
		<edge from-layer="4" from-port="0" to-layer="6" to-port="0" />
		<edge from-layer="5" from-port="0" to-layer="6" to-port="1" />
		<edge from-layer="6" from-port="2" to-layer="7" to-port="1" />
		<edge from-layer="7" from-port="2" to-layer="9" to-port="0" />
		<edge from-layer="8" from-port="0" to-layer="9" to-port="1" />
		<edge from-layer="9" from-port="2" to-layer="14" to-port="0" />
		<edge from-layer="10" from-port="0" to-layer="14" to-port="1" />
		<edge from-layer="11" from-port="0" to-layer="14" to-port="2" />
		<edge from-layer="12" from-port="0" to-layer="14" to-port="3" />
		<edge from-layer="13" from-port="0" to-layer="14" to-port="4" />
		<edge from-layer="14" from-port="5" to-layer="16" to-port="0" />
		<edge from-layer="15" from-port="0" to-layer="16" to-port="1" />
		<edge from-layer="16" from-port="2" to-layer="18" to-port="0" />
		<edge from-layer="17" from-port="0" to-layer="18" to-port="1" />
		<edge from-layer="18" from-port="2" to-layer="19" to-port="0" />
		<edge from-layer="19" from-port="1" to-layer="21" to-port="0" />
		<edge from-layer="20" from-port="0" to-layer="21" to-port="1" />
		<edge from-layer="21" from-port="2" to-layer="23" to-port="1" />
		<edge from-layer="21" from-port="3" to-layer="23" to-port="2" />
		<edge from-layer="22" from-port="0" to-layer="23" to-port="3" />
		<edge from-layer="23" from-port="4" to-layer="25" to-port="0" />
		<edge from-layer="24" from-port="0" to-layer="25" to-port="1" />
		<edge from-layer="25" from-port="2" to-layer="29" to-port="0" />
		<edge from-layer="25" from-port="2" to-layer="36" to-port="0" />
		<edge from-layer="26" from-port="0" to-layer="35" to-port="0" />
		<edge from-layer="27" from-port="0" to-layer="33" to-port="0" />
		<edge from-layer="27" from-port="0" to-layer="34" to-port="0" />
		<edge from-layer="28" from-port="0" to-layer="34" to-port="1" />
		<edge from-layer="29" from-port="1" to-layer="30" to-port="0" />
		<edge from-layer="30" from-port="1" to-layer="32" to-port="0" />
		<edge from-layer="31" from-port="0" to-layer="32" to-port="1" />
		<edge from-layer="32" from-port="2" to-layer="33" to-port="1" />
		<edge from-layer="33" from-port="2" to-layer="34" to-port="2" />
		<edge from-layer="34" from-port="3" to-layer="35" to-port="1" />
		<edge from-layer="35" from-port="2" to-layer="36" to-port="1" />
		<edge from-layer="36" from-port="2" to-layer="37" to-port="0" />
		<edge from-layer="37" from-port="1" to-layer="47" to-port="0" />
		<edge from-layer="37" from-port="1" to-layer="346" to-port="0" />
		<edge from-layer="38" from-port="0" to-layer="46" to-port="0" />
		<edge from-layer="39" from-port="0" to-layer="44" to-port="1" />
		<edge from-layer="39" from-port="0" to-layer="45" to-port="0" />
		<edge from-layer="40" from-port="0" to-layer="43" to-port="0" />
		<edge from-layer="41" from-port="0" to-layer="43" to-port="1" />
		<edge from-layer="42" from-port="0" to-layer="43" to-port="2" />
		<edge from-layer="43" from-port="3" to-layer="44" to-port="0" />
		<edge from-layer="43" from-port="4" to-layer="45" to-port="2" />
		<edge from-layer="44" from-port="2" to-layer="45" to-port="1" />
		<edge from-layer="45" from-port="3" to-layer="46" to-port="1" />
		<edge from-layer="46" from-port="2" to-layer="47" to-port="1" />
		<edge from-layer="47" from-port="2" to-layer="49" to-port="0" />
		<edge from-layer="48" from-port="0" to-layer="49" to-port="1" />
		<edge from-layer="49" from-port="2" to-layer="53" to-port="0" />
		<edge from-layer="49" from-port="2" to-layer="60" to-port="0" />
		<edge from-layer="50" from-port="0" to-layer="59" to-port="0" />
		<edge from-layer="51" from-port="0" to-layer="58" to-port="0" />
		<edge from-layer="51" from-port="0" to-layer="57" to-port="0" />
		<edge from-layer="52" from-port="0" to-layer="58" to-port="1" />
		<edge from-layer="53" from-port="1" to-layer="54" to-port="0" />
		<edge from-layer="54" from-port="1" to-layer="56" to-port="0" />
		<edge from-layer="55" from-port="0" to-layer="56" to-port="1" />
		<edge from-layer="56" from-port="2" to-layer="57" to-port="1" />
		<edge from-layer="57" from-port="2" to-layer="58" to-port="2" />
		<edge from-layer="58" from-port="3" to-layer="59" to-port="1" />
		<edge from-layer="59" from-port="2" to-layer="60" to-port="1" />
		<edge from-layer="60" from-port="2" to-layer="61" to-port="0" />
		<edge from-layer="61" from-port="1" to-layer="71" to-port="0" />
		<edge from-layer="61" from-port="1" to-layer="345" to-port="0" />
		<edge from-layer="62" from-port="0" to-layer="70" to-port="0" />
		<edge from-layer="63" from-port="0" to-layer="68" to-port="1" />
		<edge from-layer="63" from-port="0" to-layer="69" to-port="0" />
		<edge from-layer="64" from-port="0" to-layer="67" to-port="0" />
		<edge from-layer="65" from-port="0" to-layer="67" to-port="1" />
		<edge from-layer="66" from-port="0" to-layer="67" to-port="2" />
		<edge from-layer="67" from-port="3" to-layer="68" to-port="0" />
		<edge from-layer="67" from-port="4" to-layer="69" to-port="2" />
		<edge from-layer="68" from-port="2" to-layer="69" to-port="1" />
		<edge from-layer="69" from-port="3" to-layer="70" to-port="1" />
		<edge from-layer="70" from-port="2" to-layer="71" to-port="1" />
		<edge from-layer="71" from-port="2" to-layer="73" to-port="0" />
		<edge from-layer="72" from-port="0" to-layer="73" to-port="1" />
		<edge from-layer="73" from-port="2" to-layer="77" to-port="0" />
		<edge from-layer="73" from-port="2" to-layer="84" to-port="0" />
		<edge from-layer="74" from-port="0" to-layer="83" to-port="0" />
		<edge from-layer="75" from-port="0" to-layer="81" to-port="0" />
		<edge from-layer="75" from-port="0" to-layer="82" to-port="0" />
		<edge from-layer="76" from-port="0" to-layer="82" to-port="1" />
		<edge from-layer="77" from-port="1" to-layer="78" to-port="0" />
		<edge from-layer="78" from-port="1" to-layer="80" to-port="0" />
		<edge from-layer="79" from-port="0" to-layer="80" to-port="1" />
		<edge from-layer="80" from-port="2" to-layer="81" to-port="1" />
		<edge from-layer="81" from-port="2" to-layer="82" to-port="2" />
		<edge from-layer="82" from-port="3" to-layer="83" to-port="1" />
		<edge from-layer="83" from-port="2" to-layer="84" to-port="1" />
		<edge from-layer="84" from-port="2" to-layer="85" to-port="0" />
		<edge from-layer="85" from-port="1" to-layer="95" to-port="0" />
		<edge from-layer="85" from-port="1" to-layer="344" to-port="0" />
		<edge from-layer="86" from-port="0" to-layer="94" to-port="0" />
		<edge from-layer="87" from-port="0" to-layer="92" to-port="1" />
		<edge from-layer="87" from-port="0" to-layer="93" to-port="0" />
		<edge from-layer="88" from-port="0" to-layer="91" to-port="0" />
		<edge from-layer="89" from-port="0" to-layer="91" to-port="1" />
		<edge from-layer="90" from-port="0" to-layer="91" to-port="2" />
		<edge from-layer="91" from-port="3" to-layer="92" to-port="0" />
		<edge from-layer="91" from-port="4" to-layer="93" to-port="2" />
		<edge from-layer="92" from-port="2" to-layer="93" to-port="1" />
		<edge from-layer="93" from-port="3" to-layer="94" to-port="1" />
		<edge from-layer="94" from-port="2" to-layer="95" to-port="1" />
		<edge from-layer="95" from-port="2" to-layer="97" to-port="0" />
		<edge from-layer="96" from-port="0" to-layer="97" to-port="1" />
		<edge from-layer="97" from-port="2" to-layer="101" to-port="0" />
		<edge from-layer="97" from-port="2" to-layer="108" to-port="0" />
		<edge from-layer="98" from-port="0" to-layer="107" to-port="0" />
		<edge from-layer="99" from-port="0" to-layer="106" to-port="0" />
		<edge from-layer="99" from-port="0" to-layer="105" to-port="0" />
		<edge from-layer="100" from-port="0" to-layer="106" to-port="1" />
		<edge from-layer="101" from-port="1" to-layer="102" to-port="0" />
		<edge from-layer="102" from-port="1" to-layer="104" to-port="0" />
		<edge from-layer="103" from-port="0" to-layer="104" to-port="1" />
		<edge from-layer="104" from-port="2" to-layer="105" to-port="1" />
		<edge from-layer="105" from-port="2" to-layer="106" to-port="2" />
		<edge from-layer="106" from-port="3" to-layer="107" to-port="1" />
		<edge from-layer="107" from-port="2" to-layer="108" to-port="1" />
		<edge from-layer="108" from-port="2" to-layer="109" to-port="0" />
		<edge from-layer="109" from-port="1" to-layer="111" to-port="0" />
		<edge from-layer="109" from-port="1" to-layer="343" to-port="0" />
		<edge from-layer="110" from-port="0" to-layer="111" to-port="1" />
		<edge from-layer="111" from-port="2" to-layer="112" to-port="0" />
		<edge from-layer="111" from-port="2" to-layer="122" to-port="0" />
		<edge from-layer="112" from-port="1" to-layer="119" to-port="0" />
		<edge from-layer="113" from-port="0" to-layer="119" to-port="1" />
		<edge from-layer="114" from-port="0" to-layer="119" to-port="2" />
		<edge from-layer="115" from-port="0" to-layer="117" to-port="0" />
		<edge from-layer="116" from-port="0" to-layer="117" to-port="1" />
		<edge from-layer="117" from-port="2" to-layer="119" to-port="3" />
		<edge from-layer="118" from-port="0" to-layer="119" to-port="4" />
		<edge from-layer="119" from-port="5" to-layer="121" to-port="0" />
		<edge from-layer="120" from-port="0" to-layer="121" to-port="1" />
		<edge from-layer="121" from-port="2" to-layer="122" to-port="1" />
		<edge from-layer="122" from-port="2" to-layer="234" to-port="0" />
		<edge from-layer="123" from-port="0" to-layer="127" to-port="0" />
		<edge from-layer="124" from-port="0" to-layer="126" to-port="0" />
		<edge from-layer="125" from-port="0" to-layer="126" to-port="1" />
		<edge from-layer="126" from-port="2" to-layer="127" to-port="1" />
		<edge from-layer="127" from-port="2" to-layer="129" to-port="0" />
		<edge from-layer="128" from-port="0" to-layer="129" to-port="1" />
		<edge from-layer="129" from-port="2" to-layer="134" to-port="0" />
		<edge from-layer="130" from-port="0" to-layer="134" to-port="1" />
		<edge from-layer="131" from-port="0" to-layer="134" to-port="2" />
		<edge from-layer="132" from-port="0" to-layer="134" to-port="3" />
		<edge from-layer="133" from-port="0" to-layer="134" to-port="4" />
		<edge from-layer="134" from-port="5" to-layer="136" to-port="0" />
		<edge from-layer="135" from-port="0" to-layer="136" to-port="1" />
		<edge from-layer="136" from-port="2" to-layer="138" to-port="0" />
		<edge from-layer="137" from-port="0" to-layer="138" to-port="1" />
		<edge from-layer="138" from-port="2" to-layer="139" to-port="0" />
		<edge from-layer="139" from-port="1" to-layer="141" to-port="0" />
		<edge from-layer="140" from-port="0" to-layer="141" to-port="1" />
		<edge from-layer="141" from-port="2" to-layer="143" to-port="1" />
		<edge from-layer="141" from-port="3" to-layer="143" to-port="2" />
		<edge from-layer="142" from-port="0" to-layer="143" to-port="3" />
		<edge from-layer="143" from-port="4" to-layer="153" to-port="0" />
		<edge from-layer="144" from-port="0" to-layer="152" to-port="0" />
		<edge from-layer="145" from-port="0" to-layer="151" to-port="0" />
		<edge from-layer="145" from-port="0" to-layer="150" to-port="1" />
		<edge from-layer="146" from-port="0" to-layer="149" to-port="0" />
		<edge from-layer="147" from-port="0" to-layer="149" to-port="1" />
		<edge from-layer="148" from-port="0" to-layer="149" to-port="2" />
		<edge from-layer="149" from-port="4" to-layer="151" to-port="2" />
		<edge from-layer="149" from-port="3" to-layer="150" to-port="0" />
		<edge from-layer="150" from-port="2" to-layer="151" to-port="1" />
		<edge from-layer="151" from-port="3" to-layer="152" to-port="1" />
		<edge from-layer="152" from-port="2" to-layer="153" to-port="1" />
		<edge from-layer="153" from-port="2" to-layer="155" to-port="0" />
		<edge from-layer="154" from-port="0" to-layer="155" to-port="1" />
		<edge from-layer="155" from-port="2" to-layer="159" to-port="0" />
		<edge from-layer="155" from-port="2" to-layer="166" to-port="0" />
		<edge from-layer="156" from-port="0" to-layer="165" to-port="0" />
		<edge from-layer="157" from-port="0" to-layer="163" to-port="0" />
		<edge from-layer="157" from-port="0" to-layer="164" to-port="0" />
		<edge from-layer="158" from-port="0" to-layer="164" to-port="1" />
		<edge from-layer="159" from-port="1" to-layer="160" to-port="0" />
		<edge from-layer="160" from-port="1" to-layer="162" to-port="0" />
		<edge from-layer="161" from-port="0" to-layer="162" to-port="1" />
		<edge from-layer="162" from-port="2" to-layer="163" to-port="1" />
		<edge from-layer="163" from-port="2" to-layer="164" to-port="2" />
		<edge from-layer="164" from-port="3" to-layer="165" to-port="1" />
		<edge from-layer="165" from-port="2" to-layer="166" to-port="1" />
		<edge from-layer="166" from-port="2" to-layer="167" to-port="0" />
		<edge from-layer="167" from-port="1" to-layer="177" to-port="0" />
		<edge from-layer="167" from-port="1" to-layer="341" to-port="0" />
		<edge from-layer="168" from-port="0" to-layer="176" to-port="0" />
		<edge from-layer="169" from-port="0" to-layer="174" to-port="1" />
		<edge from-layer="169" from-port="0" to-layer="175" to-port="0" />
		<edge from-layer="170" from-port="0" to-layer="173" to-port="0" />
		<edge from-layer="171" from-port="0" to-layer="173" to-port="1" />
		<edge from-layer="172" from-port="0" to-layer="173" to-port="2" />
		<edge from-layer="173" from-port="3" to-layer="174" to-port="0" />
		<edge from-layer="173" from-port="4" to-layer="175" to-port="2" />
		<edge from-layer="174" from-port="2" to-layer="175" to-port="1" />
		<edge from-layer="175" from-port="3" to-layer="176" to-port="1" />
		<edge from-layer="176" from-port="2" to-layer="177" to-port="1" />
		<edge from-layer="177" from-port="2" to-layer="179" to-port="0" />
		<edge from-layer="178" from-port="0" to-layer="179" to-port="1" />
		<edge from-layer="179" from-port="2" to-layer="190" to-port="0" />
		<edge from-layer="179" from-port="2" to-layer="183" to-port="0" />
		<edge from-layer="180" from-port="0" to-layer="189" to-port="0" />
		<edge from-layer="181" from-port="0" to-layer="188" to-port="0" />
		<edge from-layer="181" from-port="0" to-layer="187" to-port="0" />
		<edge from-layer="182" from-port="0" to-layer="188" to-port="1" />
		<edge from-layer="183" from-port="1" to-layer="184" to-port="0" />
		<edge from-layer="184" from-port="1" to-layer="186" to-port="0" />
		<edge from-layer="185" from-port="0" to-layer="186" to-port="1" />
		<edge from-layer="186" from-port="2" to-layer="187" to-port="1" />
		<edge from-layer="187" from-port="2" to-layer="188" to-port="2" />
		<edge from-layer="188" from-port="3" to-layer="189" to-port="1" />
		<edge from-layer="189" from-port="2" to-layer="190" to-port="1" />
		<edge from-layer="190" from-port="2" to-layer="191" to-port="0" />
		<edge from-layer="191" from-port="1" to-layer="193" to-port="0" />
		<edge from-layer="192" from-port="0" to-layer="193" to-port="1" />
		<edge from-layer="193" from-port="2" to-layer="194" to-port="0" />
		<edge from-layer="193" from-port="2" to-layer="204" to-port="0" />
		<edge from-layer="194" from-port="1" to-layer="201" to-port="0" />
		<edge from-layer="195" from-port="0" to-layer="201" to-port="1" />
		<edge from-layer="196" from-port="0" to-layer="201" to-port="2" />
		<edge from-layer="197" from-port="0" to-layer="199" to-port="0" />
		<edge from-layer="198" from-port="0" to-layer="199" to-port="1" />
		<edge from-layer="199" from-port="2" to-layer="201" to-port="3" />
		<edge from-layer="200" from-port="0" to-layer="201" to-port="4" />
		<edge from-layer="201" from-port="5" to-layer="203" to-port="0" />
		<edge from-layer="202" from-port="0" to-layer="203" to-port="1" />
		<edge from-layer="203" from-port="2" to-layer="204" to-port="1" />
		<edge from-layer="204" from-port="2" to-layer="205" to-port="0" />
		<edge from-layer="204" from-port="2" to-layer="219" to-port="0" />
		<edge from-layer="205" from-port="1" to-layer="208" to-port="0" />
		<edge from-layer="205" from-port="1" to-layer="213" to-port="0" />
		<edge from-layer="206" from-port="0" to-layer="208" to-port="1" />
		<edge from-layer="207" from-port="0" to-layer="208" to-port="2" />
		<edge from-layer="208" from-port="3" to-layer="210" to-port="0" />
		<edge from-layer="209" from-port="0" to-layer="210" to-port="1" />
		<edge from-layer="210" from-port="2" to-layer="218" to-port="0" />
		<edge from-layer="211" from-port="0" to-layer="213" to-port="1" />
		<edge from-layer="212" from-port="0" to-layer="213" to-port="2" />
		<edge from-layer="213" from-port="3" to-layer="215" to-port="0" />
		<edge from-layer="214" from-port="0" to-layer="215" to-port="1" />
		<edge from-layer="215" from-port="2" to-layer="218" to-port="1" />
		<edge from-layer="216" from-port="0" to-layer="218" to-port="2" />
		<edge from-layer="217" from-port="0" to-layer="218" to-port="3" />
		<edge from-layer="218" from-port="4" to-layer="219" to-port="1" />
		<edge from-layer="219" from-port="2" to-layer="221" to-port="0" />
		<edge from-layer="220" from-port="0" to-layer="221" to-port="1" />
		<edge from-layer="221" from-port="2" to-layer="222" to-port="0" />
		<edge from-layer="221" from-port="2" to-layer="232" to-port="0" />
		<edge from-layer="222" from-port="1" to-layer="229" to-port="0" />
		<edge from-layer="223" from-port="0" to-layer="229" to-port="1" />
		<edge from-layer="224" from-port="0" to-layer="229" to-port="2" />
		<edge from-layer="225" from-port="0" to-layer="227" to-port="0" />
		<edge from-layer="226" from-port="0" to-layer="227" to-port="1" />
		<edge from-layer="227" from-port="2" to-layer="229" to-port="3" />
		<edge from-layer="228" from-port="0" to-layer="229" to-port="4" />
		<edge from-layer="229" from-port="5" to-layer="231" to-port="0" />
		<edge from-layer="230" from-port="0" to-layer="231" to-port="1" />
		<edge from-layer="231" from-port="2" to-layer="232" to-port="1" />
		<edge from-layer="232" from-port="2" to-layer="233" to-port="0" />
		<edge from-layer="233" from-port="1" to-layer="234" to-port="1" />
		<edge from-layer="234" from-port="2" to-layer="249" to-port="0" />
		<edge from-layer="234" from-port="2" to-layer="235" to-port="0" />
		<edge from-layer="235" from-port="1" to-layer="238" to-port="0" />
		<edge from-layer="235" from-port="1" to-layer="243" to-port="0" />
		<edge from-layer="236" from-port="0" to-layer="238" to-port="1" />
		<edge from-layer="237" from-port="0" to-layer="238" to-port="2" />
		<edge from-layer="238" from-port="3" to-layer="240" to-port="0" />
		<edge from-layer="239" from-port="0" to-layer="240" to-port="1" />
		<edge from-layer="240" from-port="2" to-layer="248" to-port="0" />
		<edge from-layer="241" from-port="0" to-layer="243" to-port="1" />
		<edge from-layer="242" from-port="0" to-layer="243" to-port="2" />
		<edge from-layer="243" from-port="3" to-layer="245" to-port="0" />
		<edge from-layer="244" from-port="0" to-layer="245" to-port="1" />
		<edge from-layer="245" from-port="2" to-layer="248" to-port="1" />
		<edge from-layer="246" from-port="0" to-layer="248" to-port="2" />
		<edge from-layer="247" from-port="0" to-layer="248" to-port="3" />
		<edge from-layer="248" from-port="4" to-layer="249" to-port="1" />
		<edge from-layer="249" from-port="2" to-layer="251" to-port="0" />
		<edge from-layer="250" from-port="0" to-layer="251" to-port="1" />
		<edge from-layer="251" from-port="2" to-layer="262" to-port="0" />
		<edge from-layer="251" from-port="2" to-layer="252" to-port="0" />
		<edge from-layer="252" from-port="1" to-layer="259" to-port="0" />
		<edge from-layer="253" from-port="0" to-layer="259" to-port="1" />
		<edge from-layer="254" from-port="0" to-layer="259" to-port="2" />
		<edge from-layer="255" from-port="0" to-layer="257" to-port="0" />
		<edge from-layer="256" from-port="0" to-layer="257" to-port="1" />
		<edge from-layer="257" from-port="2" to-layer="259" to-port="3" />
		<edge from-layer="258" from-port="0" to-layer="259" to-port="4" />
		<edge from-layer="259" from-port="5" to-layer="261" to-port="0" />
		<edge from-layer="260" from-port="0" to-layer="261" to-port="1" />
		<edge from-layer="261" from-port="2" to-layer="262" to-port="1" />
		<edge from-layer="262" from-port="2" to-layer="263" to-port="0" />
		<edge from-layer="263" from-port="1" to-layer="265" to-port="0" />
		<edge from-layer="263" from-port="1" to-layer="270" to-port="0" />
		<edge from-layer="264" from-port="0" to-layer="265" to-port="1" />
		<edge from-layer="265" from-port="2" to-layer="267" to-port="0" />
		<edge from-layer="266" from-port="0" to-layer="267" to-port="1" />
		<edge from-layer="267" from-port="2" to-layer="281" to-port="0" />
		<edge from-layer="267" from-port="2" to-layer="296" to-port="0" />
		<edge from-layer="268" from-port="0" to-layer="278" to-port="0" />
		<edge from-layer="269" from-port="0" to-layer="277" to-port="0" />
		<edge from-layer="270" from-port="1" to-layer="273" to-port="0" />
		<edge from-layer="271" from-port="0" to-layer="273" to-port="1" />
		<edge from-layer="272" from-port="0" to-layer="273" to-port="2" />
		<edge from-layer="273" from-port="3" to-layer="275" to-port="0" />
		<edge from-layer="274" from-port="0" to-layer="275" to-port="1" />
		<edge from-layer="275" from-port="2" to-layer="277" to-port="1" />
		<edge from-layer="276" from-port="0" to-layer="277" to-port="2" />
		<edge from-layer="277" from-port="3" to-layer="278" to-port="1" />
		<edge from-layer="278" from-port="2" to-layer="280" to-port="0" />
		<edge from-layer="279" from-port="0" to-layer="280" to-port="1" />
		<edge from-layer="280" from-port="2" to-layer="296" to-port="1" />
		<edge from-layer="281" from-port="1" to-layer="284" to-port="0" />
		<edge from-layer="281" from-port="1" to-layer="286" to-port="0" />
		<edge from-layer="282" from-port="0" to-layer="284" to-port="1" />
		<edge from-layer="283" from-port="0" to-layer="284" to-port="2" />
		<edge from-layer="283" from-port="0" to-layer="286" to-port="2" />
		<edge from-layer="284" from-port="3" to-layer="287" to-port="0" />
		<edge from-layer="285" from-port="0" to-layer="286" to-port="1" />
		<edge from-layer="286" from-port="3" to-layer="287" to-port="1" />
		<edge from-layer="287" from-port="2" to-layer="296" to-port="2" />
		<edge from-layer="288" from-port="0" to-layer="296" to-port="3" />
		<edge from-layer="289" from-port="0" to-layer="296" to-port="4" />
		<edge from-layer="290" from-port="0" to-layer="292" to-port="0" />
		<edge from-layer="291" from-port="0" to-layer="292" to-port="1" />
		<edge from-layer="292" from-port="4" to-layer="295" to-port="2" />
		<edge from-layer="292" from-port="7" to-layer="295" to-port="3" />
		<edge from-layer="292" from-port="6" to-layer="294" to-port="1" />
		<edge from-layer="292" from-port="3" to-layer="294" to-port="0" />
		<edge from-layer="292" from-port="5" to-layer="293" to-port="1" />
		<edge from-layer="292" from-port="2" to-layer="293" to-port="0" />
		<edge from-layer="293" from-port="2" to-layer="295" to-port="0" />
		<edge from-layer="294" from-port="2" to-layer="295" to-port="1" />
		<edge from-layer="295" from-port="4" to-layer="296" to-port="5" />
		<edge from-layer="296" from-port="6" to-layer="298" to-port="0" />
		<edge from-layer="297" from-port="0" to-layer="298" to-port="1" />
		<edge from-layer="298" from-port="2" to-layer="300" to-port="0" />
		<edge from-layer="299" from-port="0" to-layer="300" to-port="1" />
		<edge from-layer="300" from-port="2" to-layer="302" to-port="0" />
		<edge from-layer="301" from-port="0" to-layer="302" to-port="1" />
		<edge from-layer="302" from-port="2" to-layer="303" to-port="0" />
		<edge from-layer="302" from-port="2" to-layer="317" to-port="0" />
		<edge from-layer="303" from-port="1" to-layer="306" to-port="0" />
		<edge from-layer="303" from-port="1" to-layer="311" to-port="0" />
		<edge from-layer="304" from-port="0" to-layer="306" to-port="1" />
		<edge from-layer="305" from-port="0" to-layer="306" to-port="2" />
		<edge from-layer="306" from-port="3" to-layer="308" to-port="0" />
		<edge from-layer="307" from-port="0" to-layer="308" to-port="1" />
		<edge from-layer="308" from-port="2" to-layer="316" to-port="0" />
		<edge from-layer="309" from-port="0" to-layer="311" to-port="1" />
		<edge from-layer="310" from-port="0" to-layer="311" to-port="2" />
		<edge from-layer="311" from-port="3" to-layer="313" to-port="0" />
		<edge from-layer="312" from-port="0" to-layer="313" to-port="1" />
		<edge from-layer="313" from-port="2" to-layer="316" to-port="1" />
		<edge from-layer="314" from-port="0" to-layer="316" to-port="2" />
		<edge from-layer="315" from-port="0" to-layer="316" to-port="3" />
		<edge from-layer="316" from-port="4" to-layer="317" to-port="1" />
		<edge from-layer="317" from-port="2" to-layer="319" to-port="0" />
		<edge from-layer="318" from-port="0" to-layer="319" to-port="1" />
		<edge from-layer="319" from-port="2" to-layer="320" to-port="0" />
		<edge from-layer="319" from-port="2" to-layer="330" to-port="0" />
		<edge from-layer="320" from-port="1" to-layer="327" to-port="0" />
		<edge from-layer="321" from-port="0" to-layer="327" to-port="1" />
		<edge from-layer="322" from-port="0" to-layer="327" to-port="2" />
		<edge from-layer="323" from-port="0" to-layer="325" to-port="0" />
		<edge from-layer="324" from-port="0" to-layer="325" to-port="1" />
		<edge from-layer="325" from-port="2" to-layer="327" to-port="3" />
		<edge from-layer="326" from-port="0" to-layer="327" to-port="4" />
		<edge from-layer="327" from-port="5" to-layer="329" to-port="0" />
		<edge from-layer="328" from-port="0" to-layer="329" to-port="1" />
		<edge from-layer="329" from-port="2" to-layer="330" to-port="1" />
		<edge from-layer="330" from-port="2" to-layer="331" to-port="0" />
		<edge from-layer="331" from-port="1" to-layer="333" to-port="0" />
		<edge from-layer="331" from-port="1" to-layer="342" to-port="0" />
		<edge from-layer="332" from-port="0" to-layer="333" to-port="1" />
		<edge from-layer="333" from-port="2" to-layer="334" to-port="1" />
		<edge from-layer="334" from-port="2" to-layer="335" to-port="0" />
		<edge from-layer="335" from-port="1" to-layer="337" to-port="0" />
		<edge from-layer="336" from-port="0" to-layer="337" to-port="1" />
		<edge from-layer="337" from-port="2" to-layer="339" to-port="0" />
		<edge from-layer="338" from-port="0" to-layer="339" to-port="1" />
		<edge from-layer="339" from-port="2" to-layer="340" to-port="0" />
	</edges>
	<rt_info />
</net>
