<?xml version="1.0"?>
<net name="torch_jit" version="11">
	<layers>
		<layer id="4" name="emb" type="Parameter" version="opset1">
			<data shape="1,3002,512" element_type="f32" />
			<rt_info>
				<attribute name="fused_names" version="0" value="emb" />
			</rt_info>
			<output>
				<port id="0" precision="FP32" names="emb">
					<dim>1</dim>
					<dim>3002</dim>
					<dim>512</dim>
				</port>
			</output>
		</layer>
		<layer id="3" name="e3" type="Parameter" version="opset1">
			<data shape="1,64,3002,8" element_type="f32" />
			<rt_info>
				<attribute name="fused_names" version="0" value="e3" />
			</rt_info>
			<output>
				<port id="0" precision="FP32" names="e3">
					<dim>1</dim>
					<dim>64</dim>
					<dim>3002</dim>
					<dim>8</dim>
				</port>
			</output>
		</layer>
		<layer id="2" name="e2" type="Parameter" version="opset1">
			<data shape="1,64,3002,8" element_type="f32" />
			<rt_info>
				<attribute name="fused_names" version="0" value="e2" />
			</rt_info>
			<output>
				<port id="0" precision="FP32" names="e2">
					<dim>1</dim>
					<dim>64</dim>
					<dim>3002</dim>
					<dim>8</dim>
				</port>
			</output>
		</layer>
		<layer id="1" name="e1" type="Parameter" version="opset1">
			<data shape="1,64,3002,16" element_type="f32" />
			<rt_info>
				<attribute name="fused_names" version="0" value="e1" />
			</rt_info>
			<output>
				<port id="0" precision="FP32" names="e1">
					<dim>1</dim>
					<dim>64</dim>
					<dim>3002</dim>
					<dim>16</dim>
				</port>
			</output>
		</layer>
		<layer id="0" name="e0" type="Parameter" version="opset1">
			<data shape="1,64,3002,32" element_type="f32" />
			<rt_info>
				<attribute name="fused_names" version="0" value="e0" />
			</rt_info>
			<output>
				<port id="0" precision="FP32" names="e0">
					<dim>1</dim>
					<dim>64</dim>
					<dim>3002</dim>
					<dim>32</dim>
				</port>
			</output>
		</layer>
		<layer id="5" name="onnx::Conv_306" type="Const" version="opset1">
			<data element_type="f32" shape="64, 1, 1, 1" offset="0" size="256" />
			<rt_info>
				<attribute name="fused_names" version="0" value="onnx::Conv_306" />
			</rt_info>
			<output>
				<port id="0" precision="FP32" names="onnx::Conv_306">
					<dim>64</dim>
					<dim>1</dim>
					<dim>1</dim>
					<dim>1</dim>
				</port>
			</output>
		</layer>
		<layer id="6" name="Constant_6871" type="Const" version="opset1">
			<data element_type="i64" shape="1" offset="256" size="8" />
			<rt_info>
				<attribute name="fused_names" version="0" value="Constant_6871" />
			</rt_info>
			<output>
				<port id="0" precision="I64">
					<dim>1</dim>
				</port>
			</output>
		</layer>
		<layer id="7" name="ShapeOf_6872" type="Const" version="opset1">
			<data element_type="i64" shape="4" offset="264" size="32" />
			<rt_info>
				<attribute name="fused_names" version="0" value="ShapeOf_6872" />
			</rt_info>
			<output>
				<port id="0" precision="I64">
					<dim>4</dim>
				</port>
			</output>
		</layer>
		<layer id="8" name="Constant_6869" type="Const" version="opset1">
			<data element_type="i64" shape="" offset="296" size="8" />
			<rt_info>
				<attribute name="fused_names" version="0" value="Constant_6869" />
			</rt_info>
			<output>
				<port id="0" precision="I64" />
			</output>
		</layer>
		<layer id="9" name="Constant_6870" type="Const" version="opset1">
			<data element_type="i64" shape="2" offset="304" size="16" />
			<rt_info>
				<attribute name="fused_names" version="0" value="Constant_6870" />
			</rt_info>
			<output>
				<port id="0" precision="I64">
					<dim>2</dim>
				</port>
			</output>
		</layer>
		<layer id="10" name="VariadicSplit_6873" type="VariadicSplit" version="opset1">
			<rt_info>
				<attribute name="fused_names" version="0" value="Constant_6869, Constant_6870, ShapeOf_6872, VariadicSplit_6873" />
			</rt_info>
			<input>
				<port id="0" precision="I64">
					<dim>4</dim>
				</port>
				<port id="1" precision="I64" />
				<port id="2" precision="I64">
					<dim>2</dim>
				</port>
			</input>
			<output>
				<port id="3" precision="I64">
					<dim>1</dim>
				</port>
				<port id="4" precision="I64">
					<dim>3</dim>
				</port>
			</output>
		</layer>
		<layer id="11" name="Divide_6874" type="Divide" version="opset1">
			<data auto_broadcast="numpy" m_pythondiv="true" />
			<rt_info>
				<attribute name="fused_names" version="0" value="Constant_6871, Divide_6874" />
			</rt_info>
			<input>
				<port id="0" precision="I64">
					<dim>1</dim>
				</port>
				<port id="1" precision="I64">
					<dim>1</dim>
				</port>
			</input>
			<output>
				<port id="2" precision="I64">
					<dim>1</dim>
				</port>
			</output>
		</layer>
		<layer id="12" name="Concat_6875" type="Concat" version="opset1">
			<data axis="0" />
			<rt_info>
				<attribute name="fused_names" version="0" value="Concat_6875, Constant_6871" />
			</rt_info>
			<input>
				<port id="0" precision="I64">
					<dim>1</dim>
				</port>
				<port id="1" precision="I64">
					<dim>1</dim>
				</port>
				<port id="2" precision="I64">
					<dim>3</dim>
				</port>
			</input>
			<output>
				<port id="3" precision="I64">
					<dim>5</dim>
				</port>
			</output>
		</layer>
		<layer id="13" name="Reshape_6876" type="Reshape" version="opset1">
			<data special_zero="false" />
			<rt_info>
				<attribute name="fused_names" version="0" value="Reshape_6876" />
			</rt_info>
			<input>
				<port id="0" precision="FP32">
					<dim>64</dim>
					<dim>1</dim>
					<dim>1</dim>
					<dim>1</dim>
				</port>
				<port id="1" precision="I64">
					<dim>5</dim>
				</port>
			</input>
			<output>
				<port id="2" precision="FP32">
					<dim>64</dim>
					<dim>1</dim>
					<dim>1</dim>
					<dim>1</dim>
					<dim>1</dim>
				</port>
			</output>
		</layer>
		<layer id="14" name="/conv0p/Conv/WithoutBiases" type="GroupConvolution" version="opset1">
			<data strides="1, 1" pads_begin="0, 0" pads_end="0, 0" dilations="1, 1" auto_pad="explicit" />
			<rt_info>
				<attribute name="fused_names" version="0" value="/conv0p/Conv/WithoutBiases" />
			</rt_info>
			<input>
				<port id="0" precision="FP32">
					<dim>1</dim>
					<dim>64</dim>
					<dim>3002</dim>
					<dim>32</dim>
				</port>
				<port id="1" precision="FP32">
					<dim>64</dim>
					<dim>1</dim>
					<dim>1</dim>
					<dim>1</dim>
					<dim>1</dim>
				</port>
			</input>
			<output>
				<port id="2" precision="FP32">
					<dim>1</dim>
					<dim>64</dim>
					<dim>3002</dim>
					<dim>32</dim>
				</port>
			</output>
		</layer>
		<layer id="15" name="onnx::Conv_307" type="Const" version="opset1">
			<data element_type="f32" shape="64" offset="320" size="256" />
			<rt_info>
				<attribute name="fused_names" version="0" value="onnx::Conv_307" />
			</rt_info>
			<output>
				<port id="0" precision="FP32" names="onnx::Conv_307">
					<dim>64</dim>
				</port>
			</output>
		</layer>
		<layer id="16" name="Constant_6919" type="Const" version="opset1">
			<data element_type="i64" shape="1" offset="576" size="8" />
			<rt_info>
				<attribute name="fused_names" version="0" value="Constant_6919" />
			</rt_info>
			<output>
				<port id="0" precision="I64">
					<dim>1</dim>
				</port>
			</output>
		</layer>
		<layer id="17" name="ShapeOf_6926" type="Const" version="opset1">
			<data element_type="i64" shape="1" offset="256" size="8" />
			<rt_info>
				<attribute name="fused_names" version="0" value="ShapeOf_6926" />
			</rt_info>
			<output>
				<port id="0" precision="I64">
					<dim>1</dim>
				</port>
			</output>
		</layer>
		<layer id="18" name="ShapeOf_6917" type="ShapeOf" version="opset3">
			<data output_type="i64" />
			<rt_info>
				<attribute name="fused_names" version="0" value="ShapeOf_6917" />
			</rt_info>
			<input>
				<port id="0" precision="FP32">
					<dim>1</dim>
					<dim>64</dim>
					<dim>3002</dim>
					<dim>32</dim>
				</port>
			</input>
			<output>
				<port id="1" precision="I64">
					<dim>4</dim>
				</port>
			</output>
		</layer>
		<layer id="19" name="ShapeOf_6918" type="ShapeOf" version="opset3">
			<data output_type="i64" />
			<rt_info>
				<attribute name="fused_names" version="0" value="ShapeOf_6918" />
			</rt_info>
			<input>
				<port id="0" precision="I64">
					<dim>4</dim>
				</port>
			</input>
			<output>
				<port id="1" precision="I64">
					<dim>1</dim>
				</port>
			</output>
		</layer>
		<layer id="20" name="Constant_6920" type="Const" version="opset1">
			<data element_type="i64" shape="1" offset="584" size="8" />
			<rt_info>
				<attribute name="fused_names" version="0" value="Constant_6920" />
			</rt_info>
			<output>
				<port id="0" precision="I64">
					<dim>1</dim>
				</port>
			</output>
		</layer>
		<layer id="21" name="Subtract_6921" type="Subtract" version="opset1">
			<data auto_broadcast="numpy" />
			<rt_info>
				<attribute name="fused_names" version="0" value="Constant_6920, Subtract_6921" />
			</rt_info>
			<input>
				<port id="0" precision="I64">
					<dim>1</dim>
				</port>
				<port id="1" precision="I64">
					<dim>1</dim>
				</port>
			</input>
			<output>
				<port id="2" precision="I64">
					<dim>1</dim>
				</port>
			</output>
		</layer>
		<layer id="22" name="Broadcast_6922" type="Broadcast" version="opset3">
			<data mode="numpy" />
			<rt_info>
				<attribute name="fused_names" version="0" value="Broadcast_6922, Constant_6919" />
			</rt_info>
			<input>
				<port id="0" precision="I64">
					<dim>1</dim>
				</port>
				<port id="1" precision="I64">
					<dim>1</dim>
				</port>
			</input>
			<output>
				<port id="2" precision="I64">
					<dim>2</dim>
				</port>
			</output>
		</layer>
		<layer id="23" name="Concat_6927" type="Concat" version="opset1">
			<data axis="0" />
			<rt_info>
				<attribute name="fused_names" version="0" value="Concat_6927, Constant_6919, ShapeOf_6926" />
			</rt_info>
			<input>
				<port id="0" precision="I64">
					<dim>1</dim>
				</port>
				<port id="1" precision="I64">
					<dim>1</dim>
				</port>
				<port id="2" precision="I64">
					<dim>2</dim>
				</port>
			</input>
			<output>
				<port id="3" precision="I64">
					<dim>4</dim>
				</port>
			</output>
		</layer>
		<layer id="24" name="Reshape_6928" type="Reshape" version="opset1">
			<data special_zero="false" />
			<rt_info>
				<attribute name="fused_names" version="0" value="Reshape_6928" />
			</rt_info>
			<input>
				<port id="0" precision="FP32">
					<dim>64</dim>
				</port>
				<port id="1" precision="I64">
					<dim>4</dim>
				</port>
			</input>
			<output>
				<port id="2" precision="FP32">
					<dim>1</dim>
					<dim>64</dim>
					<dim>1</dim>
					<dim>1</dim>
				</port>
			</output>
		</layer>
		<layer id="25" name="/conv0p/Conv" type="Add" version="opset1">
			<data auto_broadcast="numpy" />
			<rt_info>
				<attribute name="fused_names" version="0" value="/conv0p/Conv" />
			</rt_info>
			<input>
				<port id="0" precision="FP32">
					<dim>1</dim>
					<dim>64</dim>
					<dim>3002</dim>
					<dim>32</dim>
				</port>
				<port id="1" precision="FP32">
					<dim>1</dim>
					<dim>64</dim>
					<dim>1</dim>
					<dim>1</dim>
				</port>
			</input>
			<output>
				<port id="2" precision="FP32" names="/conv0p/Conv_output_0">
					<dim>1</dim>
					<dim>64</dim>
					<dim>3002</dim>
					<dim>32</dim>
				</port>
			</output>
		</layer>
		<layer id="26" name="/conv0p/Relu" type="ReLU" version="opset1">
			<rt_info>
				<attribute name="fused_names" version="0" value="/conv0p/Relu" />
			</rt_info>
			<input>
				<port id="0" precision="FP32">
					<dim>1</dim>
					<dim>64</dim>
					<dim>3002</dim>
					<dim>32</dim>
				</port>
			</input>
			<output>
				<port id="1" precision="FP32" names="/conv0p/Relu_output_0">
					<dim>1</dim>
					<dim>64</dim>
					<dim>3002</dim>
					<dim>32</dim>
				</port>
			</output>
		</layer>
		<layer id="27" name="onnx::Conv_300" type="Const" version="opset1">
			<data element_type="f32" shape="64, 1, 1, 1" offset="592" size="256" />
			<rt_info>
				<attribute name="fused_names" version="0" value="onnx::Conv_300" />
			</rt_info>
			<output>
				<port id="0" precision="FP32" names="onnx::Conv_300">
					<dim>64</dim>
					<dim>1</dim>
					<dim>1</dim>
					<dim>1</dim>
				</port>
			</output>
		</layer>
		<layer id="28" name="Constant_6741" type="Const" version="opset1">
			<data element_type="i64" shape="1" offset="256" size="8" />
			<rt_info>
				<attribute name="fused_names" version="0" value="Constant_6741" />
			</rt_info>
			<output>
				<port id="0" precision="I64">
					<dim>1</dim>
				</port>
			</output>
		</layer>
		<layer id="29" name="ShapeOf_6742" type="Const" version="opset1">
			<data element_type="i64" shape="4" offset="264" size="32" />
			<rt_info>
				<attribute name="fused_names" version="0" value="ShapeOf_6742" />
			</rt_info>
			<output>
				<port id="0" precision="I64">
					<dim>4</dim>
				</port>
			</output>
		</layer>
		<layer id="30" name="Constant_6739" type="Const" version="opset1">
			<data element_type="i64" shape="" offset="296" size="8" />
			<rt_info>
				<attribute name="fused_names" version="0" value="Constant_6739" />
			</rt_info>
			<output>
				<port id="0" precision="I64" />
			</output>
		</layer>
		<layer id="31" name="Constant_6740" type="Const" version="opset1">
			<data element_type="i64" shape="2" offset="304" size="16" />
			<rt_info>
				<attribute name="fused_names" version="0" value="Constant_6740" />
			</rt_info>
			<output>
				<port id="0" precision="I64">
					<dim>2</dim>
				</port>
			</output>
		</layer>
		<layer id="32" name="VariadicSplit_6743" type="VariadicSplit" version="opset1">
			<rt_info>
				<attribute name="fused_names" version="0" value="Constant_6739, Constant_6740, ShapeOf_6742, VariadicSplit_6743" />
			</rt_info>
			<input>
				<port id="0" precision="I64">
					<dim>4</dim>
				</port>
				<port id="1" precision="I64" />
				<port id="2" precision="I64">
					<dim>2</dim>
				</port>
			</input>
			<output>
				<port id="3" precision="I64">
					<dim>1</dim>
				</port>
				<port id="4" precision="I64">
					<dim>3</dim>
				</port>
			</output>
		</layer>
		<layer id="33" name="Divide_6744" type="Divide" version="opset1">
			<data auto_broadcast="numpy" m_pythondiv="true" />
			<rt_info>
				<attribute name="fused_names" version="0" value="Constant_6741, Divide_6744" />
			</rt_info>
			<input>
				<port id="0" precision="I64">
					<dim>1</dim>
				</port>
				<port id="1" precision="I64">
					<dim>1</dim>
				</port>
			</input>
			<output>
				<port id="2" precision="I64">
					<dim>1</dim>
				</port>
			</output>
		</layer>
		<layer id="34" name="Concat_6745" type="Concat" version="opset1">
			<data axis="0" />
			<rt_info>
				<attribute name="fused_names" version="0" value="Concat_6745, Constant_6741" />
			</rt_info>
			<input>
				<port id="0" precision="I64">
					<dim>1</dim>
				</port>
				<port id="1" precision="I64">
					<dim>1</dim>
				</port>
				<port id="2" precision="I64">
					<dim>3</dim>
				</port>
			</input>
			<output>
				<port id="3" precision="I64">
					<dim>5</dim>
				</port>
			</output>
		</layer>
		<layer id="35" name="Reshape_6746" type="Reshape" version="opset1">
			<data special_zero="false" />
			<rt_info>
				<attribute name="fused_names" version="0" value="Reshape_6746" />
			</rt_info>
			<input>
				<port id="0" precision="FP32">
					<dim>64</dim>
					<dim>1</dim>
					<dim>1</dim>
					<dim>1</dim>
				</port>
				<port id="1" precision="I64">
					<dim>5</dim>
				</port>
			</input>
			<output>
				<port id="2" precision="FP32">
					<dim>64</dim>
					<dim>1</dim>
					<dim>1</dim>
					<dim>1</dim>
					<dim>1</dim>
				</port>
			</output>
		</layer>
		<layer id="36" name="/conv1p/Conv/WithoutBiases" type="GroupConvolution" version="opset1">
			<data strides="1, 1" pads_begin="0, 0" pads_end="0, 0" dilations="1, 1" auto_pad="explicit" />
			<rt_info>
				<attribute name="fused_names" version="0" value="/conv1p/Conv/WithoutBiases" />
			</rt_info>
			<input>
				<port id="0" precision="FP32">
					<dim>1</dim>
					<dim>64</dim>
					<dim>3002</dim>
					<dim>16</dim>
				</port>
				<port id="1" precision="FP32">
					<dim>64</dim>
					<dim>1</dim>
					<dim>1</dim>
					<dim>1</dim>
					<dim>1</dim>
				</port>
			</input>
			<output>
				<port id="2" precision="FP32">
					<dim>1</dim>
					<dim>64</dim>
					<dim>3002</dim>
					<dim>16</dim>
				</port>
			</output>
		</layer>
		<layer id="37" name="onnx::Conv_301" type="Const" version="opset1">
			<data element_type="f32" shape="64" offset="848" size="256" />
			<rt_info>
				<attribute name="fused_names" version="0" value="onnx::Conv_301" />
			</rt_info>
			<output>
				<port id="0" precision="FP32" names="onnx::Conv_301">
					<dim>64</dim>
				</port>
			</output>
		</layer>
		<layer id="38" name="Constant_6789" type="Const" version="opset1">
			<data element_type="i64" shape="1" offset="576" size="8" />
			<rt_info>
				<attribute name="fused_names" version="0" value="Constant_6789" />
			</rt_info>
			<output>
				<port id="0" precision="I64">
					<dim>1</dim>
				</port>
			</output>
		</layer>
		<layer id="39" name="ShapeOf_6796" type="Const" version="opset1">
			<data element_type="i64" shape="1" offset="256" size="8" />
			<rt_info>
				<attribute name="fused_names" version="0" value="ShapeOf_6796" />
			</rt_info>
			<output>
				<port id="0" precision="I64">
					<dim>1</dim>
				</port>
			</output>
		</layer>
		<layer id="40" name="ShapeOf_6787" type="ShapeOf" version="opset3">
			<data output_type="i64" />
			<rt_info>
				<attribute name="fused_names" version="0" value="ShapeOf_6787" />
			</rt_info>
			<input>
				<port id="0" precision="FP32">
					<dim>1</dim>
					<dim>64</dim>
					<dim>3002</dim>
					<dim>16</dim>
				</port>
			</input>
			<output>
				<port id="1" precision="I64">
					<dim>4</dim>
				</port>
			</output>
		</layer>
		<layer id="41" name="ShapeOf_6788" type="ShapeOf" version="opset3">
			<data output_type="i64" />
			<rt_info>
				<attribute name="fused_names" version="0" value="ShapeOf_6788" />
			</rt_info>
			<input>
				<port id="0" precision="I64">
					<dim>4</dim>
				</port>
			</input>
			<output>
				<port id="1" precision="I64">
					<dim>1</dim>
				</port>
			</output>
		</layer>
		<layer id="42" name="Constant_6790" type="Const" version="opset1">
			<data element_type="i64" shape="1" offset="584" size="8" />
			<rt_info>
				<attribute name="fused_names" version="0" value="Constant_6790" />
			</rt_info>
			<output>
				<port id="0" precision="I64">
					<dim>1</dim>
				</port>
			</output>
		</layer>
		<layer id="43" name="Subtract_6791" type="Subtract" version="opset1">
			<data auto_broadcast="numpy" />
			<rt_info>
				<attribute name="fused_names" version="0" value="Constant_6790, Subtract_6791" />
			</rt_info>
			<input>
				<port id="0" precision="I64">
					<dim>1</dim>
				</port>
				<port id="1" precision="I64">
					<dim>1</dim>
				</port>
			</input>
			<output>
				<port id="2" precision="I64">
					<dim>1</dim>
				</port>
			</output>
		</layer>
		<layer id="44" name="Broadcast_6792" type="Broadcast" version="opset3">
			<data mode="numpy" />
			<rt_info>
				<attribute name="fused_names" version="0" value="Broadcast_6792, Constant_6789" />
			</rt_info>
			<input>
				<port id="0" precision="I64">
					<dim>1</dim>
				</port>
				<port id="1" precision="I64">
					<dim>1</dim>
				</port>
			</input>
			<output>
				<port id="2" precision="I64">
					<dim>2</dim>
				</port>
			</output>
		</layer>
		<layer id="45" name="Concat_6797" type="Concat" version="opset1">
			<data axis="0" />
			<rt_info>
				<attribute name="fused_names" version="0" value="Concat_6797, Constant_6789, ShapeOf_6796" />
			</rt_info>
			<input>
				<port id="0" precision="I64">
					<dim>1</dim>
				</port>
				<port id="1" precision="I64">
					<dim>1</dim>
				</port>
				<port id="2" precision="I64">
					<dim>2</dim>
				</port>
			</input>
			<output>
				<port id="3" precision="I64">
					<dim>4</dim>
				</port>
			</output>
		</layer>
		<layer id="46" name="Reshape_6798" type="Reshape" version="opset1">
			<data special_zero="false" />
			<rt_info>
				<attribute name="fused_names" version="0" value="Reshape_6798" />
			</rt_info>
			<input>
				<port id="0" precision="FP32">
					<dim>64</dim>
				</port>
				<port id="1" precision="I64">
					<dim>4</dim>
				</port>
			</input>
			<output>
				<port id="2" precision="FP32">
					<dim>1</dim>
					<dim>64</dim>
					<dim>1</dim>
					<dim>1</dim>
				</port>
			</output>
		</layer>
		<layer id="47" name="/conv1p/Conv" type="Add" version="opset1">
			<data auto_broadcast="numpy" />
			<rt_info>
				<attribute name="fused_names" version="0" value="/conv1p/Conv" />
			</rt_info>
			<input>
				<port id="0" precision="FP32">
					<dim>1</dim>
					<dim>64</dim>
					<dim>3002</dim>
					<dim>16</dim>
				</port>
				<port id="1" precision="FP32">
					<dim>1</dim>
					<dim>64</dim>
					<dim>1</dim>
					<dim>1</dim>
				</port>
			</input>
			<output>
				<port id="2" precision="FP32" names="/conv1p/Conv_output_0">
					<dim>1</dim>
					<dim>64</dim>
					<dim>3002</dim>
					<dim>16</dim>
				</port>
			</output>
		</layer>
		<layer id="48" name="/conv1p/Relu" type="ReLU" version="opset1">
			<rt_info>
				<attribute name="fused_names" version="0" value="/conv1p/Relu" />
			</rt_info>
			<input>
				<port id="0" precision="FP32">
					<dim>1</dim>
					<dim>64</dim>
					<dim>3002</dim>
					<dim>16</dim>
				</port>
			</input>
			<output>
				<port id="1" precision="FP32" names="/conv1p/Relu_output_0">
					<dim>1</dim>
					<dim>64</dim>
					<dim>3002</dim>
					<dim>16</dim>
				</port>
			</output>
		</layer>
		<layer id="49" name="onnx::Conv_294" type="Const" version="opset1">
			<data element_type="f32" shape="64, 1, 1, 1" offset="1104" size="256" />
			<rt_info>
				<attribute name="fused_names" version="0" value="onnx::Conv_294" />
			</rt_info>
			<output>
				<port id="0" precision="FP32" names="onnx::Conv_294">
					<dim>64</dim>
					<dim>1</dim>
					<dim>1</dim>
					<dim>1</dim>
				</port>
			</output>
		</layer>
		<layer id="50" name="Constant_6611" type="Const" version="opset1">
			<data element_type="i64" shape="1" offset="256" size="8" />
			<rt_info>
				<attribute name="fused_names" version="0" value="Constant_6611" />
			</rt_info>
			<output>
				<port id="0" precision="I64">
					<dim>1</dim>
				</port>
			</output>
		</layer>
		<layer id="51" name="ShapeOf_6612" type="Const" version="opset1">
			<data element_type="i64" shape="4" offset="264" size="32" />
			<rt_info>
				<attribute name="fused_names" version="0" value="ShapeOf_6612" />
			</rt_info>
			<output>
				<port id="0" precision="I64">
					<dim>4</dim>
				</port>
			</output>
		</layer>
		<layer id="52" name="Constant_6609" type="Const" version="opset1">
			<data element_type="i64" shape="" offset="296" size="8" />
			<rt_info>
				<attribute name="fused_names" version="0" value="Constant_6609" />
			</rt_info>
			<output>
				<port id="0" precision="I64" />
			</output>
		</layer>
		<layer id="53" name="Constant_6610" type="Const" version="opset1">
			<data element_type="i64" shape="2" offset="304" size="16" />
			<rt_info>
				<attribute name="fused_names" version="0" value="Constant_6610" />
			</rt_info>
			<output>
				<port id="0" precision="I64">
					<dim>2</dim>
				</port>
			</output>
		</layer>
		<layer id="54" name="VariadicSplit_6613" type="VariadicSplit" version="opset1">
			<rt_info>
				<attribute name="fused_names" version="0" value="Constant_6609, Constant_6610, ShapeOf_6612, VariadicSplit_6613" />
			</rt_info>
			<input>
				<port id="0" precision="I64">
					<dim>4</dim>
				</port>
				<port id="1" precision="I64" />
				<port id="2" precision="I64">
					<dim>2</dim>
				</port>
			</input>
			<output>
				<port id="3" precision="I64">
					<dim>1</dim>
				</port>
				<port id="4" precision="I64">
					<dim>3</dim>
				</port>
			</output>
		</layer>
		<layer id="55" name="Divide_6614" type="Divide" version="opset1">
			<data auto_broadcast="numpy" m_pythondiv="true" />
			<rt_info>
				<attribute name="fused_names" version="0" value="Constant_6611, Divide_6614" />
			</rt_info>
			<input>
				<port id="0" precision="I64">
					<dim>1</dim>
				</port>
				<port id="1" precision="I64">
					<dim>1</dim>
				</port>
			</input>
			<output>
				<port id="2" precision="I64">
					<dim>1</dim>
				</port>
			</output>
		</layer>
		<layer id="56" name="Concat_6615" type="Concat" version="opset1">
			<data axis="0" />
			<rt_info>
				<attribute name="fused_names" version="0" value="Concat_6615, Constant_6611" />
			</rt_info>
			<input>
				<port id="0" precision="I64">
					<dim>1</dim>
				</port>
				<port id="1" precision="I64">
					<dim>1</dim>
				</port>
				<port id="2" precision="I64">
					<dim>3</dim>
				</port>
			</input>
			<output>
				<port id="3" precision="I64">
					<dim>5</dim>
				</port>
			</output>
		</layer>
		<layer id="57" name="Reshape_6616" type="Reshape" version="opset1">
			<data special_zero="false" />
			<rt_info>
				<attribute name="fused_names" version="0" value="Reshape_6616" />
			</rt_info>
			<input>
				<port id="0" precision="FP32">
					<dim>64</dim>
					<dim>1</dim>
					<dim>1</dim>
					<dim>1</dim>
				</port>
				<port id="1" precision="I64">
					<dim>5</dim>
				</port>
			</input>
			<output>
				<port id="2" precision="FP32">
					<dim>64</dim>
					<dim>1</dim>
					<dim>1</dim>
					<dim>1</dim>
					<dim>1</dim>
				</port>
			</output>
		</layer>
		<layer id="58" name="/conv2p/Conv/WithoutBiases" type="GroupConvolution" version="opset1">
			<data strides="1, 1" pads_begin="0, 0" pads_end="0, 0" dilations="1, 1" auto_pad="explicit" />
			<rt_info>
				<attribute name="fused_names" version="0" value="/conv2p/Conv/WithoutBiases" />
			</rt_info>
			<input>
				<port id="0" precision="FP32">
					<dim>1</dim>
					<dim>64</dim>
					<dim>3002</dim>
					<dim>8</dim>
				</port>
				<port id="1" precision="FP32">
					<dim>64</dim>
					<dim>1</dim>
					<dim>1</dim>
					<dim>1</dim>
					<dim>1</dim>
				</port>
			</input>
			<output>
				<port id="2" precision="FP32">
					<dim>1</dim>
					<dim>64</dim>
					<dim>3002</dim>
					<dim>8</dim>
				</port>
			</output>
		</layer>
		<layer id="59" name="onnx::Conv_295" type="Const" version="opset1">
			<data element_type="f32" shape="64" offset="1360" size="256" />
			<rt_info>
				<attribute name="fused_names" version="0" value="onnx::Conv_295" />
			</rt_info>
			<output>
				<port id="0" precision="FP32" names="onnx::Conv_295">
					<dim>64</dim>
				</port>
			</output>
		</layer>
		<layer id="60" name="Constant_6659" type="Const" version="opset1">
			<data element_type="i64" shape="1" offset="576" size="8" />
			<rt_info>
				<attribute name="fused_names" version="0" value="Constant_6659" />
			</rt_info>
			<output>
				<port id="0" precision="I64">
					<dim>1</dim>
				</port>
			</output>
		</layer>
		<layer id="61" name="ShapeOf_6666" type="Const" version="opset1">
			<data element_type="i64" shape="1" offset="256" size="8" />
			<rt_info>
				<attribute name="fused_names" version="0" value="ShapeOf_6666" />
			</rt_info>
			<output>
				<port id="0" precision="I64">
					<dim>1</dim>
				</port>
			</output>
		</layer>
		<layer id="62" name="ShapeOf_6657" type="ShapeOf" version="opset3">
			<data output_type="i64" />
			<rt_info>
				<attribute name="fused_names" version="0" value="ShapeOf_6657" />
			</rt_info>
			<input>
				<port id="0" precision="FP32">
					<dim>1</dim>
					<dim>64</dim>
					<dim>3002</dim>
					<dim>8</dim>
				</port>
			</input>
			<output>
				<port id="1" precision="I64">
					<dim>4</dim>
				</port>
			</output>
		</layer>
		<layer id="63" name="ShapeOf_6658" type="ShapeOf" version="opset3">
			<data output_type="i64" />
			<rt_info>
				<attribute name="fused_names" version="0" value="ShapeOf_6658" />
			</rt_info>
			<input>
				<port id="0" precision="I64">
					<dim>4</dim>
				</port>
			</input>
			<output>
				<port id="1" precision="I64">
					<dim>1</dim>
				</port>
			</output>
		</layer>
		<layer id="64" name="Constant_6660" type="Const" version="opset1">
			<data element_type="i64" shape="1" offset="584" size="8" />
			<rt_info>
				<attribute name="fused_names" version="0" value="Constant_6660" />
			</rt_info>
			<output>
				<port id="0" precision="I64">
					<dim>1</dim>
				</port>
			</output>
		</layer>
		<layer id="65" name="Subtract_6661" type="Subtract" version="opset1">
			<data auto_broadcast="numpy" />
			<rt_info>
				<attribute name="fused_names" version="0" value="Constant_6660, Subtract_6661" />
			</rt_info>
			<input>
				<port id="0" precision="I64">
					<dim>1</dim>
				</port>
				<port id="1" precision="I64">
					<dim>1</dim>
				</port>
			</input>
			<output>
				<port id="2" precision="I64">
					<dim>1</dim>
				</port>
			</output>
		</layer>
		<layer id="66" name="Broadcast_6662" type="Broadcast" version="opset3">
			<data mode="numpy" />
			<rt_info>
				<attribute name="fused_names" version="0" value="Broadcast_6662, Constant_6659" />
			</rt_info>
			<input>
				<port id="0" precision="I64">
					<dim>1</dim>
				</port>
				<port id="1" precision="I64">
					<dim>1</dim>
				</port>
			</input>
			<output>
				<port id="2" precision="I64">
					<dim>2</dim>
				</port>
			</output>
		</layer>
		<layer id="67" name="Concat_6667" type="Concat" version="opset1">
			<data axis="0" />
			<rt_info>
				<attribute name="fused_names" version="0" value="Concat_6667, Constant_6659, ShapeOf_6666" />
			</rt_info>
			<input>
				<port id="0" precision="I64">
					<dim>1</dim>
				</port>
				<port id="1" precision="I64">
					<dim>1</dim>
				</port>
				<port id="2" precision="I64">
					<dim>2</dim>
				</port>
			</input>
			<output>
				<port id="3" precision="I64">
					<dim>4</dim>
				</port>
			</output>
		</layer>
		<layer id="68" name="Reshape_6668" type="Reshape" version="opset1">
			<data special_zero="false" />
			<rt_info>
				<attribute name="fused_names" version="0" value="Reshape_6668" />
			</rt_info>
			<input>
				<port id="0" precision="FP32">
					<dim>64</dim>
				</port>
				<port id="1" precision="I64">
					<dim>4</dim>
				</port>
			</input>
			<output>
				<port id="2" precision="FP32">
					<dim>1</dim>
					<dim>64</dim>
					<dim>1</dim>
					<dim>1</dim>
				</port>
			</output>
		</layer>
		<layer id="69" name="/conv2p/Conv" type="Add" version="opset1">
			<data auto_broadcast="numpy" />
			<rt_info>
				<attribute name="fused_names" version="0" value="/conv2p/Conv" />
			</rt_info>
			<input>
				<port id="0" precision="FP32">
					<dim>1</dim>
					<dim>64</dim>
					<dim>3002</dim>
					<dim>8</dim>
				</port>
				<port id="1" precision="FP32">
					<dim>1</dim>
					<dim>64</dim>
					<dim>1</dim>
					<dim>1</dim>
				</port>
			</input>
			<output>
				<port id="2" precision="FP32" names="/conv2p/Conv_output_0">
					<dim>1</dim>
					<dim>64</dim>
					<dim>3002</dim>
					<dim>8</dim>
				</port>
			</output>
		</layer>
		<layer id="70" name="/conv2p/Relu" type="ReLU" version="opset1">
			<rt_info>
				<attribute name="fused_names" version="0" value="/conv2p/Relu" />
			</rt_info>
			<input>
				<port id="0" precision="FP32">
					<dim>1</dim>
					<dim>64</dim>
					<dim>3002</dim>
					<dim>8</dim>
				</port>
			</input>
			<output>
				<port id="1" precision="FP32" names="/conv2p/Relu_output_0">
					<dim>1</dim>
					<dim>64</dim>
					<dim>3002</dim>
					<dim>8</dim>
				</port>
			</output>
		</layer>
		<layer id="71" name="onnx::Conv_288" type="Const" version="opset1">
			<data element_type="f32" shape="64, 1, 1, 1" offset="1616" size="256" />
			<rt_info>
				<attribute name="fused_names" version="0" value="onnx::Conv_288" />
			</rt_info>
			<output>
				<port id="0" precision="FP32" names="onnx::Conv_288">
					<dim>64</dim>
					<dim>1</dim>
					<dim>1</dim>
					<dim>1</dim>
				</port>
			</output>
		</layer>
		<layer id="72" name="Constant_6480" type="Const" version="opset1">
			<data element_type="i64" shape="1" offset="256" size="8" />
			<rt_info>
				<attribute name="fused_names" version="0" value="Constant_6480" />
			</rt_info>
			<output>
				<port id="0" precision="I64">
					<dim>1</dim>
				</port>
			</output>
		</layer>
		<layer id="73" name="ShapeOf_6481" type="Const" version="opset1">
			<data element_type="i64" shape="4" offset="264" size="32" />
			<rt_info>
				<attribute name="fused_names" version="0" value="ShapeOf_6481" />
			</rt_info>
			<output>
				<port id="0" precision="I64">
					<dim>4</dim>
				</port>
			</output>
		</layer>
		<layer id="74" name="Constant_6478" type="Const" version="opset1">
			<data element_type="i64" shape="" offset="296" size="8" />
			<rt_info>
				<attribute name="fused_names" version="0" value="Constant_6478" />
			</rt_info>
			<output>
				<port id="0" precision="I64" />
			</output>
		</layer>
		<layer id="75" name="Constant_6479" type="Const" version="opset1">
			<data element_type="i64" shape="2" offset="304" size="16" />
			<rt_info>
				<attribute name="fused_names" version="0" value="Constant_6479" />
			</rt_info>
			<output>
				<port id="0" precision="I64">
					<dim>2</dim>
				</port>
			</output>
		</layer>
		<layer id="76" name="VariadicSplit_6482" type="VariadicSplit" version="opset1">
			<rt_info>
				<attribute name="fused_names" version="0" value="Constant_6478, Constant_6479, ShapeOf_6481, VariadicSplit_6482" />
			</rt_info>
			<input>
				<port id="0" precision="I64">
					<dim>4</dim>
				</port>
				<port id="1" precision="I64" />
				<port id="2" precision="I64">
					<dim>2</dim>
				</port>
			</input>
			<output>
				<port id="3" precision="I64">
					<dim>1</dim>
				</port>
				<port id="4" precision="I64">
					<dim>3</dim>
				</port>
			</output>
		</layer>
		<layer id="77" name="Divide_6483" type="Divide" version="opset1">
			<data auto_broadcast="numpy" m_pythondiv="true" />
			<rt_info>
				<attribute name="fused_names" version="0" value="Constant_6480, Divide_6483" />
			</rt_info>
			<input>
				<port id="0" precision="I64">
					<dim>1</dim>
				</port>
				<port id="1" precision="I64">
					<dim>1</dim>
				</port>
			</input>
			<output>
				<port id="2" precision="I64">
					<dim>1</dim>
				</port>
			</output>
		</layer>
		<layer id="78" name="Concat_6484" type="Concat" version="opset1">
			<data axis="0" />
			<rt_info>
				<attribute name="fused_names" version="0" value="Concat_6484, Constant_6480" />
			</rt_info>
			<input>
				<port id="0" precision="I64">
					<dim>1</dim>
				</port>
				<port id="1" precision="I64">
					<dim>1</dim>
				</port>
				<port id="2" precision="I64">
					<dim>3</dim>
				</port>
			</input>
			<output>
				<port id="3" precision="I64">
					<dim>5</dim>
				</port>
			</output>
		</layer>
		<layer id="79" name="Reshape_6485" type="Reshape" version="opset1">
			<data special_zero="false" />
			<rt_info>
				<attribute name="fused_names" version="0" value="Reshape_6485" />
			</rt_info>
			<input>
				<port id="0" precision="FP32">
					<dim>64</dim>
					<dim>1</dim>
					<dim>1</dim>
					<dim>1</dim>
				</port>
				<port id="1" precision="I64">
					<dim>5</dim>
				</port>
			</input>
			<output>
				<port id="2" precision="FP32">
					<dim>64</dim>
					<dim>1</dim>
					<dim>1</dim>
					<dim>1</dim>
					<dim>1</dim>
				</port>
			</output>
		</layer>
		<layer id="80" name="/conv3p/0/Conv/WithoutBiases" type="GroupConvolution" version="opset1">
			<data strides="1, 1" pads_begin="0, 0" pads_end="0, 0" dilations="1, 1" auto_pad="explicit" />
			<rt_info>
				<attribute name="fused_names" version="0" value="/conv3p/0/Conv/WithoutBiases" />
			</rt_info>
			<input>
				<port id="0" precision="FP32">
					<dim>1</dim>
					<dim>64</dim>
					<dim>3002</dim>
					<dim>8</dim>
				</port>
				<port id="1" precision="FP32">
					<dim>64</dim>
					<dim>1</dim>
					<dim>1</dim>
					<dim>1</dim>
					<dim>1</dim>
				</port>
			</input>
			<output>
				<port id="2" precision="FP32">
					<dim>1</dim>
					<dim>64</dim>
					<dim>3002</dim>
					<dim>8</dim>
				</port>
			</output>
		</layer>
		<layer id="81" name="onnx::Conv_289" type="Const" version="opset1">
			<data element_type="f32" shape="64" offset="1872" size="256" />
			<rt_info>
				<attribute name="fused_names" version="0" value="onnx::Conv_289" />
			</rt_info>
			<output>
				<port id="0" precision="FP32" names="onnx::Conv_289">
					<dim>64</dim>
				</port>
			</output>
		</layer>
		<layer id="82" name="Constant_6528" type="Const" version="opset1">
			<data element_type="i64" shape="1" offset="576" size="8" />
			<rt_info>
				<attribute name="fused_names" version="0" value="Constant_6528" />
			</rt_info>
			<output>
				<port id="0" precision="I64">
					<dim>1</dim>
				</port>
			</output>
		</layer>
		<layer id="83" name="ShapeOf_6535" type="Const" version="opset1">
			<data element_type="i64" shape="1" offset="256" size="8" />
			<rt_info>
				<attribute name="fused_names" version="0" value="ShapeOf_6535" />
			</rt_info>
			<output>
				<port id="0" precision="I64">
					<dim>1</dim>
				</port>
			</output>
		</layer>
		<layer id="84" name="ShapeOf_6526" type="ShapeOf" version="opset3">
			<data output_type="i64" />
			<rt_info>
				<attribute name="fused_names" version="0" value="ShapeOf_6526" />
			</rt_info>
			<input>
				<port id="0" precision="FP32">
					<dim>1</dim>
					<dim>64</dim>
					<dim>3002</dim>
					<dim>8</dim>
				</port>
			</input>
			<output>
				<port id="1" precision="I64">
					<dim>4</dim>
				</port>
			</output>
		</layer>
		<layer id="85" name="ShapeOf_6527" type="ShapeOf" version="opset3">
			<data output_type="i64" />
			<rt_info>
				<attribute name="fused_names" version="0" value="ShapeOf_6527" />
			</rt_info>
			<input>
				<port id="0" precision="I64">
					<dim>4</dim>
				</port>
			</input>
			<output>
				<port id="1" precision="I64">
					<dim>1</dim>
				</port>
			</output>
		</layer>
		<layer id="86" name="Constant_6529" type="Const" version="opset1">
			<data element_type="i64" shape="1" offset="584" size="8" />
			<rt_info>
				<attribute name="fused_names" version="0" value="Constant_6529" />
			</rt_info>
			<output>
				<port id="0" precision="I64">
					<dim>1</dim>
				</port>
			</output>
		</layer>
		<layer id="87" name="Subtract_6530" type="Subtract" version="opset1">
			<data auto_broadcast="numpy" />
			<rt_info>
				<attribute name="fused_names" version="0" value="Constant_6529, Subtract_6530" />
			</rt_info>
			<input>
				<port id="0" precision="I64">
					<dim>1</dim>
				</port>
				<port id="1" precision="I64">
					<dim>1</dim>
				</port>
			</input>
			<output>
				<port id="2" precision="I64">
					<dim>1</dim>
				</port>
			</output>
		</layer>
		<layer id="88" name="Broadcast_6531" type="Broadcast" version="opset3">
			<data mode="numpy" />
			<rt_info>
				<attribute name="fused_names" version="0" value="Broadcast_6531, Constant_6528" />
			</rt_info>
			<input>
				<port id="0" precision="I64">
					<dim>1</dim>
				</port>
				<port id="1" precision="I64">
					<dim>1</dim>
				</port>
			</input>
			<output>
				<port id="2" precision="I64">
					<dim>2</dim>
				</port>
			</output>
		</layer>
		<layer id="89" name="Concat_6536" type="Concat" version="opset1">
			<data axis="0" />
			<rt_info>
				<attribute name="fused_names" version="0" value="Concat_6536, Constant_6528, ShapeOf_6535" />
			</rt_info>
			<input>
				<port id="0" precision="I64">
					<dim>1</dim>
				</port>
				<port id="1" precision="I64">
					<dim>1</dim>
				</port>
				<port id="2" precision="I64">
					<dim>2</dim>
				</port>
			</input>
			<output>
				<port id="3" precision="I64">
					<dim>4</dim>
				</port>
			</output>
		</layer>
		<layer id="90" name="Reshape_6537" type="Reshape" version="opset1">
			<data special_zero="false" />
			<rt_info>
				<attribute name="fused_names" version="0" value="Reshape_6537" />
			</rt_info>
			<input>
				<port id="0" precision="FP32">
					<dim>64</dim>
				</port>
				<port id="1" precision="I64">
					<dim>4</dim>
				</port>
			</input>
			<output>
				<port id="2" precision="FP32">
					<dim>1</dim>
					<dim>64</dim>
					<dim>1</dim>
					<dim>1</dim>
				</port>
			</output>
		</layer>
		<layer id="91" name="/conv3p/0/Conv" type="Add" version="opset1">
			<data auto_broadcast="numpy" />
			<rt_info>
				<attribute name="fused_names" version="0" value="/conv3p/0/Conv" />
			</rt_info>
			<input>
				<port id="0" precision="FP32">
					<dim>1</dim>
					<dim>64</dim>
					<dim>3002</dim>
					<dim>8</dim>
				</port>
				<port id="1" precision="FP32">
					<dim>1</dim>
					<dim>64</dim>
					<dim>1</dim>
					<dim>1</dim>
				</port>
			</input>
			<output>
				<port id="2" precision="FP32" names="/conv3p/0/Conv_output_0">
					<dim>1</dim>
					<dim>64</dim>
					<dim>3002</dim>
					<dim>8</dim>
				</port>
			</output>
		</layer>
		<layer id="92" name="/conv3p/2/Relu" type="ReLU" version="opset1">
			<rt_info>
				<attribute name="fused_names" version="0" value="/conv3p/2/Relu" />
			</rt_info>
			<input>
				<port id="0" precision="FP32">
					<dim>1</dim>
					<dim>64</dim>
					<dim>3002</dim>
					<dim>8</dim>
				</port>
			</input>
			<output>
				<port id="1" precision="FP32" names="/conv3p/2/Relu_output_0">
					<dim>1</dim>
					<dim>64</dim>
					<dim>3002</dim>
					<dim>8</dim>
				</port>
			</output>
		</layer>
		<layer id="93" name="/emb_gru/linear_in/Shape" type="ShapeOf" version="opset3">
			<data output_type="i64" />
			<rt_info>
				<attribute name="fused_names" version="0" value="/emb_gru/linear_in/Shape" />
			</rt_info>
			<input>
				<port id="0" precision="FP32">
					<dim>1</dim>
					<dim>3002</dim>
					<dim>512</dim>
				</port>
			</input>
			<output>
				<port id="1" precision="I64" names="/emb_gru/linear_in/Shape_output_0">
					<dim>3</dim>
				</port>
			</output>
		</layer>
		<layer id="94" name="Constant_8" type="Const" version="opset1">
			<data element_type="i64" shape="" offset="296" size="8" />
			<rt_info>
				<attribute name="fused_names" version="0" value="Constant_8" />
			</rt_info>
			<output>
				<port id="0" precision="I64" names="onnx::Gather_71" />
			</output>
		</layer>
		<layer id="95" name="Constant_6275" type="Const" version="opset1">
			<data element_type="i64" shape="" offset="296" size="8" />
			<rt_info>
				<attribute name="fused_names" version="0" value="Constant_6275" />
			</rt_info>
			<output>
				<port id="0" precision="I64" />
			</output>
		</layer>
		<layer id="96" name="/emb_gru/linear_in/Gather" type="Gather" version="opset8">
			<data batch_dims="0" />
			<rt_info>
				<attribute name="fused_names" version="0" value="/emb_gru/linear_in/Gather, Constant_6275, Constant_8" />
			</rt_info>
			<input>
				<port id="0" precision="I64">
					<dim>3</dim>
				</port>
				<port id="1" precision="I64" />
				<port id="2" precision="I64" />
			</input>
			<output>
				<port id="3" precision="I64" names="/emb_gru/linear_in/Gather_output_0" />
			</output>
		</layer>
		<layer id="97" name="Constant_6280" type="Const" version="opset1">
			<data element_type="i64" shape="1" offset="296" size="8" />
			<rt_info>
				<attribute name="fused_names" version="0" value="Constant_6280" />
			</rt_info>
			<output>
				<port id="0" precision="I64">
					<dim>1</dim>
				</port>
			</output>
		</layer>
		<layer id="98" name="/emb_gru/linear_in/Unsqueeze" type="Unsqueeze" version="opset1">
			<rt_info>
				<attribute name="fused_names" version="0" value="/emb_gru/linear_in/Unsqueeze, Constant_6280" />
			</rt_info>
			<input>
				<port id="0" precision="I64" />
				<port id="1" precision="I64">
					<dim>1</dim>
				</port>
			</input>
			<output>
				<port id="2" precision="I64" names="/emb_gru/linear_in/Unsqueeze_output_0">
					<dim>1</dim>
				</port>
			</output>
		</layer>
		<layer id="99" name="Constant_10" type="Const" version="opset1">
			<data element_type="i64" shape="" offset="576" size="8" />
			<rt_info>
				<attribute name="fused_names" version="0" value="Constant_10" />
			</rt_info>
			<output>
				<port id="0" precision="I64" names="onnx::Gather_73" />
			</output>
		</layer>
		<layer id="100" name="Constant_6278" type="Const" version="opset1">
			<data element_type="i64" shape="" offset="296" size="8" />
			<rt_info>
				<attribute name="fused_names" version="0" value="Constant_6278" />
			</rt_info>
			<output>
				<port id="0" precision="I64" />
			</output>
		</layer>
		<layer id="101" name="/emb_gru/linear_in/Gather_1" type="Gather" version="opset8">
			<data batch_dims="0" />
			<rt_info>
				<attribute name="fused_names" version="0" value="/emb_gru/linear_in/Gather_1, Constant_10, Constant_6278" />
			</rt_info>
			<input>
				<port id="0" precision="I64">
					<dim>3</dim>
				</port>
				<port id="1" precision="I64" />
				<port id="2" precision="I64" />
			</input>
			<output>
				<port id="3" precision="I64" names="/emb_gru/linear_in/Gather_1_output_0" />
			</output>
		</layer>
		<layer id="102" name="Constant_6282" type="Const" version="opset1">
			<data element_type="i64" shape="1" offset="296" size="8" />
			<rt_info>
				<attribute name="fused_names" version="0" value="Constant_6282" />
			</rt_info>
			<output>
				<port id="0" precision="I64">
					<dim>1</dim>
				</port>
			</output>
		</layer>
		<layer id="103" name="/emb_gru/linear_in/Unsqueeze_1" type="Unsqueeze" version="opset1">
			<rt_info>
				<attribute name="fused_names" version="0" value="/emb_gru/linear_in/Unsqueeze_1, Constant_6282" />
			</rt_info>
			<input>
				<port id="0" precision="I64" />
				<port id="1" precision="I64">
					<dim>1</dim>
				</port>
			</input>
			<output>
				<port id="2" precision="I64" names="/emb_gru/linear_in/Unsqueeze_1_output_0">
					<dim>1</dim>
				</port>
			</output>
		</layer>
		<layer id="104" name="/emb_gru/linear_in/Constant" type="Const" version="opset1">
			<data element_type="i64" shape="1" offset="2128" size="8" />
			<rt_info>
				<attribute name="fused_names" version="0" value="/emb_gru/linear_in/Constant" />
			</rt_info>
			<output>
				<port id="0" precision="I64" names="/emb_gru/linear_in/Constant_output_0">
					<dim>1</dim>
				</port>
			</output>
		</layer>
		<layer id="105" name="/emb_gru/linear_in/Constant_1" type="Const" version="opset1">
			<data element_type="i64" shape="1" offset="2136" size="8" />
			<rt_info>
				<attribute name="fused_names" version="0" value="/emb_gru/linear_in/Constant_1" />
			</rt_info>
			<output>
				<port id="0" precision="I64" names="/emb_gru/linear_in/Constant_1_output_0">
					<dim>1</dim>
				</port>
			</output>
		</layer>
		<layer id="106" name="/emb_gru/linear_in/Concat" type="Concat" version="opset1">
			<data axis="0" />
			<rt_info>
				<attribute name="fused_names" version="0" value="/emb_gru/linear_in/Concat, /emb_gru/linear_in/Constant, /emb_gru/linear_in/Constant_1" />
			</rt_info>
			<input>
				<port id="0" precision="I64">
					<dim>1</dim>
				</port>
				<port id="1" precision="I64">
					<dim>1</dim>
				</port>
				<port id="2" precision="I64">
					<dim>1</dim>
				</port>
				<port id="3" precision="I64">
					<dim>1</dim>
				</port>
			</input>
			<output>
				<port id="4" precision="I64" names="/emb_gru/linear_in/Concat_output_0">
					<dim>4</dim>
				</port>
			</output>
		</layer>
		<layer id="107" name="/emb_gru/linear_in/Reshape" type="Reshape" version="opset1">
			<data special_zero="true" />
			<rt_info>
				<attribute name="fused_names" version="0" value="/emb_gru/linear_in/Reshape" />
			</rt_info>
			<input>
				<port id="0" precision="FP32">
					<dim>1</dim>
					<dim>3002</dim>
					<dim>512</dim>
				</port>
				<port id="1" precision="I64">
					<dim>4</dim>
				</port>
			</input>
			<output>
				<port id="2" precision="FP32" names="/emb_gru/linear_in/Reshape_output_0">
					<dim>1</dim>
					<dim>3002</dim>
					<dim>16</dim>
					<dim>32</dim>
				</port>
			</output>
		</layer>
		<layer id="108" name="emb_gru.linear_in.0.weight" type="Const" version="opset1">
			<data element_type="f32" shape="16, 32, 16" offset="2144" size="32768" />
			<rt_info>
				<attribute name="fused_names" version="0" value="emb_gru.linear_in.0.weight" />
			</rt_info>
			<output>
				<port id="0" precision="FP32" names="emb_gru.linear_in.0.weight">
					<dim>16</dim>
					<dim>32</dim>
					<dim>16</dim>
				</port>
			</output>
		</layer>
		<layer id="109" name="/emb_gru/linear_in/Einsum" type="Einsum" version="opset7">
			<data equation="btgi,gih->btgh" />
			<rt_info>
				<attribute name="fused_names" version="0" value="/emb_gru/linear_in/Einsum" />
			</rt_info>
			<input>
				<port id="0" precision="FP32">
					<dim>1</dim>
					<dim>3002</dim>
					<dim>16</dim>
					<dim>32</dim>
				</port>
				<port id="1" precision="FP32">
					<dim>16</dim>
					<dim>32</dim>
					<dim>16</dim>
				</port>
			</input>
			<output>
				<port id="2" precision="FP32" names="/emb_gru/linear_in/Einsum_output_0">
					<dim>1</dim>
					<dim>3002</dim>
					<dim>16</dim>
					<dim>16</dim>
				</port>
			</output>
		</layer>
		<layer id="110" name="/emb_gru/linear_in/Shape_1" type="ShapeOf" version="opset3">
			<data output_type="i64" />
			<rt_info>
				<attribute name="fused_names" version="0" value="/emb_gru/linear_in/Shape_1" />
			</rt_info>
			<input>
				<port id="0" precision="FP32">
					<dim>1</dim>
					<dim>3002</dim>
					<dim>16</dim>
					<dim>16</dim>
				</port>
			</input>
			<output>
				<port id="1" precision="I64" names="/emb_gru/linear_in/Shape_1_output_0">
					<dim>4</dim>
				</port>
			</output>
		</layer>
		<layer id="111" name="/emb_gru/linear_in/Constant_3" type="Const" version="opset1">
			<data element_type="i64" shape="1" offset="296" size="8" />
			<rt_info>
				<attribute name="fused_names" version="0" value="/emb_gru/linear_in/Constant_3" />
			</rt_info>
			<output>
				<port id="0" precision="I64" names="/emb_gru/linear_in/Constant_3_output_0">
					<dim>1</dim>
				</port>
			</output>
		</layer>
		<layer id="112" name="/emb_gru/linear_in/Constant_4" type="Const" version="opset1">
			<data element_type="i64" shape="1" offset="584" size="8" />
			<rt_info>
				<attribute name="fused_names" version="0" value="/emb_gru/linear_in/Constant_4" />
			</rt_info>
			<output>
				<port id="0" precision="I64" names="/emb_gru/linear_in/Constant_4_output_0">
					<dim>1</dim>
				</port>
			</output>
		</layer>
		<layer id="113" name="Constant_6294" type="Const" version="opset1">
			<data element_type="i64" shape="1" offset="576" size="8" />
			<rt_info>
				<attribute name="fused_names" version="0" value="Constant_6294" />
			</rt_info>
			<output>
				<port id="0" precision="I64">
					<dim>1</dim>
				</port>
			</output>
		</layer>
		<layer id="114" name="ShapeOf_6295" type="Const" version="opset1">
			<data element_type="i64" shape="1" offset="576" size="8" />
			<rt_info>
				<attribute name="fused_names" version="0" value="ShapeOf_6295" />
			</rt_info>
			<output>
				<port id="0" precision="I64">
					<dim>1</dim>
				</port>
			</output>
		</layer>
		<layer id="115" name="Broadcast_6296" type="Broadcast" version="opset3">
			<data mode="numpy" />
			<rt_info>
				<attribute name="fused_names" version="0" value="Broadcast_6296, Constant_6294, ShapeOf_6295" />
			</rt_info>
			<input>
				<port id="0" precision="I64">
					<dim>1</dim>
				</port>
				<port id="1" precision="I64">
					<dim>1</dim>
				</port>
			</input>
			<output>
				<port id="2" precision="I64">
					<dim>1</dim>
				</port>
			</output>
		</layer>
		<layer id="116" name="/emb_gru/linear_in/Constant_2" type="Const" version="opset1">
			<data element_type="i64" shape="1" offset="296" size="8" />
			<rt_info>
				<attribute name="fused_names" version="0" value="/emb_gru/linear_in/Constant_2" />
			</rt_info>
			<output>
				<port id="0" precision="I64" names="/emb_gru/linear_in/Constant_2_output_0">
					<dim>1</dim>
				</port>
			</output>
		</layer>
		<layer id="117" name="/emb_gru/linear_in/Slice" type="Slice" version="opset8">
			<rt_info>
				<attribute name="fused_names" version="0" value="/emb_gru/linear_in/Constant_2, /emb_gru/linear_in/Constant_3, /emb_gru/linear_in/Constant_4, /emb_gru/linear_in/Slice" />
			</rt_info>
			<input>
				<port id="0" precision="I64">
					<dim>4</dim>
				</port>
				<port id="1" precision="I64">
					<dim>1</dim>
				</port>
				<port id="2" precision="I64">
					<dim>1</dim>
				</port>
				<port id="3" precision="I64">
					<dim>1</dim>
				</port>
				<port id="4" precision="I64">
					<dim>1</dim>
				</port>
			</input>
			<output>
				<port id="5" precision="I64" names="/emb_gru/linear_in/Slice_output_0">
					<dim>2</dim>
				</port>
			</output>
		</layer>
		<layer id="118" name="/emb_gru/linear_in/Constant_5" type="Const" version="opset1">
			<data element_type="i64" shape="1" offset="34912" size="8" />
			<rt_info>
				<attribute name="fused_names" version="0" value="/emb_gru/linear_in/Constant_5" />
			</rt_info>
			<output>
				<port id="0" precision="I64" names="/emb_gru/linear_in/Constant_5_output_0">
					<dim>1</dim>
				</port>
			</output>
		</layer>
		<layer id="119" name="/emb_gru/linear_in/Concat_1" type="Concat" version="opset1">
			<data axis="0" />
			<rt_info>
				<attribute name="fused_names" version="0" value="/emb_gru/linear_in/Concat_1, /emb_gru/linear_in/Constant_5" />
			</rt_info>
			<input>
				<port id="0" precision="I64">
					<dim>2</dim>
				</port>
				<port id="1" precision="I64">
					<dim>1</dim>
				</port>
			</input>
			<output>
				<port id="2" precision="I64" names="/emb_gru/linear_in/Concat_1_output_0">
					<dim>3</dim>
				</port>
			</output>
		</layer>
		<layer id="120" name="/emb_gru/linear_in/Reshape_1" type="Reshape" version="opset1">
			<data special_zero="true" />
			<rt_info>
				<attribute name="fused_names" version="0" value="/emb_gru/linear_in/Reshape_1" />
			</rt_info>
			<input>
				<port id="0" precision="FP32">
					<dim>1</dim>
					<dim>3002</dim>
					<dim>16</dim>
					<dim>16</dim>
				</port>
				<port id="1" precision="I64">
					<dim>3</dim>
				</port>
			</input>
			<output>
				<port id="2" precision="FP32" names="/emb_gru/linear_in/Reshape_1_output_0">
					<dim>1</dim>
					<dim>3002</dim>
					<dim>256</dim>
				</port>
			</output>
		</layer>
		<layer id="121" name="/emb_gru/linear_in/Relu" type="ReLU" version="opset1">
			<rt_info>
				<attribute name="fused_names" version="0" value="/emb_gru/linear_in/Relu" />
			</rt_info>
			<input>
				<port id="0" precision="FP32">
					<dim>1</dim>
					<dim>3002</dim>
					<dim>256</dim>
				</port>
			</input>
			<output>
				<port id="1" precision="FP32" names="/emb_gru/linear_in/Relu_output_0">
					<dim>1</dim>
					<dim>3002</dim>
					<dim>256</dim>
				</port>
			</output>
		</layer>
		<layer id="122" name="Constant_6324" type="Const" version="opset1">
			<data element_type="i64" shape="3" offset="34920" size="24" />
			<rt_info>
				<attribute name="fused_names" version="0" value="Constant_6324" />
			</rt_info>
			<output>
				<port id="0" precision="I64">
					<dim>3</dim>
				</port>
			</output>
		</layer>
		<layer id="123" name="/emb_gru/Transpose" type="Transpose" version="opset1">
			<rt_info>
				<attribute name="fused_names" version="0" value="/emb_gru/Transpose" />
			</rt_info>
			<input>
				<port id="0" precision="FP32">
					<dim>1</dim>
					<dim>3002</dim>
					<dim>256</dim>
				</port>
				<port id="1" precision="I64">
					<dim>3</dim>
				</port>
			</input>
			<output>
				<port id="2" precision="FP32" names="/emb_gru/Transpose_output_0">
					<dim>3002</dim>
					<dim>1</dim>
					<dim>256</dim>
				</port>
			</output>
		</layer>
		<layer id="124" name="Constant_6342" type="Const" version="opset1">
			<data element_type="i64" shape="3" offset="34920" size="24" />
			<rt_info>
				<attribute name="fused_names" version="0" value="Constant_6342" />
			</rt_info>
			<output>
				<port id="0" precision="I64">
					<dim>3</dim>
				</port>
			</output>
		</layer>
		<layer id="125" name="Transpose_6343" type="Transpose" version="opset1">
			<rt_info>
				<attribute name="fused_names" version="0" value="Transpose_6343" />
			</rt_info>
			<input>
				<port id="0" precision="FP32">
					<dim>3002</dim>
					<dim>1</dim>
					<dim>256</dim>
				</port>
				<port id="1" precision="I64">
					<dim>3</dim>
				</port>
			</input>
			<output>
				<port id="2" precision="FP32">
					<dim>1</dim>
					<dim>3002</dim>
					<dim>256</dim>
				</port>
			</output>
		</layer>
		<layer id="126" name="Constant_6319" type="Const" version="opset1">
			<data element_type="f32" shape="" offset="34944" size="4" />
			<rt_info>
				<attribute name="fused_names" version="0" value="Constant_6319" />
			</rt_info>
			<output>
				<port id="0" precision="FP32" />
			</output>
		</layer>
		<layer id="127" name="/emb_gru/Constant_1" type="Const" version="opset1">
			<data element_type="i64" shape="1" offset="584" size="8" />
			<rt_info>
				<attribute name="fused_names" version="0" value="/emb_gru/Constant_1" />
			</rt_info>
			<output>
				<port id="0" precision="I64" names="/emb_gru/Constant_1_output_0">
					<dim>1</dim>
				</port>
			</output>
		</layer>
		<layer id="128" name="/emb_gru/Shape" type="ShapeOf" version="opset3">
			<data output_type="i64" />
			<rt_info>
				<attribute name="fused_names" version="0" value="/emb_gru/Shape" />
			</rt_info>
			<input>
				<port id="0" precision="FP32">
					<dim>1</dim>
					<dim>3002</dim>
					<dim>256</dim>
				</port>
			</input>
			<output>
				<port id="1" precision="I64" names="/emb_gru/Shape_output_0">
					<dim>3</dim>
				</port>
			</output>
		</layer>
		<layer id="129" name="/emb_gru/Constant" type="Const" version="opset1">
			<data element_type="i64" shape="" offset="296" size="8" />
			<rt_info>
				<attribute name="fused_names" version="0" value="/emb_gru/Constant" />
			</rt_info>
			<output>
				<port id="0" precision="I64" names="/emb_gru/Constant_output_0" />
			</output>
		</layer>
		<layer id="130" name="Constant_6311" type="Const" version="opset1">
			<data element_type="i64" shape="" offset="296" size="8" />
			<rt_info>
				<attribute name="fused_names" version="0" value="Constant_6311" />
			</rt_info>
			<output>
				<port id="0" precision="I64" />
			</output>
		</layer>
		<layer id="131" name="/emb_gru/Gather" type="Gather" version="opset8">
			<data batch_dims="0" />
			<rt_info>
				<attribute name="fused_names" version="0" value="/emb_gru/Constant, /emb_gru/Gather, Constant_6311" />
			</rt_info>
			<input>
				<port id="0" precision="I64">
					<dim>3</dim>
				</port>
				<port id="1" precision="I64" />
				<port id="2" precision="I64" />
			</input>
			<output>
				<port id="3" precision="I64" names="/emb_gru/Gather_output_0" />
			</output>
		</layer>
		<layer id="132" name="Constant_6314" type="Const" version="opset1">
			<data element_type="i64" shape="1" offset="296" size="8" />
			<rt_info>
				<attribute name="fused_names" version="0" value="Constant_6314" />
			</rt_info>
			<output>
				<port id="0" precision="I64">
					<dim>1</dim>
				</port>
			</output>
		</layer>
		<layer id="133" name="/emb_gru/Unsqueeze" type="Unsqueeze" version="opset1">
			<rt_info>
				<attribute name="fused_names" version="0" value="/emb_gru/Unsqueeze, Constant_6314" />
			</rt_info>
			<input>
				<port id="0" precision="I64" />
				<port id="1" precision="I64">
					<dim>1</dim>
				</port>
			</input>
			<output>
				<port id="2" precision="I64" names="/emb_gru/Unsqueeze_output_0">
					<dim>1</dim>
				</port>
			</output>
		</layer>
		<layer id="134" name="/emb_gru/Constant_2" type="Const" version="opset1">
			<data element_type="i64" shape="1" offset="34948" size="8" />
			<rt_info>
				<attribute name="fused_names" version="0" value="/emb_gru/Constant_2" />
			</rt_info>
			<output>
				<port id="0" precision="I64" names="/emb_gru/Constant_2_output_0">
					<dim>1</dim>
				</port>
			</output>
		</layer>
		<layer id="135" name="/emb_gru/Concat" type="Concat" version="opset1">
			<data axis="0" />
			<rt_info>
				<attribute name="fused_names" version="0" value="/emb_gru/Concat, /emb_gru/Constant_1, /emb_gru/Constant_2" />
			</rt_info>
			<input>
				<port id="0" precision="I64">
					<dim>1</dim>
				</port>
				<port id="1" precision="I64">
					<dim>1</dim>
				</port>
				<port id="2" precision="I64">
					<dim>1</dim>
				</port>
			</input>
			<output>
				<port id="3" precision="I64" names="/emb_gru/Concat_output_0">
					<dim>3</dim>
				</port>
			</output>
		</layer>
		<layer id="136" name="/emb_gru/ConstantOfShape" type="Broadcast" version="opset3">
			<data mode="numpy" />
			<rt_info>
				<attribute name="fused_names" version="0" value="/emb_gru/ConstantOfShape" />
			</rt_info>
			<input>
				<port id="0" precision="FP32" />
				<port id="1" precision="I64">
					<dim>3</dim>
				</port>
			</input>
			<output>
				<port id="2" precision="FP32" names="/emb_gru/ConstantOfShape_output_0">
					<dim>2</dim>
					<dim>1</dim>
					<dim>256</dim>
				</port>
			</output>
		</layer>
		<layer id="137" name="/emb_gru/Constant_7" type="Const" version="opset1">
			<data element_type="i64" shape="1" offset="296" size="8" />
			<rt_info>
				<attribute name="fused_names" version="0" value="/emb_gru/Constant_7" />
			</rt_info>
			<output>
				<port id="0" precision="I64" names="/emb_gru/Constant_7_output_0">
					<dim>1</dim>
				</port>
			</output>
		</layer>
		<layer id="138" name="/emb_gru/Constant_8" type="Const" version="opset1">
			<data element_type="i64" shape="1" offset="576" size="8" />
			<rt_info>
				<attribute name="fused_names" version="0" value="/emb_gru/Constant_8" />
			</rt_info>
			<output>
				<port id="0" precision="I64" names="/emb_gru/Constant_8_output_0">
					<dim>1</dim>
				</port>
			</output>
		</layer>
		<layer id="139" name="Constant_6332" type="Const" version="opset1">
			<data element_type="i64" shape="1" offset="576" size="8" />
			<rt_info>
				<attribute name="fused_names" version="0" value="Constant_6332" />
			</rt_info>
			<output>
				<port id="0" precision="I64">
					<dim>1</dim>
				</port>
			</output>
		</layer>
		<layer id="140" name="ShapeOf_6333" type="Const" version="opset1">
			<data element_type="i64" shape="1" offset="576" size="8" />
			<rt_info>
				<attribute name="fused_names" version="0" value="ShapeOf_6333" />
			</rt_info>
			<output>
				<port id="0" precision="I64">
					<dim>1</dim>
				</port>
			</output>
		</layer>
		<layer id="141" name="Broadcast_6334" type="Broadcast" version="opset3">
			<data mode="numpy" />
			<rt_info>
				<attribute name="fused_names" version="0" value="Broadcast_6334, Constant_6332, ShapeOf_6333" />
			</rt_info>
			<input>
				<port id="0" precision="I64">
					<dim>1</dim>
				</port>
				<port id="1" precision="I64">
					<dim>1</dim>
				</port>
			</input>
			<output>
				<port id="2" precision="I64">
					<dim>1</dim>
				</port>
			</output>
		</layer>
		<layer id="142" name="/emb_gru/Constant_6" type="Const" version="opset1">
			<data element_type="i64" shape="1" offset="296" size="8" />
			<rt_info>
				<attribute name="fused_names" version="0" value="/emb_gru/Constant_6" />
			</rt_info>
			<output>
				<port id="0" precision="I64" names="/emb_gru/Constant_6_output_0">
					<dim>1</dim>
				</port>
			</output>
		</layer>
		<layer id="143" name="/emb_gru/Slice" type="Slice" version="opset8">
			<rt_info>
				<attribute name="fused_names" version="0" value="/emb_gru/Slice" />
			</rt_info>
			<input>
				<port id="0" precision="FP32">
					<dim>2</dim>
					<dim>1</dim>
					<dim>256</dim>
				</port>
				<port id="1" precision="I64">
					<dim>1</dim>
				</port>
				<port id="2" precision="I64">
					<dim>1</dim>
				</port>
				<port id="3" precision="I64">
					<dim>1</dim>
				</port>
				<port id="4" precision="I64">
					<dim>1</dim>
				</port>
			</input>
			<output>
				<port id="5" precision="FP32" names="/emb_gru/Slice_output_0">
					<dim>1</dim>
					<dim>1</dim>
					<dim>256</dim>
				</port>
			</output>
		</layer>
		<layer id="144" name="Constant_6362" type="Const" version="opset1">
			<data element_type="i64" shape="3" offset="34920" size="24" />
			<rt_info>
				<attribute name="fused_names" version="0" value="Constant_6362" />
			</rt_info>
			<output>
				<port id="0" precision="I64">
					<dim>3</dim>
				</port>
			</output>
		</layer>
		<layer id="145" name="Transpose_6363" type="Transpose" version="opset1">
			<rt_info>
				<attribute name="fused_names" version="0" value="Transpose_6363" />
			</rt_info>
			<input>
				<port id="0" precision="FP32">
					<dim>1</dim>
					<dim>1</dim>
					<dim>256</dim>
				</port>
				<port id="1" precision="I64">
					<dim>3</dim>
				</port>
			</input>
			<output>
				<port id="2" precision="FP32">
					<dim>1</dim>
					<dim>1</dim>
					<dim>256</dim>
				</port>
			</output>
		</layer>
		<layer id="146" name="ShapeOf_6344" type="ShapeOf" version="opset3">
			<data output_type="i64" />
			<rt_info>
				<attribute name="fused_names" version="0" value="ShapeOf_6344" />
			</rt_info>
			<input>
				<port id="0" precision="FP32">
					<dim>1</dim>
					<dim>3002</dim>
					<dim>256</dim>
				</port>
			</input>
			<output>
				<port id="1" precision="I64">
					<dim>3</dim>
				</port>
			</output>
		</layer>
		<layer id="147" name="Constant_6348" type="Const" version="opset1">
			<data element_type="i32" shape="1" offset="34956" size="4" />
			<rt_info>
				<attribute name="fused_names" version="0" value="Constant_6348" />
			</rt_info>
			<output>
				<port id="0" precision="I32">
					<dim>1</dim>
				</port>
			</output>
		</layer>
		<layer id="148" name="Constant_6345" type="Const" version="opset1">
			<data element_type="i32" shape="1" offset="34944" size="4" />
			<rt_info>
				<attribute name="fused_names" version="0" value="Constant_6345" />
			</rt_info>
			<output>
				<port id="0" precision="I32">
					<dim>1</dim>
				</port>
			</output>
		</layer>
		<layer id="149" name="Gather_6349" type="Gather" version="opset8">
			<data batch_dims="0" />
			<rt_info>
				<attribute name="fused_names" version="0" value="Constant_6345, Gather_6349" />
			</rt_info>
			<input>
				<port id="0" precision="I64">
					<dim>3</dim>
				</port>
				<port id="1" precision="I32">
					<dim>1</dim>
				</port>
				<port id="2" precision="I32">
					<dim>1</dim>
				</port>
			</input>
			<output>
				<port id="3" precision="I64">
					<dim>1</dim>
				</port>
			</output>
		</layer>
		<layer id="150" name="Constant_6346" type="Const" version="opset1">
			<data element_type="i32" shape="1" offset="34944" size="4" />
			<rt_info>
				<attribute name="fused_names" version="0" value="Constant_6346" />
			</rt_info>
			<output>
				<port id="0" precision="I32">
					<dim>1</dim>
				</port>
			</output>
		</layer>
		<layer id="151" name="Gather_6347" type="Gather" version="opset8">
			<data batch_dims="0" />
			<rt_info>
				<attribute name="fused_names" version="0" value="Constant_6345, Constant_6346, Gather_6347" />
			</rt_info>
			<input>
				<port id="0" precision="I64">
					<dim>3</dim>
				</port>
				<port id="1" precision="I32">
					<dim>1</dim>
				</port>
				<port id="2" precision="I32">
					<dim>1</dim>
				</port>
			</input>
			<output>
				<port id="3" precision="I64">
					<dim>1</dim>
				</port>
			</output>
		</layer>
		<layer id="152" name="Broadcast_6358" type="Broadcast" version="opset3">
			<data mode="numpy" />
			<rt_info>
				<attribute name="fused_names" version="0" value="Broadcast_6358" />
			</rt_info>
			<input>
				<port id="0" precision="I64">
					<dim>1</dim>
				</port>
				<port id="1" precision="I64">
					<dim>1</dim>
				</port>
			</input>
			<output>
				<port id="2" precision="I64">
					<dim>1</dim>
				</port>
			</output>
		</layer>
		<layer id="153" name="/emb_gru/Constant_3" type="Const" version="opset1">
			<data element_type="f32" shape="1, 768, 256" offset="34960" size="786432" />
			<rt_info>
				<attribute name="fused_names" version="0" value="/emb_gru/Constant_3" />
			</rt_info>
			<output>
				<port id="0" precision="FP32" names="/emb_gru/Constant_3_output_0">
					<dim>1</dim>
					<dim>768</dim>
					<dim>256</dim>
				</port>
			</output>
		</layer>
		<layer id="154" name="/emb_gru/Constant_4" type="Const" version="opset1">
			<data element_type="f32" shape="1, 768, 256" offset="821392" size="786432" />
			<rt_info>
				<attribute name="fused_names" version="0" value="/emb_gru/Constant_4" />
			</rt_info>
			<output>
				<port id="0" precision="FP32" names="/emb_gru/Constant_4_output_0">
					<dim>1</dim>
					<dim>768</dim>
					<dim>256</dim>
				</port>
			</output>
		</layer>
		<layer id="155" name="/emb_gru/Constant_5" type="Const" version="opset1">
			<data element_type="f32" shape="1, 1536" offset="1607824" size="6144" />
			<rt_info>
				<attribute name="fused_names" version="0" value="/emb_gru/Constant_5" />
			</rt_info>
			<output>
				<port id="0" precision="FP32" names="/emb_gru/Constant_5_output_0">
					<dim>1</dim>
					<dim>1536</dim>
				</port>
			</output>
		</layer>
		<layer id="156" name="Constant_6365" type="Const" version="opset1">
			<data element_type="i64" shape="" offset="576" size="8" />
			<rt_info>
				<attribute name="fused_names" version="0" value="Constant_6365" />
			</rt_info>
			<output>
				<port id="0" precision="I64" />
			</output>
		</layer>
		<layer id="157" name="Split_6366" type="Split" version="opset1">
			<data num_splits="6" />
			<rt_info>
				<attribute name="fused_names" version="0" value="Split_6366" />
			</rt_info>
			<input>
				<port id="0" precision="FP32">
					<dim>1</dim>
					<dim>1536</dim>
				</port>
				<port id="1" precision="I64" />
			</input>
			<output>
				<port id="2" precision="FP32">
					<dim>1</dim>
					<dim>256</dim>
				</port>
				<port id="3" precision="FP32">
					<dim>1</dim>
					<dim>256</dim>
				</port>
				<port id="4" precision="FP32">
					<dim>1</dim>
					<dim>256</dim>
				</port>
				<port id="5" precision="FP32">
					<dim>1</dim>
					<dim>256</dim>
				</port>
				<port id="6" precision="FP32">
					<dim>1</dim>
					<dim>256</dim>
				</port>
				<port id="7" precision="FP32">
					<dim>1</dim>
					<dim>256</dim>
				</port>
			</output>
		</layer>
		<layer id="158" name="Add_6367" type="Add" version="opset1">
			<data auto_broadcast="numpy" />
			<rt_info>
				<attribute name="fused_names" version="0" value="Add_6367" />
			</rt_info>
			<input>
				<port id="0" precision="FP32">
					<dim>1</dim>
					<dim>256</dim>
				</port>
				<port id="1" precision="FP32">
					<dim>1</dim>
					<dim>256</dim>
				</port>
			</input>
			<output>
				<port id="2" precision="FP32">
					<dim>1</dim>
					<dim>256</dim>
				</port>
			</output>
		</layer>
		<layer id="159" name="Add_6368" type="Add" version="opset1">
			<data auto_broadcast="numpy" />
			<rt_info>
				<attribute name="fused_names" version="0" value="Add_6368" />
			</rt_info>
			<input>
				<port id="0" precision="FP32">
					<dim>1</dim>
					<dim>256</dim>
				</port>
				<port id="1" precision="FP32">
					<dim>1</dim>
					<dim>256</dim>
				</port>
			</input>
			<output>
				<port id="2" precision="FP32">
					<dim>1</dim>
					<dim>256</dim>
				</port>
			</output>
		</layer>
		<layer id="160" name="Concat_6369" type="Concat" version="opset1">
			<data axis="1" />
			<rt_info>
				<attribute name="fused_names" version="0" value="Concat_6369" />
			</rt_info>
			<input>
				<port id="0" precision="FP32">
					<dim>1</dim>
					<dim>256</dim>
				</port>
				<port id="1" precision="FP32">
					<dim>1</dim>
					<dim>256</dim>
				</port>
				<port id="2" precision="FP32">
					<dim>1</dim>
					<dim>256</dim>
				</port>
				<port id="3" precision="FP32">
					<dim>1</dim>
					<dim>256</dim>
				</port>
			</input>
			<output>
				<port id="4" precision="FP32">
					<dim>1</dim>
					<dim>1024</dim>
				</port>
			</output>
		</layer>
		<layer id="161" name="GRUSequence_6370" type="GRUSequence" version="opset5">
			<data direction="forward" linear_before_reset="true" hidden_size="256" activations="sigmoid, tanh" activations_alpha="" activations_beta="" clip="0" />
			<rt_info>
				<attribute name="fused_names" version="0" value="GRUSequence_6370" />
			</rt_info>
			<input>
				<port id="0" precision="FP32">
					<dim>1</dim>
					<dim>3002</dim>
					<dim>256</dim>
				</port>
				<port id="1" precision="FP32">
					<dim>1</dim>
					<dim>1</dim>
					<dim>256</dim>
				</port>
				<port id="2" precision="I64">
					<dim>1</dim>
				</port>
				<port id="3" precision="FP32">
					<dim>1</dim>
					<dim>768</dim>
					<dim>256</dim>
				</port>
				<port id="4" precision="FP32">
					<dim>1</dim>
					<dim>768</dim>
					<dim>256</dim>
				</port>
				<port id="5" precision="FP32">
					<dim>1</dim>
					<dim>1024</dim>
				</port>
			</input>
			<output>
				<port id="6" precision="FP32">
					<dim>1</dim>
					<dim>1</dim>
					<dim>3002</dim>
					<dim>256</dim>
				</port>
				<port id="7" precision="FP32">
					<dim>1</dim>
					<dim>1</dim>
					<dim>256</dim>
				</port>
			</output>
		</layer>
		<layer id="162" name="Constant_6371" type="Const" version="opset1">
			<data element_type="i64" shape="4" offset="1613968" size="32" />
			<rt_info>
				<attribute name="fused_names" version="0" value="Constant_6371" />
			</rt_info>
			<output>
				<port id="0" precision="I64">
					<dim>4</dim>
				</port>
			</output>
		</layer>
		<layer id="163" name="/emb_gru/GRU_/emb_gru/GRU_output_0" type="Transpose" version="opset1">
			<rt_info>
				<attribute name="fused_names" version="0" value="/emb_gru/GRU_/emb_gru/GRU_output_0" />
			</rt_info>
			<input>
				<port id="0" precision="FP32">
					<dim>1</dim>
					<dim>1</dim>
					<dim>3002</dim>
					<dim>256</dim>
				</port>
				<port id="1" precision="I64">
					<dim>4</dim>
				</port>
			</input>
			<output>
				<port id="2" precision="FP32" names="/emb_gru/GRU_output_0">
					<dim>3002</dim>
					<dim>1</dim>
					<dim>1</dim>
					<dim>256</dim>
				</port>
			</output>
		</layer>
		<layer id="164" name="Constant_6375" type="Const" version="opset1">
			<data element_type="i64" shape="1" offset="576" size="8" />
			<rt_info>
				<attribute name="fused_names" version="0" value="Constant_6375" />
			</rt_info>
			<output>
				<port id="0" precision="I64">
					<dim>1</dim>
				</port>
			</output>
		</layer>
		<layer id="165" name="/emb_gru/Squeeze" type="Squeeze" version="opset1">
			<rt_info>
				<attribute name="fused_names" version="0" value="/emb_gru/Squeeze" />
			</rt_info>
			<input>
				<port id="0" precision="FP32">
					<dim>3002</dim>
					<dim>1</dim>
					<dim>1</dim>
					<dim>256</dim>
				</port>
				<port id="1" precision="I64">
					<dim>1</dim>
				</port>
			</input>
			<output>
				<port id="2" precision="FP32" names="/emb_gru/Squeeze_output_0">
					<dim>3002</dim>
					<dim>1</dim>
					<dim>256</dim>
				</port>
			</output>
		</layer>
		<layer id="166" name="Constant_6393" type="Const" version="opset1">
			<data element_type="i64" shape="3" offset="34920" size="24" />
			<rt_info>
				<attribute name="fused_names" version="0" value="Constant_6393" />
			</rt_info>
			<output>
				<port id="0" precision="I64">
					<dim>3</dim>
				</port>
			</output>
		</layer>
		<layer id="167" name="Transpose_6394" type="Transpose" version="opset1">
			<rt_info>
				<attribute name="fused_names" version="0" value="Transpose_6394" />
			</rt_info>
			<input>
				<port id="0" precision="FP32">
					<dim>3002</dim>
					<dim>1</dim>
					<dim>256</dim>
				</port>
				<port id="1" precision="I64">
					<dim>3</dim>
				</port>
			</input>
			<output>
				<port id="2" precision="FP32">
					<dim>1</dim>
					<dim>3002</dim>
					<dim>256</dim>
				</port>
			</output>
		</layer>
		<layer id="168" name="/emb_gru/Constant_13" type="Const" version="opset1">
			<data element_type="i64" shape="1" offset="576" size="8" />
			<rt_info>
				<attribute name="fused_names" version="0" value="/emb_gru/Constant_13" />
			</rt_info>
			<output>
				<port id="0" precision="I64" names="/emb_gru/Constant_13_output_0">
					<dim>1</dim>
				</port>
			</output>
		</layer>
		<layer id="169" name="/emb_gru/Constant_14" type="Const" version="opset1">
			<data element_type="i64" shape="1" offset="584" size="8" />
			<rt_info>
				<attribute name="fused_names" version="0" value="/emb_gru/Constant_14" />
			</rt_info>
			<output>
				<port id="0" precision="I64" names="/emb_gru/Constant_14_output_0">
					<dim>1</dim>
				</port>
			</output>
		</layer>
		<layer id="170" name="Constant_6383" type="Const" version="opset1">
			<data element_type="i64" shape="1" offset="576" size="8" />
			<rt_info>
				<attribute name="fused_names" version="0" value="Constant_6383" />
			</rt_info>
			<output>
				<port id="0" precision="I64">
					<dim>1</dim>
				</port>
			</output>
		</layer>
		<layer id="171" name="ShapeOf_6384" type="Const" version="opset1">
			<data element_type="i64" shape="1" offset="576" size="8" />
			<rt_info>
				<attribute name="fused_names" version="0" value="ShapeOf_6384" />
			</rt_info>
			<output>
				<port id="0" precision="I64">
					<dim>1</dim>
				</port>
			</output>
		</layer>
		<layer id="172" name="Broadcast_6385" type="Broadcast" version="opset3">
			<data mode="numpy" />
			<rt_info>
				<attribute name="fused_names" version="0" value="Broadcast_6385, Constant_6383, ShapeOf_6384" />
			</rt_info>
			<input>
				<port id="0" precision="I64">
					<dim>1</dim>
				</port>
				<port id="1" precision="I64">
					<dim>1</dim>
				</port>
			</input>
			<output>
				<port id="2" precision="I64">
					<dim>1</dim>
				</port>
			</output>
		</layer>
		<layer id="173" name="/emb_gru/Constant_12" type="Const" version="opset1">
			<data element_type="i64" shape="1" offset="296" size="8" />
			<rt_info>
				<attribute name="fused_names" version="0" value="/emb_gru/Constant_12" />
			</rt_info>
			<output>
				<port id="0" precision="I64" names="/emb_gru/Constant_12_output_0">
					<dim>1</dim>
				</port>
			</output>
		</layer>
		<layer id="174" name="/emb_gru/Slice_1" type="Slice" version="opset8">
			<rt_info>
				<attribute name="fused_names" version="0" value="/emb_gru/Slice_1" />
			</rt_info>
			<input>
				<port id="0" precision="FP32">
					<dim>2</dim>
					<dim>1</dim>
					<dim>256</dim>
				</port>
				<port id="1" precision="I64">
					<dim>1</dim>
				</port>
				<port id="2" precision="I64">
					<dim>1</dim>
				</port>
				<port id="3" precision="I64">
					<dim>1</dim>
				</port>
				<port id="4" precision="I64">
					<dim>1</dim>
				</port>
			</input>
			<output>
				<port id="5" precision="FP32" names="/emb_gru/Slice_1_output_0">
					<dim>1</dim>
					<dim>1</dim>
					<dim>256</dim>
				</port>
			</output>
		</layer>
		<layer id="175" name="Constant_6413" type="Const" version="opset1">
			<data element_type="i64" shape="3" offset="34920" size="24" />
			<rt_info>
				<attribute name="fused_names" version="0" value="Constant_6413" />
			</rt_info>
			<output>
				<port id="0" precision="I64">
					<dim>3</dim>
				</port>
			</output>
		</layer>
		<layer id="176" name="Transpose_6414" type="Transpose" version="opset1">
			<rt_info>
				<attribute name="fused_names" version="0" value="Transpose_6414" />
			</rt_info>
			<input>
				<port id="0" precision="FP32">
					<dim>1</dim>
					<dim>1</dim>
					<dim>256</dim>
				</port>
				<port id="1" precision="I64">
					<dim>3</dim>
				</port>
			</input>
			<output>
				<port id="2" precision="FP32">
					<dim>1</dim>
					<dim>1</dim>
					<dim>256</dim>
				</port>
			</output>
		</layer>
		<layer id="177" name="ShapeOf_6395" type="ShapeOf" version="opset3">
			<data output_type="i64" />
			<rt_info>
				<attribute name="fused_names" version="0" value="ShapeOf_6395" />
			</rt_info>
			<input>
				<port id="0" precision="FP32">
					<dim>1</dim>
					<dim>3002</dim>
					<dim>256</dim>
				</port>
			</input>
			<output>
				<port id="1" precision="I64">
					<dim>3</dim>
				</port>
			</output>
		</layer>
		<layer id="178" name="Constant_6399" type="Const" version="opset1">
			<data element_type="i32" shape="1" offset="34956" size="4" />
			<rt_info>
				<attribute name="fused_names" version="0" value="Constant_6399" />
			</rt_info>
			<output>
				<port id="0" precision="I32">
					<dim>1</dim>
				</port>
			</output>
		</layer>
		<layer id="179" name="Constant_6396" type="Const" version="opset1">
			<data element_type="i32" shape="1" offset="34944" size="4" />
			<rt_info>
				<attribute name="fused_names" version="0" value="Constant_6396" />
			</rt_info>
			<output>
				<port id="0" precision="I32">
					<dim>1</dim>
				</port>
			</output>
		</layer>
		<layer id="180" name="Gather_6400" type="Gather" version="opset8">
			<data batch_dims="0" />
			<rt_info>
				<attribute name="fused_names" version="0" value="Constant_6396, Gather_6400" />
			</rt_info>
			<input>
				<port id="0" precision="I64">
					<dim>3</dim>
				</port>
				<port id="1" precision="I32">
					<dim>1</dim>
				</port>
				<port id="2" precision="I32">
					<dim>1</dim>
				</port>
			</input>
			<output>
				<port id="3" precision="I64">
					<dim>1</dim>
				</port>
			</output>
		</layer>
		<layer id="181" name="Constant_6397" type="Const" version="opset1">
			<data element_type="i32" shape="1" offset="34944" size="4" />
			<rt_info>
				<attribute name="fused_names" version="0" value="Constant_6397" />
			</rt_info>
			<output>
				<port id="0" precision="I32">
					<dim>1</dim>
				</port>
			</output>
		</layer>
		<layer id="182" name="Gather_6398" type="Gather" version="opset8">
			<data batch_dims="0" />
			<rt_info>
				<attribute name="fused_names" version="0" value="Constant_6396, Constant_6397, Gather_6398" />
			</rt_info>
			<input>
				<port id="0" precision="I64">
					<dim>3</dim>
				</port>
				<port id="1" precision="I32">
					<dim>1</dim>
				</port>
				<port id="2" precision="I32">
					<dim>1</dim>
				</port>
			</input>
			<output>
				<port id="3" precision="I64">
					<dim>1</dim>
				</port>
			</output>
		</layer>
		<layer id="183" name="Broadcast_6409" type="Broadcast" version="opset3">
			<data mode="numpy" />
			<rt_info>
				<attribute name="fused_names" version="0" value="Broadcast_6409" />
			</rt_info>
			<input>
				<port id="0" precision="I64">
					<dim>1</dim>
				</port>
				<port id="1" precision="I64">
					<dim>1</dim>
				</port>
			</input>
			<output>
				<port id="2" precision="I64">
					<dim>1</dim>
				</port>
			</output>
		</layer>
		<layer id="184" name="/emb_gru/Constant_9" type="Const" version="opset1">
			<data element_type="f32" shape="1, 768, 256" offset="1614000" size="786432" />
			<rt_info>
				<attribute name="fused_names" version="0" value="/emb_gru/Constant_9" />
			</rt_info>
			<output>
				<port id="0" precision="FP32" names="/emb_gru/Constant_9_output_0">
					<dim>1</dim>
					<dim>768</dim>
					<dim>256</dim>
				</port>
			</output>
		</layer>
		<layer id="185" name="/emb_gru/Constant_10" type="Const" version="opset1">
			<data element_type="f32" shape="1, 768, 256" offset="2400432" size="786432" />
			<rt_info>
				<attribute name="fused_names" version="0" value="/emb_gru/Constant_10" />
			</rt_info>
			<output>
				<port id="0" precision="FP32" names="/emb_gru/Constant_10_output_0">
					<dim>1</dim>
					<dim>768</dim>
					<dim>256</dim>
				</port>
			</output>
		</layer>
		<layer id="186" name="/emb_gru/Constant_11" type="Const" version="opset1">
			<data element_type="f32" shape="1, 1536" offset="3186864" size="6144" />
			<rt_info>
				<attribute name="fused_names" version="0" value="/emb_gru/Constant_11" />
			</rt_info>
			<output>
				<port id="0" precision="FP32" names="/emb_gru/Constant_11_output_0">
					<dim>1</dim>
					<dim>1536</dim>
				</port>
			</output>
		</layer>
		<layer id="187" name="Constant_6416" type="Const" version="opset1">
			<data element_type="i64" shape="" offset="576" size="8" />
			<rt_info>
				<attribute name="fused_names" version="0" value="Constant_6416" />
			</rt_info>
			<output>
				<port id="0" precision="I64" />
			</output>
		</layer>
		<layer id="188" name="Split_6417" type="Split" version="opset1">
			<data num_splits="6" />
			<rt_info>
				<attribute name="fused_names" version="0" value="Split_6417" />
			</rt_info>
			<input>
				<port id="0" precision="FP32">
					<dim>1</dim>
					<dim>1536</dim>
				</port>
				<port id="1" precision="I64" />
			</input>
			<output>
				<port id="2" precision="FP32">
					<dim>1</dim>
					<dim>256</dim>
				</port>
				<port id="3" precision="FP32">
					<dim>1</dim>
					<dim>256</dim>
				</port>
				<port id="4" precision="FP32">
					<dim>1</dim>
					<dim>256</dim>
				</port>
				<port id="5" precision="FP32">
					<dim>1</dim>
					<dim>256</dim>
				</port>
				<port id="6" precision="FP32">
					<dim>1</dim>
					<dim>256</dim>
				</port>
				<port id="7" precision="FP32">
					<dim>1</dim>
					<dim>256</dim>
				</port>
			</output>
		</layer>
		<layer id="189" name="Add_6418" type="Add" version="opset1">
			<data auto_broadcast="numpy" />
			<rt_info>
				<attribute name="fused_names" version="0" value="Add_6418" />
			</rt_info>
			<input>
				<port id="0" precision="FP32">
					<dim>1</dim>
					<dim>256</dim>
				</port>
				<port id="1" precision="FP32">
					<dim>1</dim>
					<dim>256</dim>
				</port>
			</input>
			<output>
				<port id="2" precision="FP32">
					<dim>1</dim>
					<dim>256</dim>
				</port>
			</output>
		</layer>
		<layer id="190" name="Add_6419" type="Add" version="opset1">
			<data auto_broadcast="numpy" />
			<rt_info>
				<attribute name="fused_names" version="0" value="Add_6419" />
			</rt_info>
			<input>
				<port id="0" precision="FP32">
					<dim>1</dim>
					<dim>256</dim>
				</port>
				<port id="1" precision="FP32">
					<dim>1</dim>
					<dim>256</dim>
				</port>
			</input>
			<output>
				<port id="2" precision="FP32">
					<dim>1</dim>
					<dim>256</dim>
				</port>
			</output>
		</layer>
		<layer id="191" name="Concat_6420" type="Concat" version="opset1">
			<data axis="1" />
			<rt_info>
				<attribute name="fused_names" version="0" value="Concat_6420" />
			</rt_info>
			<input>
				<port id="0" precision="FP32">
					<dim>1</dim>
					<dim>256</dim>
				</port>
				<port id="1" precision="FP32">
					<dim>1</dim>
					<dim>256</dim>
				</port>
				<port id="2" precision="FP32">
					<dim>1</dim>
					<dim>256</dim>
				</port>
				<port id="3" precision="FP32">
					<dim>1</dim>
					<dim>256</dim>
				</port>
			</input>
			<output>
				<port id="4" precision="FP32">
					<dim>1</dim>
					<dim>1024</dim>
				</port>
			</output>
		</layer>
		<layer id="192" name="GRUSequence_6421" type="GRUSequence" version="opset5">
			<data direction="forward" linear_before_reset="true" hidden_size="256" activations="sigmoid, tanh" activations_alpha="" activations_beta="" clip="0" />
			<rt_info>
				<attribute name="fused_names" version="0" value="GRUSequence_6421" />
			</rt_info>
			<input>
				<port id="0" precision="FP32">
					<dim>1</dim>
					<dim>3002</dim>
					<dim>256</dim>
				</port>
				<port id="1" precision="FP32">
					<dim>1</dim>
					<dim>1</dim>
					<dim>256</dim>
				</port>
				<port id="2" precision="I64">
					<dim>1</dim>
				</port>
				<port id="3" precision="FP32">
					<dim>1</dim>
					<dim>768</dim>
					<dim>256</dim>
				</port>
				<port id="4" precision="FP32">
					<dim>1</dim>
					<dim>768</dim>
					<dim>256</dim>
				</port>
				<port id="5" precision="FP32">
					<dim>1</dim>
					<dim>1024</dim>
				</port>
			</input>
			<output>
				<port id="6" precision="FP32">
					<dim>1</dim>
					<dim>1</dim>
					<dim>3002</dim>
					<dim>256</dim>
				</port>
				<port id="7" precision="FP32">
					<dim>1</dim>
					<dim>1</dim>
					<dim>256</dim>
				</port>
			</output>
		</layer>
		<layer id="193" name="Constant_6422" type="Const" version="opset1">
			<data element_type="i64" shape="4" offset="1613968" size="32" />
			<rt_info>
				<attribute name="fused_names" version="0" value="Constant_6422" />
			</rt_info>
			<output>
				<port id="0" precision="I64">
					<dim>4</dim>
				</port>
			</output>
		</layer>
		<layer id="194" name="/emb_gru/GRU_1_/emb_gru/GRU_1_output_0" type="Transpose" version="opset1">
			<rt_info>
				<attribute name="fused_names" version="0" value="/emb_gru/GRU_1_/emb_gru/GRU_1_output_0" />
			</rt_info>
			<input>
				<port id="0" precision="FP32">
					<dim>1</dim>
					<dim>1</dim>
					<dim>3002</dim>
					<dim>256</dim>
				</port>
				<port id="1" precision="I64">
					<dim>4</dim>
				</port>
			</input>
			<output>
				<port id="2" precision="FP32" names="/emb_gru/GRU_1_output_0">
					<dim>3002</dim>
					<dim>1</dim>
					<dim>1</dim>
					<dim>256</dim>
				</port>
			</output>
		</layer>
		<layer id="195" name="Constant_6426" type="Const" version="opset1">
			<data element_type="i64" shape="1" offset="576" size="8" />
			<rt_info>
				<attribute name="fused_names" version="0" value="Constant_6426" />
			</rt_info>
			<output>
				<port id="0" precision="I64">
					<dim>1</dim>
				</port>
			</output>
		</layer>
		<layer id="196" name="/emb_gru/Squeeze_1" type="Squeeze" version="opset1">
			<rt_info>
				<attribute name="fused_names" version="0" value="/emb_gru/Squeeze_1" />
			</rt_info>
			<input>
				<port id="0" precision="FP32">
					<dim>3002</dim>
					<dim>1</dim>
					<dim>1</dim>
					<dim>256</dim>
				</port>
				<port id="1" precision="I64">
					<dim>1</dim>
				</port>
			</input>
			<output>
				<port id="2" precision="FP32" names="/emb_gru/Squeeze_1_output_0">
					<dim>3002</dim>
					<dim>1</dim>
					<dim>256</dim>
				</port>
			</output>
		</layer>
		<layer id="197" name="Constant_6428" type="Const" version="opset1">
			<data element_type="i64" shape="3" offset="34920" size="24" />
			<rt_info>
				<attribute name="fused_names" version="0" value="Constant_6428" />
			</rt_info>
			<output>
				<port id="0" precision="I64">
					<dim>3</dim>
				</port>
			</output>
		</layer>
		<layer id="198" name="/emb_gru/Transpose_1" type="Transpose" version="opset1">
			<rt_info>
				<attribute name="fused_names" version="0" value="/emb_gru/Transpose_1" />
			</rt_info>
			<input>
				<port id="0" precision="FP32">
					<dim>3002</dim>
					<dim>1</dim>
					<dim>256</dim>
				</port>
				<port id="1" precision="I64">
					<dim>3</dim>
				</port>
			</input>
			<output>
				<port id="2" precision="FP32" names="/emb_gru/Transpose_1_output_0">
					<dim>1</dim>
					<dim>3002</dim>
					<dim>256</dim>
				</port>
			</output>
		</layer>
		<layer id="199" name="/emb_gru/linear_out/Shape" type="ShapeOf" version="opset3">
			<data output_type="i64" />
			<rt_info>
				<attribute name="fused_names" version="0" value="/emb_gru/linear_out/Shape" />
			</rt_info>
			<input>
				<port id="0" precision="FP32">
					<dim>1</dim>
					<dim>3002</dim>
					<dim>256</dim>
				</port>
			</input>
			<output>
				<port id="1" precision="I64" names="/emb_gru/linear_out/Shape_output_0">
					<dim>3</dim>
				</port>
			</output>
		</layer>
		<layer id="200" name="Constant_57" type="Const" version="opset1">
			<data element_type="i64" shape="" offset="296" size="8" />
			<rt_info>
				<attribute name="fused_names" version="0" value="Constant_57" />
			</rt_info>
			<output>
				<port id="0" precision="I64" names="onnx::Gather_229" />
			</output>
		</layer>
		<layer id="201" name="Constant_6432" type="Const" version="opset1">
			<data element_type="i64" shape="" offset="296" size="8" />
			<rt_info>
				<attribute name="fused_names" version="0" value="Constant_6432" />
			</rt_info>
			<output>
				<port id="0" precision="I64" />
			</output>
		</layer>
		<layer id="202" name="/emb_gru/linear_out/Gather" type="Gather" version="opset8">
			<data batch_dims="0" />
			<rt_info>
				<attribute name="fused_names" version="0" value="/emb_gru/linear_out/Gather, Constant_57, Constant_6432" />
			</rt_info>
			<input>
				<port id="0" precision="I64">
					<dim>3</dim>
				</port>
				<port id="1" precision="I64" />
				<port id="2" precision="I64" />
			</input>
			<output>
				<port id="3" precision="I64" names="/emb_gru/linear_out/Gather_output_0" />
			</output>
		</layer>
		<layer id="203" name="Constant_6437" type="Const" version="opset1">
			<data element_type="i64" shape="1" offset="296" size="8" />
			<rt_info>
				<attribute name="fused_names" version="0" value="Constant_6437" />
			</rt_info>
			<output>
				<port id="0" precision="I64">
					<dim>1</dim>
				</port>
			</output>
		</layer>
		<layer id="204" name="/emb_gru/linear_out/Unsqueeze" type="Unsqueeze" version="opset1">
			<rt_info>
				<attribute name="fused_names" version="0" value="/emb_gru/linear_out/Unsqueeze, Constant_6437" />
			</rt_info>
			<input>
				<port id="0" precision="I64" />
				<port id="1" precision="I64">
					<dim>1</dim>
				</port>
			</input>
			<output>
				<port id="2" precision="I64" names="/emb_gru/linear_out/Unsqueeze_output_0">
					<dim>1</dim>
				</port>
			</output>
		</layer>
		<layer id="205" name="Constant_59" type="Const" version="opset1">
			<data element_type="i64" shape="" offset="576" size="8" />
			<rt_info>
				<attribute name="fused_names" version="0" value="Constant_59" />
			</rt_info>
			<output>
				<port id="0" precision="I64" names="onnx::Gather_231" />
			</output>
		</layer>
		<layer id="206" name="Constant_6435" type="Const" version="opset1">
			<data element_type="i64" shape="" offset="296" size="8" />
			<rt_info>
				<attribute name="fused_names" version="0" value="Constant_6435" />
			</rt_info>
			<output>
				<port id="0" precision="I64" />
			</output>
		</layer>
		<layer id="207" name="/emb_gru/linear_out/Gather_1" type="Gather" version="opset8">
			<data batch_dims="0" />
			<rt_info>
				<attribute name="fused_names" version="0" value="/emb_gru/linear_out/Gather_1, Constant_59, Constant_6435" />
			</rt_info>
			<input>
				<port id="0" precision="I64">
					<dim>3</dim>
				</port>
				<port id="1" precision="I64" />
				<port id="2" precision="I64" />
			</input>
			<output>
				<port id="3" precision="I64" names="/emb_gru/linear_out/Gather_1_output_0" />
			</output>
		</layer>
		<layer id="208" name="Constant_6439" type="Const" version="opset1">
			<data element_type="i64" shape="1" offset="296" size="8" />
			<rt_info>
				<attribute name="fused_names" version="0" value="Constant_6439" />
			</rt_info>
			<output>
				<port id="0" precision="I64">
					<dim>1</dim>
				</port>
			</output>
		</layer>
		<layer id="209" name="/emb_gru/linear_out/Unsqueeze_1" type="Unsqueeze" version="opset1">
			<rt_info>
				<attribute name="fused_names" version="0" value="/emb_gru/linear_out/Unsqueeze_1, Constant_6439" />
			</rt_info>
			<input>
				<port id="0" precision="I64" />
				<port id="1" precision="I64">
					<dim>1</dim>
				</port>
			</input>
			<output>
				<port id="2" precision="I64" names="/emb_gru/linear_out/Unsqueeze_1_output_0">
					<dim>1</dim>
				</port>
			</output>
		</layer>
		<layer id="210" name="/emb_gru/linear_out/Constant" type="Const" version="opset1">
			<data element_type="i64" shape="1" offset="2128" size="8" />
			<rt_info>
				<attribute name="fused_names" version="0" value="/emb_gru/linear_out/Constant" />
			</rt_info>
			<output>
				<port id="0" precision="I64" names="/emb_gru/linear_out/Constant_output_0">
					<dim>1</dim>
				</port>
			</output>
		</layer>
		<layer id="211" name="/emb_gru/linear_out/Constant_1" type="Const" version="opset1">
			<data element_type="i64" shape="1" offset="2128" size="8" />
			<rt_info>
				<attribute name="fused_names" version="0" value="/emb_gru/linear_out/Constant_1" />
			</rt_info>
			<output>
				<port id="0" precision="I64" names="/emb_gru/linear_out/Constant_1_output_0">
					<dim>1</dim>
				</port>
			</output>
		</layer>
		<layer id="212" name="/emb_gru/linear_out/Concat" type="Concat" version="opset1">
			<data axis="0" />
			<rt_info>
				<attribute name="fused_names" version="0" value="/emb_gru/linear_out/Concat, /emb_gru/linear_out/Constant, /emb_gru/linear_out/Constant_1" />
			</rt_info>
			<input>
				<port id="0" precision="I64">
					<dim>1</dim>
				</port>
				<port id="1" precision="I64">
					<dim>1</dim>
				</port>
				<port id="2" precision="I64">
					<dim>1</dim>
				</port>
				<port id="3" precision="I64">
					<dim>1</dim>
				</port>
			</input>
			<output>
				<port id="4" precision="I64" names="/emb_gru/linear_out/Concat_output_0">
					<dim>4</dim>
				</port>
			</output>
		</layer>
		<layer id="213" name="/emb_gru/linear_out/Reshape" type="Reshape" version="opset1">
			<data special_zero="true" />
			<rt_info>
				<attribute name="fused_names" version="0" value="/emb_gru/linear_out/Reshape" />
			</rt_info>
			<input>
				<port id="0" precision="FP32">
					<dim>1</dim>
					<dim>3002</dim>
					<dim>256</dim>
				</port>
				<port id="1" precision="I64">
					<dim>4</dim>
				</port>
			</input>
			<output>
				<port id="2" precision="FP32" names="/emb_gru/linear_out/Reshape_output_0">
					<dim>1</dim>
					<dim>3002</dim>
					<dim>16</dim>
					<dim>16</dim>
				</port>
			</output>
		</layer>
		<layer id="214" name="emb_gru.linear_out.0.weight" type="Const" version="opset1">
			<data element_type="f32" shape="16, 16, 32" offset="3193008" size="32768" />
			<rt_info>
				<attribute name="fused_names" version="0" value="emb_gru.linear_out.0.weight" />
			</rt_info>
			<output>
				<port id="0" precision="FP32" names="emb_gru.linear_out.0.weight">
					<dim>16</dim>
					<dim>16</dim>
					<dim>32</dim>
				</port>
			</output>
		</layer>
		<layer id="215" name="/emb_gru/linear_out/Einsum" type="Einsum" version="opset7">
			<data equation="btgi,gih->btgh" />
			<rt_info>
				<attribute name="fused_names" version="0" value="/emb_gru/linear_out/Einsum" />
			</rt_info>
			<input>
				<port id="0" precision="FP32">
					<dim>1</dim>
					<dim>3002</dim>
					<dim>16</dim>
					<dim>16</dim>
				</port>
				<port id="1" precision="FP32">
					<dim>16</dim>
					<dim>16</dim>
					<dim>32</dim>
				</port>
			</input>
			<output>
				<port id="2" precision="FP32" names="/emb_gru/linear_out/Einsum_output_0">
					<dim>1</dim>
					<dim>3002</dim>
					<dim>16</dim>
					<dim>32</dim>
				</port>
			</output>
		</layer>
		<layer id="216" name="/emb_gru/linear_out/Shape_1" type="ShapeOf" version="opset3">
			<data output_type="i64" />
			<rt_info>
				<attribute name="fused_names" version="0" value="/emb_gru/linear_out/Shape_1" />
			</rt_info>
			<input>
				<port id="0" precision="FP32">
					<dim>1</dim>
					<dim>3002</dim>
					<dim>16</dim>
					<dim>32</dim>
				</port>
			</input>
			<output>
				<port id="1" precision="I64" names="/emb_gru/linear_out/Shape_1_output_0">
					<dim>4</dim>
				</port>
			</output>
		</layer>
		<layer id="217" name="/emb_gru/linear_out/Constant_3" type="Const" version="opset1">
			<data element_type="i64" shape="1" offset="296" size="8" />
			<rt_info>
				<attribute name="fused_names" version="0" value="/emb_gru/linear_out/Constant_3" />
			</rt_info>
			<output>
				<port id="0" precision="I64" names="/emb_gru/linear_out/Constant_3_output_0">
					<dim>1</dim>
				</port>
			</output>
		</layer>
		<layer id="218" name="/emb_gru/linear_out/Constant_4" type="Const" version="opset1">
			<data element_type="i64" shape="1" offset="584" size="8" />
			<rt_info>
				<attribute name="fused_names" version="0" value="/emb_gru/linear_out/Constant_4" />
			</rt_info>
			<output>
				<port id="0" precision="I64" names="/emb_gru/linear_out/Constant_4_output_0">
					<dim>1</dim>
				</port>
			</output>
		</layer>
		<layer id="219" name="Constant_6451" type="Const" version="opset1">
			<data element_type="i64" shape="1" offset="576" size="8" />
			<rt_info>
				<attribute name="fused_names" version="0" value="Constant_6451" />
			</rt_info>
			<output>
				<port id="0" precision="I64">
					<dim>1</dim>
				</port>
			</output>
		</layer>
		<layer id="220" name="ShapeOf_6452" type="Const" version="opset1">
			<data element_type="i64" shape="1" offset="576" size="8" />
			<rt_info>
				<attribute name="fused_names" version="0" value="ShapeOf_6452" />
			</rt_info>
			<output>
				<port id="0" precision="I64">
					<dim>1</dim>
				</port>
			</output>
		</layer>
		<layer id="221" name="Broadcast_6453" type="Broadcast" version="opset3">
			<data mode="numpy" />
			<rt_info>
				<attribute name="fused_names" version="0" value="Broadcast_6453, Constant_6451, ShapeOf_6452" />
			</rt_info>
			<input>
				<port id="0" precision="I64">
					<dim>1</dim>
				</port>
				<port id="1" precision="I64">
					<dim>1</dim>
				</port>
			</input>
			<output>
				<port id="2" precision="I64">
					<dim>1</dim>
				</port>
			</output>
		</layer>
		<layer id="222" name="/emb_gru/linear_out/Constant_2" type="Const" version="opset1">
			<data element_type="i64" shape="1" offset="296" size="8" />
			<rt_info>
				<attribute name="fused_names" version="0" value="/emb_gru/linear_out/Constant_2" />
			</rt_info>
			<output>
				<port id="0" precision="I64" names="/emb_gru/linear_out/Constant_2_output_0">
					<dim>1</dim>
				</port>
			</output>
		</layer>
		<layer id="223" name="/emb_gru/linear_out/Slice" type="Slice" version="opset8">
			<rt_info>
				<attribute name="fused_names" version="0" value="/emb_gru/linear_out/Constant_2, /emb_gru/linear_out/Constant_3, /emb_gru/linear_out/Constant_4, /emb_gru/linear_out/Slice" />
			</rt_info>
			<input>
				<port id="0" precision="I64">
					<dim>4</dim>
				</port>
				<port id="1" precision="I64">
					<dim>1</dim>
				</port>
				<port id="2" precision="I64">
					<dim>1</dim>
				</port>
				<port id="3" precision="I64">
					<dim>1</dim>
				</port>
				<port id="4" precision="I64">
					<dim>1</dim>
				</port>
			</input>
			<output>
				<port id="5" precision="I64" names="/emb_gru/linear_out/Slice_output_0">
					<dim>2</dim>
				</port>
			</output>
		</layer>
		<layer id="224" name="/emb_gru/linear_out/Constant_5" type="Const" version="opset1">
			<data element_type="i64" shape="1" offset="34912" size="8" />
			<rt_info>
				<attribute name="fused_names" version="0" value="/emb_gru/linear_out/Constant_5" />
			</rt_info>
			<output>
				<port id="0" precision="I64" names="/emb_gru/linear_out/Constant_5_output_0">
					<dim>1</dim>
				</port>
			</output>
		</layer>
		<layer id="225" name="/emb_gru/linear_out/Concat_1" type="Concat" version="opset1">
			<data axis="0" />
			<rt_info>
				<attribute name="fused_names" version="0" value="/emb_gru/linear_out/Concat_1, /emb_gru/linear_out/Constant_5" />
			</rt_info>
			<input>
				<port id="0" precision="I64">
					<dim>2</dim>
				</port>
				<port id="1" precision="I64">
					<dim>1</dim>
				</port>
			</input>
			<output>
				<port id="2" precision="I64" names="/emb_gru/linear_out/Concat_1_output_0">
					<dim>3</dim>
				</port>
			</output>
		</layer>
		<layer id="226" name="/emb_gru/linear_out/Reshape_1" type="Reshape" version="opset1">
			<data special_zero="true" />
			<rt_info>
				<attribute name="fused_names" version="0" value="/emb_gru/linear_out/Reshape_1" />
			</rt_info>
			<input>
				<port id="0" precision="FP32">
					<dim>1</dim>
					<dim>3002</dim>
					<dim>16</dim>
					<dim>32</dim>
				</port>
				<port id="1" precision="I64">
					<dim>3</dim>
				</port>
			</input>
			<output>
				<port id="2" precision="FP32" names="/emb_gru/linear_out/Reshape_1_output_0">
					<dim>1</dim>
					<dim>3002</dim>
					<dim>512</dim>
				</port>
			</output>
		</layer>
		<layer id="227" name="/emb_gru/linear_out/Relu" type="ReLU" version="opset1">
			<rt_info>
				<attribute name="fused_names" version="0" value="/emb_gru/linear_out/Relu" />
			</rt_info>
			<input>
				<port id="0" precision="FP32">
					<dim>1</dim>
					<dim>3002</dim>
					<dim>512</dim>
				</port>
			</input>
			<output>
				<port id="1" precision="FP32" names="/emb_gru/linear_out/Relu_output_0">
					<dim>1</dim>
					<dim>3002</dim>
					<dim>512</dim>
				</port>
			</output>
		</layer>
		<layer id="228" name="/Shape" type="ShapeOf" version="opset3">
			<data output_type="i64" />
			<rt_info>
				<attribute name="fused_names" version="0" value="/Shape" />
			</rt_info>
			<input>
				<port id="0" precision="FP32">
					<dim>1</dim>
					<dim>64</dim>
					<dim>3002</dim>
					<dim>8</dim>
				</port>
			</input>
			<output>
				<port id="1" precision="I64" names="/Shape_output_0">
					<dim>4</dim>
				</port>
			</output>
		</layer>
		<layer id="229" name="Constant_1" type="Const" version="opset1">
			<data element_type="i64" shape="" offset="296" size="8" />
			<rt_info>
				<attribute name="fused_names" version="0" value="Constant_1" />
			</rt_info>
			<output>
				<port id="0" precision="I64" names="onnx::Gather_64" />
			</output>
		</layer>
		<layer id="230" name="Constant_6265" type="Const" version="opset1">
			<data element_type="i64" shape="" offset="296" size="8" />
			<rt_info>
				<attribute name="fused_names" version="0" value="Constant_6265" />
			</rt_info>
			<output>
				<port id="0" precision="I64" />
			</output>
		</layer>
		<layer id="231" name="/Gather" type="Gather" version="opset8">
			<data batch_dims="0" />
			<rt_info>
				<attribute name="fused_names" version="0" value="/Gather, Constant_1, Constant_6265" />
			</rt_info>
			<input>
				<port id="0" precision="I64">
					<dim>4</dim>
				</port>
				<port id="1" precision="I64" />
				<port id="2" precision="I64" />
			</input>
			<output>
				<port id="3" precision="I64" names="/Gather_output_0" />
			</output>
		</layer>
		<layer id="232" name="Constant_6466" type="Const" version="opset1">
			<data element_type="i64" shape="1" offset="296" size="8" />
			<rt_info>
				<attribute name="fused_names" version="0" value="Constant_6466" />
			</rt_info>
			<output>
				<port id="0" precision="I64">
					<dim>1</dim>
				</port>
			</output>
		</layer>
		<layer id="233" name="/Unsqueeze" type="Unsqueeze" version="opset1">
			<rt_info>
				<attribute name="fused_names" version="0" value="/Unsqueeze, Constant_6466" />
			</rt_info>
			<input>
				<port id="0" precision="I64" />
				<port id="1" precision="I64">
					<dim>1</dim>
				</port>
			</input>
			<output>
				<port id="2" precision="I64" names="/Unsqueeze_output_0">
					<dim>1</dim>
				</port>
			</output>
		</layer>
		<layer id="234" name="Constant_3" type="Const" version="opset1">
			<data element_type="i64" shape="" offset="584" size="8" />
			<rt_info>
				<attribute name="fused_names" version="0" value="Constant_3" />
			</rt_info>
			<output>
				<port id="0" precision="I64" names="onnx::Gather_66" />
			</output>
		</layer>
		<layer id="235" name="Constant_6268" type="Const" version="opset1">
			<data element_type="i64" shape="" offset="296" size="8" />
			<rt_info>
				<attribute name="fused_names" version="0" value="Constant_6268" />
			</rt_info>
			<output>
				<port id="0" precision="I64" />
			</output>
		</layer>
		<layer id="236" name="/Gather_1" type="Gather" version="opset8">
			<data batch_dims="0" />
			<rt_info>
				<attribute name="fused_names" version="0" value="/Gather_1, Constant_3, Constant_6268" />
			</rt_info>
			<input>
				<port id="0" precision="I64">
					<dim>4</dim>
				</port>
				<port id="1" precision="I64" />
				<port id="2" precision="I64" />
			</input>
			<output>
				<port id="3" precision="I64" names="/Gather_1_output_0" />
			</output>
		</layer>
		<layer id="237" name="Constant_6468" type="Const" version="opset1">
			<data element_type="i64" shape="1" offset="296" size="8" />
			<rt_info>
				<attribute name="fused_names" version="0" value="Constant_6468" />
			</rt_info>
			<output>
				<port id="0" precision="I64">
					<dim>1</dim>
				</port>
			</output>
		</layer>
		<layer id="238" name="/Unsqueeze_1" type="Unsqueeze" version="opset1">
			<rt_info>
				<attribute name="fused_names" version="0" value="/Unsqueeze_1, Constant_6468" />
			</rt_info>
			<input>
				<port id="0" precision="I64" />
				<port id="1" precision="I64">
					<dim>1</dim>
				</port>
			</input>
			<output>
				<port id="2" precision="I64" names="/Unsqueeze_1_output_0">
					<dim>1</dim>
				</port>
			</output>
		</layer>
		<layer id="239" name="Constant_5" type="Const" version="opset1">
			<data element_type="i64" shape="" offset="3225776" size="8" />
			<rt_info>
				<attribute name="fused_names" version="0" value="Constant_5" />
			</rt_info>
			<output>
				<port id="0" precision="I64" names="onnx::Gather_68" />
			</output>
		</layer>
		<layer id="240" name="Constant_6271" type="Const" version="opset1">
			<data element_type="i64" shape="" offset="296" size="8" />
			<rt_info>
				<attribute name="fused_names" version="0" value="Constant_6271" />
			</rt_info>
			<output>
				<port id="0" precision="I64" />
			</output>
		</layer>
		<layer id="241" name="/Gather_2" type="Gather" version="opset8">
			<data batch_dims="0" />
			<rt_info>
				<attribute name="fused_names" version="0" value="/Gather_2, Constant_5, Constant_6271" />
			</rt_info>
			<input>
				<port id="0" precision="I64">
					<dim>4</dim>
				</port>
				<port id="1" precision="I64" />
				<port id="2" precision="I64" />
			</input>
			<output>
				<port id="3" precision="I64" names="/Gather_2_output_0" />
			</output>
		</layer>
		<layer id="242" name="Constant_6470" type="Const" version="opset1">
			<data element_type="i64" shape="1" offset="296" size="8" />
			<rt_info>
				<attribute name="fused_names" version="0" value="Constant_6470" />
			</rt_info>
			<output>
				<port id="0" precision="I64">
					<dim>1</dim>
				</port>
			</output>
		</layer>
		<layer id="243" name="/Unsqueeze_2" type="Unsqueeze" version="opset1">
			<rt_info>
				<attribute name="fused_names" version="0" value="/Unsqueeze_2, Constant_6470" />
			</rt_info>
			<input>
				<port id="0" precision="I64" />
				<port id="1" precision="I64">
					<dim>1</dim>
				</port>
			</input>
			<output>
				<port id="2" precision="I64" names="/Unsqueeze_2_output_0">
					<dim>1</dim>
				</port>
			</output>
		</layer>
		<layer id="244" name="/Constant" type="Const" version="opset1">
			<data element_type="i64" shape="1" offset="34912" size="8" />
			<rt_info>
				<attribute name="fused_names" version="0" value="/Constant" />
			</rt_info>
			<output>
				<port id="0" precision="I64" names="/Constant_output_0">
					<dim>1</dim>
				</port>
			</output>
		</layer>
		<layer id="245" name="/Concat" type="Concat" version="opset1">
			<data axis="0" />
			<rt_info>
				<attribute name="fused_names" version="0" value="/Concat, /Constant" />
			</rt_info>
			<input>
				<port id="0" precision="I64">
					<dim>1</dim>
				</port>
				<port id="1" precision="I64">
					<dim>1</dim>
				</port>
				<port id="2" precision="I64">
					<dim>1</dim>
				</port>
				<port id="3" precision="I64">
					<dim>1</dim>
				</port>
			</input>
			<output>
				<port id="4" precision="I64" names="/Concat_output_0">
					<dim>4</dim>
				</port>
			</output>
		</layer>
		<layer id="246" name="/Reshape" type="Reshape" version="opset1">
			<data special_zero="true" />
			<rt_info>
				<attribute name="fused_names" version="0" value="/Reshape" />
			</rt_info>
			<input>
				<port id="0" precision="FP32">
					<dim>1</dim>
					<dim>3002</dim>
					<dim>512</dim>
				</port>
				<port id="1" precision="I64">
					<dim>4</dim>
				</port>
			</input>
			<output>
				<port id="2" precision="FP32" names="/Reshape_output_0">
					<dim>1</dim>
					<dim>3002</dim>
					<dim>8</dim>
					<dim>64</dim>
				</port>
			</output>
		</layer>
		<layer id="247" name="Constant_6476" type="Const" version="opset1">
			<data element_type="i64" shape="4" offset="3225784" size="32" />
			<rt_info>
				<attribute name="fused_names" version="0" value="Constant_6476" />
			</rt_info>
			<output>
				<port id="0" precision="I64">
					<dim>4</dim>
				</port>
			</output>
		</layer>
		<layer id="248" name="/Transpose" type="Transpose" version="opset1">
			<rt_info>
				<attribute name="fused_names" version="0" value="/Transpose" />
			</rt_info>
			<input>
				<port id="0" precision="FP32">
					<dim>1</dim>
					<dim>3002</dim>
					<dim>8</dim>
					<dim>64</dim>
				</port>
				<port id="1" precision="I64">
					<dim>4</dim>
				</port>
			</input>
			<output>
				<port id="2" precision="FP32" names="/Transpose_output_0">
					<dim>1</dim>
					<dim>64</dim>
					<dim>3002</dim>
					<dim>8</dim>
				</port>
			</output>
		</layer>
		<layer id="249" name="/Add" type="Add" version="opset1">
			<data auto_broadcast="numpy" />
			<rt_info>
				<attribute name="fused_names" version="0" value="/Add" />
			</rt_info>
			<input>
				<port id="0" precision="FP32">
					<dim>1</dim>
					<dim>64</dim>
					<dim>3002</dim>
					<dim>8</dim>
				</port>
				<port id="1" precision="FP32">
					<dim>1</dim>
					<dim>64</dim>
					<dim>3002</dim>
					<dim>8</dim>
				</port>
			</input>
			<output>
				<port id="2" precision="FP32" names="/Add_output_0">
					<dim>1</dim>
					<dim>64</dim>
					<dim>3002</dim>
					<dim>8</dim>
				</port>
			</output>
		</layer>
		<layer id="250" name="convt3.0.weight" type="Const" version="opset1">
			<data element_type="f32" shape="64, 1, 1, 3" offset="3225816" size="768" />
			<rt_info>
				<attribute name="fused_names" version="0" value="convt3.0.weight" />
			</rt_info>
			<output>
				<port id="0" precision="FP32" names="convt3.0.weight">
					<dim>64</dim>
					<dim>1</dim>
					<dim>1</dim>
					<dim>3</dim>
				</port>
			</output>
		</layer>
		<layer id="251" name="Constant_6546" type="Const" version="opset1">
			<data element_type="i64" shape="1" offset="256" size="8" />
			<rt_info>
				<attribute name="fused_names" version="0" value="Constant_6546" />
			</rt_info>
			<output>
				<port id="0" precision="I64">
					<dim>1</dim>
				</port>
			</output>
		</layer>
		<layer id="252" name="ShapeOf_6547" type="Const" version="opset1">
			<data element_type="i64" shape="4" offset="3226584" size="32" />
			<rt_info>
				<attribute name="fused_names" version="0" value="ShapeOf_6547" />
			</rt_info>
			<output>
				<port id="0" precision="I64">
					<dim>4</dim>
				</port>
			</output>
		</layer>
		<layer id="253" name="Constant_6544" type="Const" version="opset1">
			<data element_type="i64" shape="" offset="296" size="8" />
			<rt_info>
				<attribute name="fused_names" version="0" value="Constant_6544" />
			</rt_info>
			<output>
				<port id="0" precision="I64" />
			</output>
		</layer>
		<layer id="254" name="Constant_6545" type="Const" version="opset1">
			<data element_type="i64" shape="2" offset="304" size="16" />
			<rt_info>
				<attribute name="fused_names" version="0" value="Constant_6545" />
			</rt_info>
			<output>
				<port id="0" precision="I64">
					<dim>2</dim>
				</port>
			</output>
		</layer>
		<layer id="255" name="VariadicSplit_6548" type="VariadicSplit" version="opset1">
			<rt_info>
				<attribute name="fused_names" version="0" value="Constant_6544, Constant_6545, ShapeOf_6547, VariadicSplit_6548" />
			</rt_info>
			<input>
				<port id="0" precision="I64">
					<dim>4</dim>
				</port>
				<port id="1" precision="I64" />
				<port id="2" precision="I64">
					<dim>2</dim>
				</port>
			</input>
			<output>
				<port id="3" precision="I64">
					<dim>1</dim>
				</port>
				<port id="4" precision="I64">
					<dim>3</dim>
				</port>
			</output>
		</layer>
		<layer id="256" name="Divide_6549" type="Divide" version="opset1">
			<data auto_broadcast="numpy" m_pythondiv="true" />
			<rt_info>
				<attribute name="fused_names" version="0" value="Constant_6546, Divide_6549" />
			</rt_info>
			<input>
				<port id="0" precision="I64">
					<dim>1</dim>
				</port>
				<port id="1" precision="I64">
					<dim>1</dim>
				</port>
			</input>
			<output>
				<port id="2" precision="I64">
					<dim>1</dim>
				</port>
			</output>
		</layer>
		<layer id="257" name="Concat_6550" type="Concat" version="opset1">
			<data axis="0" />
			<rt_info>
				<attribute name="fused_names" version="0" value="Concat_6550, Constant_6546" />
			</rt_info>
			<input>
				<port id="0" precision="I64">
					<dim>1</dim>
				</port>
				<port id="1" precision="I64">
					<dim>1</dim>
				</port>
				<port id="2" precision="I64">
					<dim>3</dim>
				</port>
			</input>
			<output>
				<port id="3" precision="I64">
					<dim>5</dim>
				</port>
			</output>
		</layer>
		<layer id="258" name="Reshape_6551" type="Reshape" version="opset1">
			<data special_zero="false" />
			<rt_info>
				<attribute name="fused_names" version="0" value="Reshape_6551" />
			</rt_info>
			<input>
				<port id="0" precision="FP32">
					<dim>64</dim>
					<dim>1</dim>
					<dim>1</dim>
					<dim>3</dim>
				</port>
				<port id="1" precision="I64">
					<dim>5</dim>
				</port>
			</input>
			<output>
				<port id="2" precision="FP32">
					<dim>64</dim>
					<dim>1</dim>
					<dim>1</dim>
					<dim>1</dim>
					<dim>3</dim>
				</port>
			</output>
		</layer>
		<layer id="259" name="/convt3/Conv" type="GroupConvolution" version="opset1">
			<data strides="1, 1" pads_begin="0, 1" pads_end="0, 1" dilations="1, 1" auto_pad="explicit" />
			<rt_info>
				<attribute name="fused_names" version="0" value="/convt3/Conv" />
			</rt_info>
			<input>
				<port id="0" precision="FP32">
					<dim>1</dim>
					<dim>64</dim>
					<dim>3002</dim>
					<dim>8</dim>
				</port>
				<port id="1" precision="FP32">
					<dim>64</dim>
					<dim>1</dim>
					<dim>1</dim>
					<dim>1</dim>
					<dim>3</dim>
				</port>
			</input>
			<output>
				<port id="2" precision="FP32" names="/convt3/Conv_output_0">
					<dim>1</dim>
					<dim>64</dim>
					<dim>3002</dim>
					<dim>8</dim>
				</port>
			</output>
		</layer>
		<layer id="260" name="onnx::Conv_291" type="Const" version="opset1">
			<data element_type="f32" shape="64, 64, 1, 1" offset="3226616" size="16384" />
			<rt_info>
				<attribute name="fused_names" version="0" value="onnx::Conv_291" />
			</rt_info>
			<output>
				<port id="0" precision="FP32" names="onnx::Conv_291">
					<dim>64</dim>
					<dim>64</dim>
					<dim>1</dim>
					<dim>1</dim>
				</port>
			</output>
		</layer>
		<layer id="261" name="/convt3/Conv_1/WithoutBiases" type="Convolution" version="opset1">
			<data strides="1, 1" dilations="1, 1" pads_begin="0, 0" pads_end="0, 0" auto_pad="explicit" />
			<rt_info>
				<attribute name="fused_names" version="0" value="/convt3/Conv_1/WithoutBiases" />
			</rt_info>
			<input>
				<port id="0" precision="FP32">
					<dim>1</dim>
					<dim>64</dim>
					<dim>3002</dim>
					<dim>8</dim>
				</port>
				<port id="1" precision="FP32">
					<dim>64</dim>
					<dim>64</dim>
					<dim>1</dim>
					<dim>1</dim>
				</port>
			</input>
			<output>
				<port id="2" precision="FP32">
					<dim>1</dim>
					<dim>64</dim>
					<dim>3002</dim>
					<dim>8</dim>
				</port>
			</output>
		</layer>
		<layer id="262" name="onnx::Conv_292" type="Const" version="opset1">
			<data element_type="f32" shape="64" offset="3243000" size="256" />
			<rt_info>
				<attribute name="fused_names" version="0" value="onnx::Conv_292" />
			</rt_info>
			<output>
				<port id="0" precision="FP32" names="onnx::Conv_292">
					<dim>64</dim>
				</port>
			</output>
		</layer>
		<layer id="263" name="Constant_6595" type="Const" version="opset1">
			<data element_type="i64" shape="1" offset="576" size="8" />
			<rt_info>
				<attribute name="fused_names" version="0" value="Constant_6595" />
			</rt_info>
			<output>
				<port id="0" precision="I64">
					<dim>1</dim>
				</port>
			</output>
		</layer>
		<layer id="264" name="ShapeOf_6602" type="Const" version="opset1">
			<data element_type="i64" shape="1" offset="256" size="8" />
			<rt_info>
				<attribute name="fused_names" version="0" value="ShapeOf_6602" />
			</rt_info>
			<output>
				<port id="0" precision="I64">
					<dim>1</dim>
				</port>
			</output>
		</layer>
		<layer id="265" name="ShapeOf_6593" type="ShapeOf" version="opset3">
			<data output_type="i64" />
			<rt_info>
				<attribute name="fused_names" version="0" value="ShapeOf_6593" />
			</rt_info>
			<input>
				<port id="0" precision="FP32">
					<dim>1</dim>
					<dim>64</dim>
					<dim>3002</dim>
					<dim>8</dim>
				</port>
			</input>
			<output>
				<port id="1" precision="I64">
					<dim>4</dim>
				</port>
			</output>
		</layer>
		<layer id="266" name="ShapeOf_6594" type="ShapeOf" version="opset3">
			<data output_type="i64" />
			<rt_info>
				<attribute name="fused_names" version="0" value="ShapeOf_6594" />
			</rt_info>
			<input>
				<port id="0" precision="I64">
					<dim>4</dim>
				</port>
			</input>
			<output>
				<port id="1" precision="I64">
					<dim>1</dim>
				</port>
			</output>
		</layer>
		<layer id="267" name="Constant_6596" type="Const" version="opset1">
			<data element_type="i64" shape="1" offset="584" size="8" />
			<rt_info>
				<attribute name="fused_names" version="0" value="Constant_6596" />
			</rt_info>
			<output>
				<port id="0" precision="I64">
					<dim>1</dim>
				</port>
			</output>
		</layer>
		<layer id="268" name="Subtract_6597" type="Subtract" version="opset1">
			<data auto_broadcast="numpy" />
			<rt_info>
				<attribute name="fused_names" version="0" value="Constant_6596, Subtract_6597" />
			</rt_info>
			<input>
				<port id="0" precision="I64">
					<dim>1</dim>
				</port>
				<port id="1" precision="I64">
					<dim>1</dim>
				</port>
			</input>
			<output>
				<port id="2" precision="I64">
					<dim>1</dim>
				</port>
			</output>
		</layer>
		<layer id="269" name="Broadcast_6598" type="Broadcast" version="opset3">
			<data mode="numpy" />
			<rt_info>
				<attribute name="fused_names" version="0" value="Broadcast_6598, Constant_6595" />
			</rt_info>
			<input>
				<port id="0" precision="I64">
					<dim>1</dim>
				</port>
				<port id="1" precision="I64">
					<dim>1</dim>
				</port>
			</input>
			<output>
				<port id="2" precision="I64">
					<dim>2</dim>
				</port>
			</output>
		</layer>
		<layer id="270" name="Concat_6603" type="Concat" version="opset1">
			<data axis="0" />
			<rt_info>
				<attribute name="fused_names" version="0" value="Concat_6603, Constant_6595, ShapeOf_6602" />
			</rt_info>
			<input>
				<port id="0" precision="I64">
					<dim>1</dim>
				</port>
				<port id="1" precision="I64">
					<dim>1</dim>
				</port>
				<port id="2" precision="I64">
					<dim>2</dim>
				</port>
			</input>
			<output>
				<port id="3" precision="I64">
					<dim>4</dim>
				</port>
			</output>
		</layer>
		<layer id="271" name="Reshape_6604" type="Reshape" version="opset1">
			<data special_zero="false" />
			<rt_info>
				<attribute name="fused_names" version="0" value="Reshape_6604" />
			</rt_info>
			<input>
				<port id="0" precision="FP32">
					<dim>64</dim>
				</port>
				<port id="1" precision="I64">
					<dim>4</dim>
				</port>
			</input>
			<output>
				<port id="2" precision="FP32">
					<dim>1</dim>
					<dim>64</dim>
					<dim>1</dim>
					<dim>1</dim>
				</port>
			</output>
		</layer>
		<layer id="272" name="/convt3/Conv_1" type="Add" version="opset1">
			<data auto_broadcast="numpy" />
			<rt_info>
				<attribute name="fused_names" version="0" value="/convt3/Conv_1" />
			</rt_info>
			<input>
				<port id="0" precision="FP32">
					<dim>1</dim>
					<dim>64</dim>
					<dim>3002</dim>
					<dim>8</dim>
				</port>
				<port id="1" precision="FP32">
					<dim>1</dim>
					<dim>64</dim>
					<dim>1</dim>
					<dim>1</dim>
				</port>
			</input>
			<output>
				<port id="2" precision="FP32" names="/convt3/Conv_1_output_0">
					<dim>1</dim>
					<dim>64</dim>
					<dim>3002</dim>
					<dim>8</dim>
				</port>
			</output>
		</layer>
		<layer id="273" name="/convt3/Relu" type="ReLU" version="opset1">
			<rt_info>
				<attribute name="fused_names" version="0" value="/convt3/Relu" />
			</rt_info>
			<input>
				<port id="0" precision="FP32">
					<dim>1</dim>
					<dim>64</dim>
					<dim>3002</dim>
					<dim>8</dim>
				</port>
			</input>
			<output>
				<port id="1" precision="FP32" names="/convt3/Relu_output_0">
					<dim>1</dim>
					<dim>64</dim>
					<dim>3002</dim>
					<dim>8</dim>
				</port>
			</output>
		</layer>
		<layer id="274" name="/Add_1" type="Add" version="opset1">
			<data auto_broadcast="numpy" />
			<rt_info>
				<attribute name="fused_names" version="0" value="/Add_1" />
			</rt_info>
			<input>
				<port id="0" precision="FP32">
					<dim>1</dim>
					<dim>64</dim>
					<dim>3002</dim>
					<dim>8</dim>
				</port>
				<port id="1" precision="FP32">
					<dim>1</dim>
					<dim>64</dim>
					<dim>3002</dim>
					<dim>8</dim>
				</port>
			</input>
			<output>
				<port id="2" precision="FP32" names="/Add_1_output_0">
					<dim>1</dim>
					<dim>64</dim>
					<dim>3002</dim>
					<dim>8</dim>
				</port>
			</output>
		</layer>
		<layer id="275" name="convt2.0.weight" type="Const" version="opset1">
			<data element_type="f32" shape="64, 1, 1, 3" offset="3243256" size="768" />
			<rt_info>
				<attribute name="fused_names" version="0" value="convt2.0.weight" />
			</rt_info>
			<output>
				<port id="0" precision="FP32" names="convt2.0.weight">
					<dim>64</dim>
					<dim>1</dim>
					<dim>1</dim>
					<dim>3</dim>
				</port>
			</output>
		</layer>
		<layer id="276" name="Constant_6676" type="Const" version="opset1">
			<data element_type="i64" shape="1" offset="256" size="8" />
			<rt_info>
				<attribute name="fused_names" version="0" value="Constant_6676" />
			</rt_info>
			<output>
				<port id="0" precision="I64">
					<dim>1</dim>
				</port>
			</output>
		</layer>
		<layer id="277" name="ShapeOf_6677" type="Const" version="opset1">
			<data element_type="i64" shape="4" offset="3226584" size="32" />
			<rt_info>
				<attribute name="fused_names" version="0" value="ShapeOf_6677" />
			</rt_info>
			<output>
				<port id="0" precision="I64">
					<dim>4</dim>
				</port>
			</output>
		</layer>
		<layer id="278" name="Constant_6674" type="Const" version="opset1">
			<data element_type="i64" shape="" offset="296" size="8" />
			<rt_info>
				<attribute name="fused_names" version="0" value="Constant_6674" />
			</rt_info>
			<output>
				<port id="0" precision="I64" />
			</output>
		</layer>
		<layer id="279" name="Constant_6675" type="Const" version="opset1">
			<data element_type="i64" shape="2" offset="304" size="16" />
			<rt_info>
				<attribute name="fused_names" version="0" value="Constant_6675" />
			</rt_info>
			<output>
				<port id="0" precision="I64">
					<dim>2</dim>
				</port>
			</output>
		</layer>
		<layer id="280" name="VariadicSplit_6678" type="VariadicSplit" version="opset1">
			<rt_info>
				<attribute name="fused_names" version="0" value="Constant_6674, Constant_6675, ShapeOf_6677, VariadicSplit_6678" />
			</rt_info>
			<input>
				<port id="0" precision="I64">
					<dim>4</dim>
				</port>
				<port id="1" precision="I64" />
				<port id="2" precision="I64">
					<dim>2</dim>
				</port>
			</input>
			<output>
				<port id="3" precision="I64">
					<dim>1</dim>
				</port>
				<port id="4" precision="I64">
					<dim>3</dim>
				</port>
			</output>
		</layer>
		<layer id="281" name="Divide_6679" type="Divide" version="opset1">
			<data auto_broadcast="numpy" m_pythondiv="true" />
			<rt_info>
				<attribute name="fused_names" version="0" value="Constant_6676, Divide_6679" />
			</rt_info>
			<input>
				<port id="0" precision="I64">
					<dim>1</dim>
				</port>
				<port id="1" precision="I64">
					<dim>1</dim>
				</port>
			</input>
			<output>
				<port id="2" precision="I64">
					<dim>1</dim>
				</port>
			</output>
		</layer>
		<layer id="282" name="Concat_6680" type="Concat" version="opset1">
			<data axis="0" />
			<rt_info>
				<attribute name="fused_names" version="0" value="Concat_6680, Constant_6676" />
			</rt_info>
			<input>
				<port id="0" precision="I64">
					<dim>1</dim>
				</port>
				<port id="1" precision="I64">
					<dim>1</dim>
				</port>
				<port id="2" precision="I64">
					<dim>3</dim>
				</port>
			</input>
			<output>
				<port id="3" precision="I64">
					<dim>5</dim>
				</port>
			</output>
		</layer>
		<layer id="283" name="Reshape_6681" type="Reshape" version="opset1">
			<data special_zero="false" />
			<rt_info>
				<attribute name="fused_names" version="0" value="Reshape_6681" />
			</rt_info>
			<input>
				<port id="0" precision="FP32">
					<dim>64</dim>
					<dim>1</dim>
					<dim>1</dim>
					<dim>3</dim>
				</port>
				<port id="1" precision="I64">
					<dim>5</dim>
				</port>
			</input>
			<output>
				<port id="2" precision="FP32">
					<dim>64</dim>
					<dim>1</dim>
					<dim>1</dim>
					<dim>1</dim>
					<dim>3</dim>
				</port>
			</output>
		</layer>
		<layer id="284" name="/convt2/0/ConvTranspose" type="GroupConvolutionBackpropData" version="opset1">
			<data strides="1, 2" pads_begin="0, 1" pads_end="0, 1" dilations="1, 1" auto_pad="explicit" output_padding="0, 1" />
			<rt_info>
				<attribute name="fused_names" version="0" value="/convt2/0/ConvTranspose" />
			</rt_info>
			<input>
				<port id="0" precision="FP32">
					<dim>1</dim>
					<dim>64</dim>
					<dim>3002</dim>
					<dim>8</dim>
				</port>
				<port id="1" precision="FP32">
					<dim>64</dim>
					<dim>1</dim>
					<dim>1</dim>
					<dim>1</dim>
					<dim>3</dim>
				</port>
			</input>
			<output>
				<port id="2" precision="FP32" names="/convt2/0/ConvTranspose_output_0">
					<dim>1</dim>
					<dim>64</dim>
					<dim>3002</dim>
					<dim>16</dim>
				</port>
			</output>
		</layer>
		<layer id="285" name="onnx::Conv_297" type="Const" version="opset1">
			<data element_type="f32" shape="64, 64, 1, 1" offset="3244024" size="16384" />
			<rt_info>
				<attribute name="fused_names" version="0" value="onnx::Conv_297" />
			</rt_info>
			<output>
				<port id="0" precision="FP32" names="onnx::Conv_297">
					<dim>64</dim>
					<dim>64</dim>
					<dim>1</dim>
					<dim>1</dim>
				</port>
			</output>
		</layer>
		<layer id="286" name="/convt2/1/Conv/WithoutBiases" type="Convolution" version="opset1">
			<data strides="1, 1" dilations="1, 1" pads_begin="0, 0" pads_end="0, 0" auto_pad="explicit" />
			<rt_info>
				<attribute name="fused_names" version="0" value="/convt2/1/Conv/WithoutBiases" />
			</rt_info>
			<input>
				<port id="0" precision="FP32">
					<dim>1</dim>
					<dim>64</dim>
					<dim>3002</dim>
					<dim>16</dim>
				</port>
				<port id="1" precision="FP32">
					<dim>64</dim>
					<dim>64</dim>
					<dim>1</dim>
					<dim>1</dim>
				</port>
			</input>
			<output>
				<port id="2" precision="FP32">
					<dim>1</dim>
					<dim>64</dim>
					<dim>3002</dim>
					<dim>16</dim>
				</port>
			</output>
		</layer>
		<layer id="287" name="onnx::Conv_298" type="Const" version="opset1">
			<data element_type="f32" shape="64" offset="3260408" size="256" />
			<rt_info>
				<attribute name="fused_names" version="0" value="onnx::Conv_298" />
			</rt_info>
			<output>
				<port id="0" precision="FP32" names="onnx::Conv_298">
					<dim>64</dim>
				</port>
			</output>
		</layer>
		<layer id="288" name="Constant_6725" type="Const" version="opset1">
			<data element_type="i64" shape="1" offset="576" size="8" />
			<rt_info>
				<attribute name="fused_names" version="0" value="Constant_6725" />
			</rt_info>
			<output>
				<port id="0" precision="I64">
					<dim>1</dim>
				</port>
			</output>
		</layer>
		<layer id="289" name="ShapeOf_6732" type="Const" version="opset1">
			<data element_type="i64" shape="1" offset="256" size="8" />
			<rt_info>
				<attribute name="fused_names" version="0" value="ShapeOf_6732" />
			</rt_info>
			<output>
				<port id="0" precision="I64">
					<dim>1</dim>
				</port>
			</output>
		</layer>
		<layer id="290" name="ShapeOf_6723" type="ShapeOf" version="opset3">
			<data output_type="i64" />
			<rt_info>
				<attribute name="fused_names" version="0" value="ShapeOf_6723" />
			</rt_info>
			<input>
				<port id="0" precision="FP32">
					<dim>1</dim>
					<dim>64</dim>
					<dim>3002</dim>
					<dim>16</dim>
				</port>
			</input>
			<output>
				<port id="1" precision="I64">
					<dim>4</dim>
				</port>
			</output>
		</layer>
		<layer id="291" name="ShapeOf_6724" type="ShapeOf" version="opset3">
			<data output_type="i64" />
			<rt_info>
				<attribute name="fused_names" version="0" value="ShapeOf_6724" />
			</rt_info>
			<input>
				<port id="0" precision="I64">
					<dim>4</dim>
				</port>
			</input>
			<output>
				<port id="1" precision="I64">
					<dim>1</dim>
				</port>
			</output>
		</layer>
		<layer id="292" name="Constant_6726" type="Const" version="opset1">
			<data element_type="i64" shape="1" offset="584" size="8" />
			<rt_info>
				<attribute name="fused_names" version="0" value="Constant_6726" />
			</rt_info>
			<output>
				<port id="0" precision="I64">
					<dim>1</dim>
				</port>
			</output>
		</layer>
		<layer id="293" name="Subtract_6727" type="Subtract" version="opset1">
			<data auto_broadcast="numpy" />
			<rt_info>
				<attribute name="fused_names" version="0" value="Constant_6726, Subtract_6727" />
			</rt_info>
			<input>
				<port id="0" precision="I64">
					<dim>1</dim>
				</port>
				<port id="1" precision="I64">
					<dim>1</dim>
				</port>
			</input>
			<output>
				<port id="2" precision="I64">
					<dim>1</dim>
				</port>
			</output>
		</layer>
		<layer id="294" name="Broadcast_6728" type="Broadcast" version="opset3">
			<data mode="numpy" />
			<rt_info>
				<attribute name="fused_names" version="0" value="Broadcast_6728, Constant_6725" />
			</rt_info>
			<input>
				<port id="0" precision="I64">
					<dim>1</dim>
				</port>
				<port id="1" precision="I64">
					<dim>1</dim>
				</port>
			</input>
			<output>
				<port id="2" precision="I64">
					<dim>2</dim>
				</port>
			</output>
		</layer>
		<layer id="295" name="Concat_6733" type="Concat" version="opset1">
			<data axis="0" />
			<rt_info>
				<attribute name="fused_names" version="0" value="Concat_6733, Constant_6725, ShapeOf_6732" />
			</rt_info>
			<input>
				<port id="0" precision="I64">
					<dim>1</dim>
				</port>
				<port id="1" precision="I64">
					<dim>1</dim>
				</port>
				<port id="2" precision="I64">
					<dim>2</dim>
				</port>
			</input>
			<output>
				<port id="3" precision="I64">
					<dim>4</dim>
				</port>
			</output>
		</layer>
		<layer id="296" name="Reshape_6734" type="Reshape" version="opset1">
			<data special_zero="false" />
			<rt_info>
				<attribute name="fused_names" version="0" value="Reshape_6734" />
			</rt_info>
			<input>
				<port id="0" precision="FP32">
					<dim>64</dim>
				</port>
				<port id="1" precision="I64">
					<dim>4</dim>
				</port>
			</input>
			<output>
				<port id="2" precision="FP32">
					<dim>1</dim>
					<dim>64</dim>
					<dim>1</dim>
					<dim>1</dim>
				</port>
			</output>
		</layer>
		<layer id="297" name="/convt2/1/Conv" type="Add" version="opset1">
			<data auto_broadcast="numpy" />
			<rt_info>
				<attribute name="fused_names" version="0" value="/convt2/1/Conv" />
			</rt_info>
			<input>
				<port id="0" precision="FP32">
					<dim>1</dim>
					<dim>64</dim>
					<dim>3002</dim>
					<dim>16</dim>
				</port>
				<port id="1" precision="FP32">
					<dim>1</dim>
					<dim>64</dim>
					<dim>1</dim>
					<dim>1</dim>
				</port>
			</input>
			<output>
				<port id="2" precision="FP32" names="/convt2/1/Conv_output_0">
					<dim>1</dim>
					<dim>64</dim>
					<dim>3002</dim>
					<dim>16</dim>
				</port>
			</output>
		</layer>
		<layer id="298" name="/convt2/3/Relu" type="ReLU" version="opset1">
			<rt_info>
				<attribute name="fused_names" version="0" value="/convt2/3/Relu" />
			</rt_info>
			<input>
				<port id="0" precision="FP32">
					<dim>1</dim>
					<dim>64</dim>
					<dim>3002</dim>
					<dim>16</dim>
				</port>
			</input>
			<output>
				<port id="1" precision="FP32" names="/convt2/3/Relu_output_0">
					<dim>1</dim>
					<dim>64</dim>
					<dim>3002</dim>
					<dim>16</dim>
				</port>
			</output>
		</layer>
		<layer id="299" name="/Add_2" type="Add" version="opset1">
			<data auto_broadcast="numpy" />
			<rt_info>
				<attribute name="fused_names" version="0" value="/Add_2" />
			</rt_info>
			<input>
				<port id="0" precision="FP32">
					<dim>1</dim>
					<dim>64</dim>
					<dim>3002</dim>
					<dim>16</dim>
				</port>
				<port id="1" precision="FP32">
					<dim>1</dim>
					<dim>64</dim>
					<dim>3002</dim>
					<dim>16</dim>
				</port>
			</input>
			<output>
				<port id="2" precision="FP32" names="/Add_2_output_0">
					<dim>1</dim>
					<dim>64</dim>
					<dim>3002</dim>
					<dim>16</dim>
				</port>
			</output>
		</layer>
		<layer id="300" name="convt1.0.weight" type="Const" version="opset1">
			<data element_type="f32" shape="64, 1, 1, 3" offset="3260664" size="768" />
			<rt_info>
				<attribute name="fused_names" version="0" value="convt1.0.weight" />
			</rt_info>
			<output>
				<port id="0" precision="FP32" names="convt1.0.weight">
					<dim>64</dim>
					<dim>1</dim>
					<dim>1</dim>
					<dim>3</dim>
				</port>
			</output>
		</layer>
		<layer id="301" name="Constant_6806" type="Const" version="opset1">
			<data element_type="i64" shape="1" offset="256" size="8" />
			<rt_info>
				<attribute name="fused_names" version="0" value="Constant_6806" />
			</rt_info>
			<output>
				<port id="0" precision="I64">
					<dim>1</dim>
				</port>
			</output>
		</layer>
		<layer id="302" name="ShapeOf_6807" type="Const" version="opset1">
			<data element_type="i64" shape="4" offset="3226584" size="32" />
			<rt_info>
				<attribute name="fused_names" version="0" value="ShapeOf_6807" />
			</rt_info>
			<output>
				<port id="0" precision="I64">
					<dim>4</dim>
				</port>
			</output>
		</layer>
		<layer id="303" name="Constant_6804" type="Const" version="opset1">
			<data element_type="i64" shape="" offset="296" size="8" />
			<rt_info>
				<attribute name="fused_names" version="0" value="Constant_6804" />
			</rt_info>
			<output>
				<port id="0" precision="I64" />
			</output>
		</layer>
		<layer id="304" name="Constant_6805" type="Const" version="opset1">
			<data element_type="i64" shape="2" offset="304" size="16" />
			<rt_info>
				<attribute name="fused_names" version="0" value="Constant_6805" />
			</rt_info>
			<output>
				<port id="0" precision="I64">
					<dim>2</dim>
				</port>
			</output>
		</layer>
		<layer id="305" name="VariadicSplit_6808" type="VariadicSplit" version="opset1">
			<rt_info>
				<attribute name="fused_names" version="0" value="Constant_6804, Constant_6805, ShapeOf_6807, VariadicSplit_6808" />
			</rt_info>
			<input>
				<port id="0" precision="I64">
					<dim>4</dim>
				</port>
				<port id="1" precision="I64" />
				<port id="2" precision="I64">
					<dim>2</dim>
				</port>
			</input>
			<output>
				<port id="3" precision="I64">
					<dim>1</dim>
				</port>
				<port id="4" precision="I64">
					<dim>3</dim>
				</port>
			</output>
		</layer>
		<layer id="306" name="Divide_6809" type="Divide" version="opset1">
			<data auto_broadcast="numpy" m_pythondiv="true" />
			<rt_info>
				<attribute name="fused_names" version="0" value="Constant_6806, Divide_6809" />
			</rt_info>
			<input>
				<port id="0" precision="I64">
					<dim>1</dim>
				</port>
				<port id="1" precision="I64">
					<dim>1</dim>
				</port>
			</input>
			<output>
				<port id="2" precision="I64">
					<dim>1</dim>
				</port>
			</output>
		</layer>
		<layer id="307" name="Concat_6810" type="Concat" version="opset1">
			<data axis="0" />
			<rt_info>
				<attribute name="fused_names" version="0" value="Concat_6810, Constant_6806" />
			</rt_info>
			<input>
				<port id="0" precision="I64">
					<dim>1</dim>
				</port>
				<port id="1" precision="I64">
					<dim>1</dim>
				</port>
				<port id="2" precision="I64">
					<dim>3</dim>
				</port>
			</input>
			<output>
				<port id="3" precision="I64">
					<dim>5</dim>
				</port>
			</output>
		</layer>
		<layer id="308" name="Reshape_6811" type="Reshape" version="opset1">
			<data special_zero="false" />
			<rt_info>
				<attribute name="fused_names" version="0" value="Reshape_6811" />
			</rt_info>
			<input>
				<port id="0" precision="FP32">
					<dim>64</dim>
					<dim>1</dim>
					<dim>1</dim>
					<dim>3</dim>
				</port>
				<port id="1" precision="I64">
					<dim>5</dim>
				</port>
			</input>
			<output>
				<port id="2" precision="FP32">
					<dim>64</dim>
					<dim>1</dim>
					<dim>1</dim>
					<dim>1</dim>
					<dim>3</dim>
				</port>
			</output>
		</layer>
		<layer id="309" name="/convt1/ConvTranspose" type="GroupConvolutionBackpropData" version="opset1">
			<data strides="1, 2" pads_begin="0, 1" pads_end="0, 1" dilations="1, 1" auto_pad="explicit" output_padding="0, 1" />
			<rt_info>
				<attribute name="fused_names" version="0" value="/convt1/ConvTranspose" />
			</rt_info>
			<input>
				<port id="0" precision="FP32">
					<dim>1</dim>
					<dim>64</dim>
					<dim>3002</dim>
					<dim>16</dim>
				</port>
				<port id="1" precision="FP32">
					<dim>64</dim>
					<dim>1</dim>
					<dim>1</dim>
					<dim>1</dim>
					<dim>3</dim>
				</port>
			</input>
			<output>
				<port id="2" precision="FP32" names="/convt1/ConvTranspose_output_0">
					<dim>1</dim>
					<dim>64</dim>
					<dim>3002</dim>
					<dim>32</dim>
				</port>
			</output>
		</layer>
		<layer id="310" name="onnx::Conv_303" type="Const" version="opset1">
			<data element_type="f32" shape="64, 64, 1, 1" offset="3261432" size="16384" />
			<rt_info>
				<attribute name="fused_names" version="0" value="onnx::Conv_303" />
			</rt_info>
			<output>
				<port id="0" precision="FP32" names="onnx::Conv_303">
					<dim>64</dim>
					<dim>64</dim>
					<dim>1</dim>
					<dim>1</dim>
				</port>
			</output>
		</layer>
		<layer id="311" name="/convt1/Conv/WithoutBiases" type="Convolution" version="opset1">
			<data strides="1, 1" dilations="1, 1" pads_begin="0, 0" pads_end="0, 0" auto_pad="explicit" />
			<rt_info>
				<attribute name="fused_names" version="0" value="/convt1/Conv/WithoutBiases" />
			</rt_info>
			<input>
				<port id="0" precision="FP32">
					<dim>1</dim>
					<dim>64</dim>
					<dim>3002</dim>
					<dim>32</dim>
				</port>
				<port id="1" precision="FP32">
					<dim>64</dim>
					<dim>64</dim>
					<dim>1</dim>
					<dim>1</dim>
				</port>
			</input>
			<output>
				<port id="2" precision="FP32">
					<dim>1</dim>
					<dim>64</dim>
					<dim>3002</dim>
					<dim>32</dim>
				</port>
			</output>
		</layer>
		<layer id="312" name="onnx::Conv_304" type="Const" version="opset1">
			<data element_type="f32" shape="64" offset="3277816" size="256" />
			<rt_info>
				<attribute name="fused_names" version="0" value="onnx::Conv_304" />
			</rt_info>
			<output>
				<port id="0" precision="FP32" names="onnx::Conv_304">
					<dim>64</dim>
				</port>
			</output>
		</layer>
		<layer id="313" name="Constant_6855" type="Const" version="opset1">
			<data element_type="i64" shape="1" offset="576" size="8" />
			<rt_info>
				<attribute name="fused_names" version="0" value="Constant_6855" />
			</rt_info>
			<output>
				<port id="0" precision="I64">
					<dim>1</dim>
				</port>
			</output>
		</layer>
		<layer id="314" name="ShapeOf_6862" type="Const" version="opset1">
			<data element_type="i64" shape="1" offset="256" size="8" />
			<rt_info>
				<attribute name="fused_names" version="0" value="ShapeOf_6862" />
			</rt_info>
			<output>
				<port id="0" precision="I64">
					<dim>1</dim>
				</port>
			</output>
		</layer>
		<layer id="315" name="ShapeOf_6853" type="ShapeOf" version="opset3">
			<data output_type="i64" />
			<rt_info>
				<attribute name="fused_names" version="0" value="ShapeOf_6853" />
			</rt_info>
			<input>
				<port id="0" precision="FP32">
					<dim>1</dim>
					<dim>64</dim>
					<dim>3002</dim>
					<dim>32</dim>
				</port>
			</input>
			<output>
				<port id="1" precision="I64">
					<dim>4</dim>
				</port>
			</output>
		</layer>
		<layer id="316" name="ShapeOf_6854" type="ShapeOf" version="opset3">
			<data output_type="i64" />
			<rt_info>
				<attribute name="fused_names" version="0" value="ShapeOf_6854" />
			</rt_info>
			<input>
				<port id="0" precision="I64">
					<dim>4</dim>
				</port>
			</input>
			<output>
				<port id="1" precision="I64">
					<dim>1</dim>
				</port>
			</output>
		</layer>
		<layer id="317" name="Constant_6856" type="Const" version="opset1">
			<data element_type="i64" shape="1" offset="584" size="8" />
			<rt_info>
				<attribute name="fused_names" version="0" value="Constant_6856" />
			</rt_info>
			<output>
				<port id="0" precision="I64">
					<dim>1</dim>
				</port>
			</output>
		</layer>
		<layer id="318" name="Subtract_6857" type="Subtract" version="opset1">
			<data auto_broadcast="numpy" />
			<rt_info>
				<attribute name="fused_names" version="0" value="Constant_6856, Subtract_6857" />
			</rt_info>
			<input>
				<port id="0" precision="I64">
					<dim>1</dim>
				</port>
				<port id="1" precision="I64">
					<dim>1</dim>
				</port>
			</input>
			<output>
				<port id="2" precision="I64">
					<dim>1</dim>
				</port>
			</output>
		</layer>
		<layer id="319" name="Broadcast_6858" type="Broadcast" version="opset3">
			<data mode="numpy" />
			<rt_info>
				<attribute name="fused_names" version="0" value="Broadcast_6858, Constant_6855" />
			</rt_info>
			<input>
				<port id="0" precision="I64">
					<dim>1</dim>
				</port>
				<port id="1" precision="I64">
					<dim>1</dim>
				</port>
			</input>
			<output>
				<port id="2" precision="I64">
					<dim>2</dim>
				</port>
			</output>
		</layer>
		<layer id="320" name="Concat_6863" type="Concat" version="opset1">
			<data axis="0" />
			<rt_info>
				<attribute name="fused_names" version="0" value="Concat_6863, Constant_6855, ShapeOf_6862" />
			</rt_info>
			<input>
				<port id="0" precision="I64">
					<dim>1</dim>
				</port>
				<port id="1" precision="I64">
					<dim>1</dim>
				</port>
				<port id="2" precision="I64">
					<dim>2</dim>
				</port>
			</input>
			<output>
				<port id="3" precision="I64">
					<dim>4</dim>
				</port>
			</output>
		</layer>
		<layer id="321" name="Reshape_6864" type="Reshape" version="opset1">
			<data special_zero="false" />
			<rt_info>
				<attribute name="fused_names" version="0" value="Reshape_6864" />
			</rt_info>
			<input>
				<port id="0" precision="FP32">
					<dim>64</dim>
				</port>
				<port id="1" precision="I64">
					<dim>4</dim>
				</port>
			</input>
			<output>
				<port id="2" precision="FP32">
					<dim>1</dim>
					<dim>64</dim>
					<dim>1</dim>
					<dim>1</dim>
				</port>
			</output>
		</layer>
		<layer id="322" name="/convt1/Conv" type="Add" version="opset1">
			<data auto_broadcast="numpy" />
			<rt_info>
				<attribute name="fused_names" version="0" value="/convt1/Conv" />
			</rt_info>
			<input>
				<port id="0" precision="FP32">
					<dim>1</dim>
					<dim>64</dim>
					<dim>3002</dim>
					<dim>32</dim>
				</port>
				<port id="1" precision="FP32">
					<dim>1</dim>
					<dim>64</dim>
					<dim>1</dim>
					<dim>1</dim>
				</port>
			</input>
			<output>
				<port id="2" precision="FP32" names="/convt1/Conv_output_0">
					<dim>1</dim>
					<dim>64</dim>
					<dim>3002</dim>
					<dim>32</dim>
				</port>
			</output>
		</layer>
		<layer id="323" name="/convt1/Relu" type="ReLU" version="opset1">
			<rt_info>
				<attribute name="fused_names" version="0" value="/convt1/Relu" />
			</rt_info>
			<input>
				<port id="0" precision="FP32">
					<dim>1</dim>
					<dim>64</dim>
					<dim>3002</dim>
					<dim>32</dim>
				</port>
			</input>
			<output>
				<port id="1" precision="FP32" names="/convt1/Relu_output_0">
					<dim>1</dim>
					<dim>64</dim>
					<dim>3002</dim>
					<dim>32</dim>
				</port>
			</output>
		</layer>
		<layer id="324" name="/Add_3" type="Add" version="opset1">
			<data auto_broadcast="numpy" />
			<rt_info>
				<attribute name="fused_names" version="0" value="/Add_3" />
			</rt_info>
			<input>
				<port id="0" precision="FP32">
					<dim>1</dim>
					<dim>64</dim>
					<dim>3002</dim>
					<dim>32</dim>
				</port>
				<port id="1" precision="FP32">
					<dim>1</dim>
					<dim>64</dim>
					<dim>3002</dim>
					<dim>32</dim>
				</port>
			</input>
			<output>
				<port id="2" precision="FP32" names="/Add_3_output_0">
					<dim>1</dim>
					<dim>64</dim>
					<dim>3002</dim>
					<dim>32</dim>
				</port>
			</output>
		</layer>
		<layer id="325" name="onnx::Conv_309" type="Const" version="opset1">
			<data element_type="f32" shape="1, 64, 1, 3" offset="3278072" size="768" />
			<rt_info>
				<attribute name="fused_names" version="0" value="onnx::Conv_309" />
			</rt_info>
			<output>
				<port id="0" precision="FP32" names="onnx::Conv_309">
					<dim>1</dim>
					<dim>64</dim>
					<dim>1</dim>
					<dim>3</dim>
				</port>
			</output>
		</layer>
		<layer id="326" name="/conv0_out/0/Conv/WithoutBiases" type="Convolution" version="opset1">
			<data strides="1, 1" dilations="1, 1" pads_begin="0, 1" pads_end="0, 1" auto_pad="explicit" />
			<rt_info>
				<attribute name="fused_names" version="0" value="/conv0_out/0/Conv/WithoutBiases" />
			</rt_info>
			<input>
				<port id="0" precision="FP32">
					<dim>1</dim>
					<dim>64</dim>
					<dim>3002</dim>
					<dim>32</dim>
				</port>
				<port id="1" precision="FP32">
					<dim>1</dim>
					<dim>64</dim>
					<dim>1</dim>
					<dim>3</dim>
				</port>
			</input>
			<output>
				<port id="2" precision="FP32">
					<dim>1</dim>
					<dim>1</dim>
					<dim>3002</dim>
					<dim>32</dim>
				</port>
			</output>
		</layer>
		<layer id="327" name="onnx::Conv_310" type="Const" version="opset1">
			<data element_type="f32" shape="1" offset="3278840" size="4" />
			<rt_info>
				<attribute name="fused_names" version="0" value="onnx::Conv_310" />
			</rt_info>
			<output>
				<port id="0" precision="FP32" names="onnx::Conv_310">
					<dim>1</dim>
				</port>
			</output>
		</layer>
		<layer id="328" name="Constant_6937" type="Const" version="opset1">
			<data element_type="i64" shape="1" offset="576" size="8" />
			<rt_info>
				<attribute name="fused_names" version="0" value="Constant_6937" />
			</rt_info>
			<output>
				<port id="0" precision="I64">
					<dim>1</dim>
				</port>
			</output>
		</layer>
		<layer id="329" name="ShapeOf_6944" type="Const" version="opset1">
			<data element_type="i64" shape="1" offset="576" size="8" />
			<rt_info>
				<attribute name="fused_names" version="0" value="ShapeOf_6944" />
			</rt_info>
			<output>
				<port id="0" precision="I64">
					<dim>1</dim>
				</port>
			</output>
		</layer>
		<layer id="330" name="ShapeOf_6935" type="ShapeOf" version="opset3">
			<data output_type="i64" />
			<rt_info>
				<attribute name="fused_names" version="0" value="ShapeOf_6935" />
			</rt_info>
			<input>
				<port id="0" precision="FP32">
					<dim>1</dim>
					<dim>1</dim>
					<dim>3002</dim>
					<dim>32</dim>
				</port>
			</input>
			<output>
				<port id="1" precision="I64">
					<dim>4</dim>
				</port>
			</output>
		</layer>
		<layer id="331" name="ShapeOf_6936" type="ShapeOf" version="opset3">
			<data output_type="i64" />
			<rt_info>
				<attribute name="fused_names" version="0" value="ShapeOf_6936" />
			</rt_info>
			<input>
				<port id="0" precision="I64">
					<dim>4</dim>
				</port>
			</input>
			<output>
				<port id="1" precision="I64">
					<dim>1</dim>
				</port>
			</output>
		</layer>
		<layer id="332" name="Constant_6938" type="Const" version="opset1">
			<data element_type="i64" shape="1" offset="584" size="8" />
			<rt_info>
				<attribute name="fused_names" version="0" value="Constant_6938" />
			</rt_info>
			<output>
				<port id="0" precision="I64">
					<dim>1</dim>
				</port>
			</output>
		</layer>
		<layer id="333" name="Subtract_6939" type="Subtract" version="opset1">
			<data auto_broadcast="numpy" />
			<rt_info>
				<attribute name="fused_names" version="0" value="Constant_6938, Subtract_6939" />
			</rt_info>
			<input>
				<port id="0" precision="I64">
					<dim>1</dim>
				</port>
				<port id="1" precision="I64">
					<dim>1</dim>
				</port>
			</input>
			<output>
				<port id="2" precision="I64">
					<dim>1</dim>
				</port>
			</output>
		</layer>
		<layer id="334" name="Broadcast_6940" type="Broadcast" version="opset3">
			<data mode="numpy" />
			<rt_info>
				<attribute name="fused_names" version="0" value="Broadcast_6940, Constant_6937" />
			</rt_info>
			<input>
				<port id="0" precision="I64">
					<dim>1</dim>
				</port>
				<port id="1" precision="I64">
					<dim>1</dim>
				</port>
			</input>
			<output>
				<port id="2" precision="I64">
					<dim>2</dim>
				</port>
			</output>
		</layer>
		<layer id="335" name="Concat_6945" type="Concat" version="opset1">
			<data axis="0" />
			<rt_info>
				<attribute name="fused_names" version="0" value="Concat_6945, Constant_6937, ShapeOf_6944" />
			</rt_info>
			<input>
				<port id="0" precision="I64">
					<dim>1</dim>
				</port>
				<port id="1" precision="I64">
					<dim>1</dim>
				</port>
				<port id="2" precision="I64">
					<dim>2</dim>
				</port>
			</input>
			<output>
				<port id="3" precision="I64">
					<dim>4</dim>
				</port>
			</output>
		</layer>
		<layer id="336" name="Reshape_6946" type="Reshape" version="opset1">
			<data special_zero="false" />
			<rt_info>
				<attribute name="fused_names" version="0" value="Reshape_6946" />
			</rt_info>
			<input>
				<port id="0" precision="FP32">
					<dim>1</dim>
				</port>
				<port id="1" precision="I64">
					<dim>4</dim>
				</port>
			</input>
			<output>
				<port id="2" precision="FP32">
					<dim>1</dim>
					<dim>1</dim>
					<dim>1</dim>
					<dim>1</dim>
				</port>
			</output>
		</layer>
		<layer id="337" name="/conv0_out/0/Conv" type="Add" version="opset1">
			<data auto_broadcast="numpy" />
			<rt_info>
				<attribute name="fused_names" version="0" value="/conv0_out/0/Conv" />
			</rt_info>
			<input>
				<port id="0" precision="FP32">
					<dim>1</dim>
					<dim>1</dim>
					<dim>3002</dim>
					<dim>32</dim>
				</port>
				<port id="1" precision="FP32">
					<dim>1</dim>
					<dim>1</dim>
					<dim>1</dim>
					<dim>1</dim>
				</port>
			</input>
			<output>
				<port id="2" precision="FP32" names="/conv0_out/0/Conv_output_0">
					<dim>1</dim>
					<dim>1</dim>
					<dim>3002</dim>
					<dim>32</dim>
				</port>
			</output>
		</layer>
		<layer id="338" name="m" type="Sigmoid" version="opset1">
			<rt_info>
				<attribute name="fused_names" version="0" value="m" />
			</rt_info>
			<input>
				<port id="0" precision="FP32">
					<dim>1</dim>
					<dim>1</dim>
					<dim>3002</dim>
					<dim>32</dim>
				</port>
			</input>
			<output>
				<port id="1" precision="FP32" names="m">
					<dim>1</dim>
					<dim>1</dim>
					<dim>3002</dim>
					<dim>32</dim>
				</port>
			</output>
		</layer>
		<layer id="339" name="m/sink_port_0" type="Result" version="opset1">
			<rt_info>
				<attribute name="fused_names" version="0" value="m/sink_port_0" />
			</rt_info>
			<input>
				<port id="0" precision="FP32">
					<dim>1</dim>
					<dim>1</dim>
					<dim>3002</dim>
					<dim>32</dim>
				</port>
			</input>
		</layer>
	</layers>
	<edges>
		<edge from-layer="0" from-port="0" to-layer="14" to-port="0" />
		<edge from-layer="1" from-port="0" to-layer="36" to-port="0" />
		<edge from-layer="2" from-port="0" to-layer="58" to-port="0" />
		<edge from-layer="3" from-port="0" to-layer="228" to-port="0" />
		<edge from-layer="3" from-port="0" to-layer="80" to-port="0" />
		<edge from-layer="4" from-port="0" to-layer="93" to-port="0" />
		<edge from-layer="4" from-port="0" to-layer="107" to-port="0" />
		<edge from-layer="5" from-port="0" to-layer="13" to-port="0" />
		<edge from-layer="6" from-port="0" to-layer="11" to-port="1" />
		<edge from-layer="6" from-port="0" to-layer="12" to-port="0" />
		<edge from-layer="7" from-port="0" to-layer="10" to-port="0" />
		<edge from-layer="8" from-port="0" to-layer="10" to-port="1" />
		<edge from-layer="9" from-port="0" to-layer="10" to-port="2" />
		<edge from-layer="10" from-port="3" to-layer="11" to-port="0" />
		<edge from-layer="10" from-port="4" to-layer="12" to-port="2" />
		<edge from-layer="11" from-port="2" to-layer="12" to-port="1" />
		<edge from-layer="12" from-port="3" to-layer="13" to-port="1" />
		<edge from-layer="13" from-port="2" to-layer="14" to-port="1" />
		<edge from-layer="14" from-port="2" to-layer="18" to-port="0" />
		<edge from-layer="14" from-port="2" to-layer="25" to-port="0" />
		<edge from-layer="15" from-port="0" to-layer="24" to-port="0" />
		<edge from-layer="16" from-port="0" to-layer="22" to-port="0" />
		<edge from-layer="16" from-port="0" to-layer="23" to-port="0" />
		<edge from-layer="17" from-port="0" to-layer="23" to-port="1" />
		<edge from-layer="18" from-port="1" to-layer="19" to-port="0" />
		<edge from-layer="19" from-port="1" to-layer="21" to-port="0" />
		<edge from-layer="20" from-port="0" to-layer="21" to-port="1" />
		<edge from-layer="21" from-port="2" to-layer="22" to-port="1" />
		<edge from-layer="22" from-port="2" to-layer="23" to-port="2" />
		<edge from-layer="23" from-port="3" to-layer="24" to-port="1" />
		<edge from-layer="24" from-port="2" to-layer="25" to-port="1" />
		<edge from-layer="25" from-port="2" to-layer="26" to-port="0" />
		<edge from-layer="26" from-port="1" to-layer="324" to-port="0" />
		<edge from-layer="27" from-port="0" to-layer="35" to-port="0" />
		<edge from-layer="28" from-port="0" to-layer="33" to-port="1" />
		<edge from-layer="28" from-port="0" to-layer="34" to-port="0" />
		<edge from-layer="29" from-port="0" to-layer="32" to-port="0" />
		<edge from-layer="30" from-port="0" to-layer="32" to-port="1" />
		<edge from-layer="31" from-port="0" to-layer="32" to-port="2" />
		<edge from-layer="32" from-port="3" to-layer="33" to-port="0" />
		<edge from-layer="32" from-port="4" to-layer="34" to-port="2" />
		<edge from-layer="33" from-port="2" to-layer="34" to-port="1" />
		<edge from-layer="34" from-port="3" to-layer="35" to-port="1" />
		<edge from-layer="35" from-port="2" to-layer="36" to-port="1" />
		<edge from-layer="36" from-port="2" to-layer="47" to-port="0" />
		<edge from-layer="36" from-port="2" to-layer="40" to-port="0" />
		<edge from-layer="37" from-port="0" to-layer="46" to-port="0" />
		<edge from-layer="38" from-port="0" to-layer="44" to-port="0" />
		<edge from-layer="38" from-port="0" to-layer="45" to-port="0" />
		<edge from-layer="39" from-port="0" to-layer="45" to-port="1" />
		<edge from-layer="40" from-port="1" to-layer="41" to-port="0" />
		<edge from-layer="41" from-port="1" to-layer="43" to-port="0" />
		<edge from-layer="42" from-port="0" to-layer="43" to-port="1" />
		<edge from-layer="43" from-port="2" to-layer="44" to-port="1" />
		<edge from-layer="44" from-port="2" to-layer="45" to-port="2" />
		<edge from-layer="45" from-port="3" to-layer="46" to-port="1" />
		<edge from-layer="46" from-port="2" to-layer="47" to-port="1" />
		<edge from-layer="47" from-port="2" to-layer="48" to-port="0" />
		<edge from-layer="48" from-port="1" to-layer="299" to-port="0" />
		<edge from-layer="49" from-port="0" to-layer="57" to-port="0" />
		<edge from-layer="50" from-port="0" to-layer="55" to-port="1" />
		<edge from-layer="50" from-port="0" to-layer="56" to-port="0" />
		<edge from-layer="51" from-port="0" to-layer="54" to-port="0" />
		<edge from-layer="52" from-port="0" to-layer="54" to-port="1" />
		<edge from-layer="53" from-port="0" to-layer="54" to-port="2" />
		<edge from-layer="54" from-port="3" to-layer="55" to-port="0" />
		<edge from-layer="54" from-port="4" to-layer="56" to-port="2" />
		<edge from-layer="55" from-port="2" to-layer="56" to-port="1" />
		<edge from-layer="56" from-port="3" to-layer="57" to-port="1" />
		<edge from-layer="57" from-port="2" to-layer="58" to-port="1" />
		<edge from-layer="58" from-port="2" to-layer="69" to-port="0" />
		<edge from-layer="58" from-port="2" to-layer="62" to-port="0" />
		<edge from-layer="59" from-port="0" to-layer="68" to-port="0" />
		<edge from-layer="60" from-port="0" to-layer="66" to-port="0" />
		<edge from-layer="60" from-port="0" to-layer="67" to-port="0" />
		<edge from-layer="61" from-port="0" to-layer="67" to-port="1" />
		<edge from-layer="62" from-port="1" to-layer="63" to-port="0" />
		<edge from-layer="63" from-port="1" to-layer="65" to-port="0" />
		<edge from-layer="64" from-port="0" to-layer="65" to-port="1" />
		<edge from-layer="65" from-port="2" to-layer="66" to-port="1" />
		<edge from-layer="66" from-port="2" to-layer="67" to-port="2" />
		<edge from-layer="67" from-port="3" to-layer="68" to-port="1" />
		<edge from-layer="68" from-port="2" to-layer="69" to-port="1" />
		<edge from-layer="69" from-port="2" to-layer="70" to-port="0" />
		<edge from-layer="70" from-port="1" to-layer="274" to-port="0" />
		<edge from-layer="71" from-port="0" to-layer="79" to-port="0" />
		<edge from-layer="72" from-port="0" to-layer="78" to-port="0" />
		<edge from-layer="72" from-port="0" to-layer="77" to-port="1" />
		<edge from-layer="73" from-port="0" to-layer="76" to-port="0" />
		<edge from-layer="74" from-port="0" to-layer="76" to-port="1" />
		<edge from-layer="75" from-port="0" to-layer="76" to-port="2" />
		<edge from-layer="76" from-port="4" to-layer="78" to-port="2" />
		<edge from-layer="76" from-port="3" to-layer="77" to-port="0" />
		<edge from-layer="77" from-port="2" to-layer="78" to-port="1" />
		<edge from-layer="78" from-port="3" to-layer="79" to-port="1" />
		<edge from-layer="79" from-port="2" to-layer="80" to-port="1" />
		<edge from-layer="80" from-port="2" to-layer="84" to-port="0" />
		<edge from-layer="80" from-port="2" to-layer="91" to-port="0" />
		<edge from-layer="81" from-port="0" to-layer="90" to-port="0" />
		<edge from-layer="82" from-port="0" to-layer="89" to-port="0" />
		<edge from-layer="82" from-port="0" to-layer="88" to-port="0" />
		<edge from-layer="83" from-port="0" to-layer="89" to-port="1" />
		<edge from-layer="84" from-port="1" to-layer="85" to-port="0" />
		<edge from-layer="85" from-port="1" to-layer="87" to-port="0" />
		<edge from-layer="86" from-port="0" to-layer="87" to-port="1" />
		<edge from-layer="87" from-port="2" to-layer="88" to-port="1" />
		<edge from-layer="88" from-port="2" to-layer="89" to-port="2" />
		<edge from-layer="89" from-port="3" to-layer="90" to-port="1" />
		<edge from-layer="90" from-port="2" to-layer="91" to-port="1" />
		<edge from-layer="91" from-port="2" to-layer="92" to-port="0" />
		<edge from-layer="92" from-port="1" to-layer="249" to-port="0" />
		<edge from-layer="93" from-port="1" to-layer="101" to-port="0" />
		<edge from-layer="93" from-port="1" to-layer="96" to-port="0" />
		<edge from-layer="94" from-port="0" to-layer="96" to-port="1" />
		<edge from-layer="95" from-port="0" to-layer="96" to-port="2" />
		<edge from-layer="96" from-port="3" to-layer="98" to-port="0" />
		<edge from-layer="97" from-port="0" to-layer="98" to-port="1" />
		<edge from-layer="98" from-port="2" to-layer="106" to-port="0" />
		<edge from-layer="99" from-port="0" to-layer="101" to-port="1" />
		<edge from-layer="100" from-port="0" to-layer="101" to-port="2" />
		<edge from-layer="101" from-port="3" to-layer="103" to-port="0" />
		<edge from-layer="102" from-port="0" to-layer="103" to-port="1" />
		<edge from-layer="103" from-port="2" to-layer="106" to-port="1" />
		<edge from-layer="104" from-port="0" to-layer="106" to-port="2" />
		<edge from-layer="105" from-port="0" to-layer="106" to-port="3" />
		<edge from-layer="106" from-port="4" to-layer="107" to-port="1" />
		<edge from-layer="107" from-port="2" to-layer="109" to-port="0" />
		<edge from-layer="108" from-port="0" to-layer="109" to-port="1" />
		<edge from-layer="109" from-port="2" to-layer="120" to-port="0" />
		<edge from-layer="109" from-port="2" to-layer="110" to-port="0" />
		<edge from-layer="110" from-port="1" to-layer="117" to-port="0" />
		<edge from-layer="111" from-port="0" to-layer="117" to-port="1" />
		<edge from-layer="112" from-port="0" to-layer="117" to-port="2" />
		<edge from-layer="113" from-port="0" to-layer="115" to-port="0" />
		<edge from-layer="114" from-port="0" to-layer="115" to-port="1" />
		<edge from-layer="115" from-port="2" to-layer="117" to-port="3" />
		<edge from-layer="116" from-port="0" to-layer="117" to-port="4" />
		<edge from-layer="117" from-port="5" to-layer="119" to-port="0" />
		<edge from-layer="118" from-port="0" to-layer="119" to-port="1" />
		<edge from-layer="119" from-port="2" to-layer="120" to-port="1" />
		<edge from-layer="120" from-port="2" to-layer="121" to-port="0" />
		<edge from-layer="121" from-port="1" to-layer="123" to-port="0" />
		<edge from-layer="121" from-port="1" to-layer="128" to-port="0" />
		<edge from-layer="122" from-port="0" to-layer="123" to-port="1" />
		<edge from-layer="123" from-port="2" to-layer="125" to-port="0" />
		<edge from-layer="124" from-port="0" to-layer="125" to-port="1" />
		<edge from-layer="125" from-port="2" to-layer="146" to-port="0" />
		<edge from-layer="125" from-port="2" to-layer="161" to-port="0" />
		<edge from-layer="126" from-port="0" to-layer="136" to-port="0" />
		<edge from-layer="127" from-port="0" to-layer="135" to-port="0" />
		<edge from-layer="128" from-port="1" to-layer="131" to-port="0" />
		<edge from-layer="129" from-port="0" to-layer="131" to-port="1" />
		<edge from-layer="130" from-port="0" to-layer="131" to-port="2" />
		<edge from-layer="131" from-port="3" to-layer="133" to-port="0" />
		<edge from-layer="132" from-port="0" to-layer="133" to-port="1" />
		<edge from-layer="133" from-port="2" to-layer="135" to-port="1" />
		<edge from-layer="134" from-port="0" to-layer="135" to-port="2" />
		<edge from-layer="135" from-port="3" to-layer="136" to-port="1" />
		<edge from-layer="136" from-port="2" to-layer="143" to-port="0" />
		<edge from-layer="136" from-port="2" to-layer="174" to-port="0" />
		<edge from-layer="137" from-port="0" to-layer="143" to-port="1" />
		<edge from-layer="138" from-port="0" to-layer="143" to-port="2" />
		<edge from-layer="139" from-port="0" to-layer="141" to-port="0" />
		<edge from-layer="140" from-port="0" to-layer="141" to-port="1" />
		<edge from-layer="141" from-port="2" to-layer="143" to-port="3" />
		<edge from-layer="142" from-port="0" to-layer="143" to-port="4" />
		<edge from-layer="143" from-port="5" to-layer="145" to-port="0" />
		<edge from-layer="144" from-port="0" to-layer="145" to-port="1" />
		<edge from-layer="145" from-port="2" to-layer="161" to-port="1" />
		<edge from-layer="146" from-port="1" to-layer="149" to-port="0" />
		<edge from-layer="146" from-port="1" to-layer="151" to-port="0" />
		<edge from-layer="147" from-port="0" to-layer="149" to-port="1" />
		<edge from-layer="148" from-port="0" to-layer="151" to-port="2" />
		<edge from-layer="148" from-port="0" to-layer="149" to-port="2" />
		<edge from-layer="149" from-port="3" to-layer="152" to-port="0" />
		<edge from-layer="150" from-port="0" to-layer="151" to-port="1" />
		<edge from-layer="151" from-port="3" to-layer="152" to-port="1" />
		<edge from-layer="152" from-port="2" to-layer="161" to-port="2" />
		<edge from-layer="153" from-port="0" to-layer="161" to-port="3" />
		<edge from-layer="154" from-port="0" to-layer="161" to-port="4" />
		<edge from-layer="155" from-port="0" to-layer="157" to-port="0" />
		<edge from-layer="156" from-port="0" to-layer="157" to-port="1" />
		<edge from-layer="157" from-port="2" to-layer="158" to-port="0" />
		<edge from-layer="157" from-port="5" to-layer="158" to-port="1" />
		<edge from-layer="157" from-port="3" to-layer="159" to-port="0" />
		<edge from-layer="157" from-port="6" to-layer="159" to-port="1" />
		<edge from-layer="157" from-port="4" to-layer="160" to-port="2" />
		<edge from-layer="157" from-port="7" to-layer="160" to-port="3" />
		<edge from-layer="158" from-port="2" to-layer="160" to-port="0" />
		<edge from-layer="159" from-port="2" to-layer="160" to-port="1" />
		<edge from-layer="160" from-port="4" to-layer="161" to-port="5" />
		<edge from-layer="161" from-port="6" to-layer="163" to-port="0" />
		<edge from-layer="162" from-port="0" to-layer="163" to-port="1" />
		<edge from-layer="163" from-port="2" to-layer="165" to-port="0" />
		<edge from-layer="164" from-port="0" to-layer="165" to-port="1" />
		<edge from-layer="165" from-port="2" to-layer="167" to-port="0" />
		<edge from-layer="166" from-port="0" to-layer="167" to-port="1" />
		<edge from-layer="167" from-port="2" to-layer="177" to-port="0" />
		<edge from-layer="167" from-port="2" to-layer="192" to-port="0" />
		<edge from-layer="168" from-port="0" to-layer="174" to-port="1" />
		<edge from-layer="169" from-port="0" to-layer="174" to-port="2" />
		<edge from-layer="170" from-port="0" to-layer="172" to-port="0" />
		<edge from-layer="171" from-port="0" to-layer="172" to-port="1" />
		<edge from-layer="172" from-port="2" to-layer="174" to-port="3" />
		<edge from-layer="173" from-port="0" to-layer="174" to-port="4" />
		<edge from-layer="174" from-port="5" to-layer="176" to-port="0" />
		<edge from-layer="175" from-port="0" to-layer="176" to-port="1" />
		<edge from-layer="176" from-port="2" to-layer="192" to-port="1" />
		<edge from-layer="177" from-port="1" to-layer="182" to-port="0" />
		<edge from-layer="177" from-port="1" to-layer="180" to-port="0" />
		<edge from-layer="178" from-port="0" to-layer="180" to-port="1" />
		<edge from-layer="179" from-port="0" to-layer="182" to-port="2" />
		<edge from-layer="179" from-port="0" to-layer="180" to-port="2" />
		<edge from-layer="180" from-port="3" to-layer="183" to-port="0" />
		<edge from-layer="181" from-port="0" to-layer="182" to-port="1" />
		<edge from-layer="182" from-port="3" to-layer="183" to-port="1" />
		<edge from-layer="183" from-port="2" to-layer="192" to-port="2" />
		<edge from-layer="184" from-port="0" to-layer="192" to-port="3" />
		<edge from-layer="185" from-port="0" to-layer="192" to-port="4" />
		<edge from-layer="186" from-port="0" to-layer="188" to-port="0" />
		<edge from-layer="187" from-port="0" to-layer="188" to-port="1" />
		<edge from-layer="188" from-port="2" to-layer="189" to-port="0" />
		<edge from-layer="188" from-port="5" to-layer="189" to-port="1" />
		<edge from-layer="188" from-port="3" to-layer="190" to-port="0" />
		<edge from-layer="188" from-port="6" to-layer="190" to-port="1" />
		<edge from-layer="188" from-port="4" to-layer="191" to-port="2" />
		<edge from-layer="188" from-port="7" to-layer="191" to-port="3" />
		<edge from-layer="189" from-port="2" to-layer="191" to-port="0" />
		<edge from-layer="190" from-port="2" to-layer="191" to-port="1" />
		<edge from-layer="191" from-port="4" to-layer="192" to-port="5" />
		<edge from-layer="192" from-port="6" to-layer="194" to-port="0" />
		<edge from-layer="193" from-port="0" to-layer="194" to-port="1" />
		<edge from-layer="194" from-port="2" to-layer="196" to-port="0" />
		<edge from-layer="195" from-port="0" to-layer="196" to-port="1" />
		<edge from-layer="196" from-port="2" to-layer="198" to-port="0" />
		<edge from-layer="197" from-port="0" to-layer="198" to-port="1" />
		<edge from-layer="198" from-port="2" to-layer="213" to-port="0" />
		<edge from-layer="198" from-port="2" to-layer="199" to-port="0" />
		<edge from-layer="199" from-port="1" to-layer="202" to-port="0" />
		<edge from-layer="199" from-port="1" to-layer="207" to-port="0" />
		<edge from-layer="200" from-port="0" to-layer="202" to-port="1" />
		<edge from-layer="201" from-port="0" to-layer="202" to-port="2" />
		<edge from-layer="202" from-port="3" to-layer="204" to-port="0" />
		<edge from-layer="203" from-port="0" to-layer="204" to-port="1" />
		<edge from-layer="204" from-port="2" to-layer="212" to-port="0" />
		<edge from-layer="205" from-port="0" to-layer="207" to-port="1" />
		<edge from-layer="206" from-port="0" to-layer="207" to-port="2" />
		<edge from-layer="207" from-port="3" to-layer="209" to-port="0" />
		<edge from-layer="208" from-port="0" to-layer="209" to-port="1" />
		<edge from-layer="209" from-port="2" to-layer="212" to-port="1" />
		<edge from-layer="210" from-port="0" to-layer="212" to-port="2" />
		<edge from-layer="211" from-port="0" to-layer="212" to-port="3" />
		<edge from-layer="212" from-port="4" to-layer="213" to-port="1" />
		<edge from-layer="213" from-port="2" to-layer="215" to-port="0" />
		<edge from-layer="214" from-port="0" to-layer="215" to-port="1" />
		<edge from-layer="215" from-port="2" to-layer="216" to-port="0" />
		<edge from-layer="215" from-port="2" to-layer="226" to-port="0" />
		<edge from-layer="216" from-port="1" to-layer="223" to-port="0" />
		<edge from-layer="217" from-port="0" to-layer="223" to-port="1" />
		<edge from-layer="218" from-port="0" to-layer="223" to-port="2" />
		<edge from-layer="219" from-port="0" to-layer="221" to-port="0" />
		<edge from-layer="220" from-port="0" to-layer="221" to-port="1" />
		<edge from-layer="221" from-port="2" to-layer="223" to-port="3" />
		<edge from-layer="222" from-port="0" to-layer="223" to-port="4" />
		<edge from-layer="223" from-port="5" to-layer="225" to-port="0" />
		<edge from-layer="224" from-port="0" to-layer="225" to-port="1" />
		<edge from-layer="225" from-port="2" to-layer="226" to-port="1" />
		<edge from-layer="226" from-port="2" to-layer="227" to-port="0" />
		<edge from-layer="227" from-port="1" to-layer="246" to-port="0" />
		<edge from-layer="228" from-port="1" to-layer="231" to-port="0" />
		<edge from-layer="228" from-port="1" to-layer="236" to-port="0" />
		<edge from-layer="228" from-port="1" to-layer="241" to-port="0" />
		<edge from-layer="229" from-port="0" to-layer="231" to-port="1" />
		<edge from-layer="230" from-port="0" to-layer="231" to-port="2" />
		<edge from-layer="231" from-port="3" to-layer="233" to-port="0" />
		<edge from-layer="232" from-port="0" to-layer="233" to-port="1" />
		<edge from-layer="233" from-port="2" to-layer="245" to-port="0" />
		<edge from-layer="234" from-port="0" to-layer="236" to-port="1" />
		<edge from-layer="235" from-port="0" to-layer="236" to-port="2" />
		<edge from-layer="236" from-port="3" to-layer="238" to-port="0" />
		<edge from-layer="237" from-port="0" to-layer="238" to-port="1" />
		<edge from-layer="238" from-port="2" to-layer="245" to-port="1" />
		<edge from-layer="239" from-port="0" to-layer="241" to-port="1" />
		<edge from-layer="240" from-port="0" to-layer="241" to-port="2" />
		<edge from-layer="241" from-port="3" to-layer="243" to-port="0" />
		<edge from-layer="242" from-port="0" to-layer="243" to-port="1" />
		<edge from-layer="243" from-port="2" to-layer="245" to-port="2" />
		<edge from-layer="244" from-port="0" to-layer="245" to-port="3" />
		<edge from-layer="245" from-port="4" to-layer="246" to-port="1" />
		<edge from-layer="246" from-port="2" to-layer="248" to-port="0" />
		<edge from-layer="247" from-port="0" to-layer="248" to-port="1" />
		<edge from-layer="248" from-port="2" to-layer="249" to-port="1" />
		<edge from-layer="249" from-port="2" to-layer="259" to-port="0" />
		<edge from-layer="250" from-port="0" to-layer="258" to-port="0" />
		<edge from-layer="251" from-port="0" to-layer="256" to-port="1" />
		<edge from-layer="251" from-port="0" to-layer="257" to-port="0" />
		<edge from-layer="252" from-port="0" to-layer="255" to-port="0" />
		<edge from-layer="253" from-port="0" to-layer="255" to-port="1" />
		<edge from-layer="254" from-port="0" to-layer="255" to-port="2" />
		<edge from-layer="255" from-port="3" to-layer="256" to-port="0" />
		<edge from-layer="255" from-port="4" to-layer="257" to-port="2" />
		<edge from-layer="256" from-port="2" to-layer="257" to-port="1" />
		<edge from-layer="257" from-port="3" to-layer="258" to-port="1" />
		<edge from-layer="258" from-port="2" to-layer="259" to-port="1" />
		<edge from-layer="259" from-port="2" to-layer="261" to-port="0" />
		<edge from-layer="260" from-port="0" to-layer="261" to-port="1" />
		<edge from-layer="261" from-port="2" to-layer="272" to-port="0" />
		<edge from-layer="261" from-port="2" to-layer="265" to-port="0" />
		<edge from-layer="262" from-port="0" to-layer="271" to-port="0" />
		<edge from-layer="263" from-port="0" to-layer="269" to-port="0" />
		<edge from-layer="263" from-port="0" to-layer="270" to-port="0" />
		<edge from-layer="264" from-port="0" to-layer="270" to-port="1" />
		<edge from-layer="265" from-port="1" to-layer="266" to-port="0" />
		<edge from-layer="266" from-port="1" to-layer="268" to-port="0" />
		<edge from-layer="267" from-port="0" to-layer="268" to-port="1" />
		<edge from-layer="268" from-port="2" to-layer="269" to-port="1" />
		<edge from-layer="269" from-port="2" to-layer="270" to-port="2" />
		<edge from-layer="270" from-port="3" to-layer="271" to-port="1" />
		<edge from-layer="271" from-port="2" to-layer="272" to-port="1" />
		<edge from-layer="272" from-port="2" to-layer="273" to-port="0" />
		<edge from-layer="273" from-port="1" to-layer="274" to-port="1" />
		<edge from-layer="274" from-port="2" to-layer="284" to-port="0" />
		<edge from-layer="275" from-port="0" to-layer="283" to-port="0" />
		<edge from-layer="276" from-port="0" to-layer="281" to-port="1" />
		<edge from-layer="276" from-port="0" to-layer="282" to-port="0" />
		<edge from-layer="277" from-port="0" to-layer="280" to-port="0" />
		<edge from-layer="278" from-port="0" to-layer="280" to-port="1" />
		<edge from-layer="279" from-port="0" to-layer="280" to-port="2" />
		<edge from-layer="280" from-port="3" to-layer="281" to-port="0" />
		<edge from-layer="280" from-port="4" to-layer="282" to-port="2" />
		<edge from-layer="281" from-port="2" to-layer="282" to-port="1" />
		<edge from-layer="282" from-port="3" to-layer="283" to-port="1" />
		<edge from-layer="283" from-port="2" to-layer="284" to-port="1" />
		<edge from-layer="284" from-port="2" to-layer="286" to-port="0" />
		<edge from-layer="285" from-port="0" to-layer="286" to-port="1" />
		<edge from-layer="286" from-port="2" to-layer="290" to-port="0" />
		<edge from-layer="286" from-port="2" to-layer="297" to-port="0" />
		<edge from-layer="287" from-port="0" to-layer="296" to-port="0" />
		<edge from-layer="288" from-port="0" to-layer="294" to-port="0" />
		<edge from-layer="288" from-port="0" to-layer="295" to-port="0" />
		<edge from-layer="289" from-port="0" to-layer="295" to-port="1" />
		<edge from-layer="290" from-port="1" to-layer="291" to-port="0" />
		<edge from-layer="291" from-port="1" to-layer="293" to-port="0" />
		<edge from-layer="292" from-port="0" to-layer="293" to-port="1" />
		<edge from-layer="293" from-port="2" to-layer="294" to-port="1" />
		<edge from-layer="294" from-port="2" to-layer="295" to-port="2" />
		<edge from-layer="295" from-port="3" to-layer="296" to-port="1" />
		<edge from-layer="296" from-port="2" to-layer="297" to-port="1" />
		<edge from-layer="297" from-port="2" to-layer="298" to-port="0" />
		<edge from-layer="298" from-port="1" to-layer="299" to-port="1" />
		<edge from-layer="299" from-port="2" to-layer="309" to-port="0" />
		<edge from-layer="300" from-port="0" to-layer="308" to-port="0" />
		<edge from-layer="301" from-port="0" to-layer="306" to-port="1" />
		<edge from-layer="301" from-port="0" to-layer="307" to-port="0" />
		<edge from-layer="302" from-port="0" to-layer="305" to-port="0" />
		<edge from-layer="303" from-port="0" to-layer="305" to-port="1" />
		<edge from-layer="304" from-port="0" to-layer="305" to-port="2" />
		<edge from-layer="305" from-port="4" to-layer="307" to-port="2" />
		<edge from-layer="305" from-port="3" to-layer="306" to-port="0" />
		<edge from-layer="306" from-port="2" to-layer="307" to-port="1" />
		<edge from-layer="307" from-port="3" to-layer="308" to-port="1" />
		<edge from-layer="308" from-port="2" to-layer="309" to-port="1" />
		<edge from-layer="309" from-port="2" to-layer="311" to-port="0" />
		<edge from-layer="310" from-port="0" to-layer="311" to-port="1" />
		<edge from-layer="311" from-port="2" to-layer="315" to-port="0" />
		<edge from-layer="311" from-port="2" to-layer="322" to-port="0" />
		<edge from-layer="312" from-port="0" to-layer="321" to-port="0" />
		<edge from-layer="313" from-port="0" to-layer="319" to-port="0" />
		<edge from-layer="313" from-port="0" to-layer="320" to-port="0" />
		<edge from-layer="314" from-port="0" to-layer="320" to-port="1" />
		<edge from-layer="315" from-port="1" to-layer="316" to-port="0" />
		<edge from-layer="316" from-port="1" to-layer="318" to-port="0" />
		<edge from-layer="317" from-port="0" to-layer="318" to-port="1" />
		<edge from-layer="318" from-port="2" to-layer="319" to-port="1" />
		<edge from-layer="319" from-port="2" to-layer="320" to-port="2" />
		<edge from-layer="320" from-port="3" to-layer="321" to-port="1" />
		<edge from-layer="321" from-port="2" to-layer="322" to-port="1" />
		<edge from-layer="322" from-port="2" to-layer="323" to-port="0" />
		<edge from-layer="323" from-port="1" to-layer="324" to-port="1" />
		<edge from-layer="324" from-port="2" to-layer="326" to-port="0" />
		<edge from-layer="325" from-port="0" to-layer="326" to-port="1" />
		<edge from-layer="326" from-port="2" to-layer="330" to-port="0" />
		<edge from-layer="326" from-port="2" to-layer="337" to-port="0" />
		<edge from-layer="327" from-port="0" to-layer="336" to-port="0" />
		<edge from-layer="328" from-port="0" to-layer="334" to-port="0" />
		<edge from-layer="328" from-port="0" to-layer="335" to-port="0" />
		<edge from-layer="329" from-port="0" to-layer="335" to-port="1" />
		<edge from-layer="330" from-port="1" to-layer="331" to-port="0" />
		<edge from-layer="331" from-port="1" to-layer="333" to-port="0" />
		<edge from-layer="332" from-port="0" to-layer="333" to-port="1" />
		<edge from-layer="333" from-port="2" to-layer="334" to-port="1" />
		<edge from-layer="334" from-port="2" to-layer="335" to-port="2" />
		<edge from-layer="335" from-port="3" to-layer="336" to-port="1" />
		<edge from-layer="336" from-port="2" to-layer="337" to-port="1" />
		<edge from-layer="337" from-port="2" to-layer="338" to-port="0" />
		<edge from-layer="338" from-port="1" to-layer="339" to-port="0" />
	</edges>
	<rt_info />
</net>
